
//===-------------------------------------------===//
Legalizing operation : 'builtin.module'(0x6321973225b0) {
  * Fold {
  } -> FAILURE : unable to fold
} -> FAILURE : no matched legalization pattern
//===-------------------------------------------===//

//===-------------------------------------------===//
Legalizing operation : 'tt.func'(0x632197321090) {
} -> SUCCESS : operation marked legal by the target
//===-------------------------------------------===//

//===-------------------------------------------===//
Legalizing operation : 'arith.constant'(0x6321972f5090) {
  %0 = "arith.constant"() <{value = dense<1.000000e+00> : tensor<128x32xf16>}> : () -> tensor<128x32xf16>

  * Fold {
  } -> FAILURE : unable to fold

  * Pattern : 'arith.constant -> ()' {
    ** Insert  : 'arith.constant'(0x63219732cc30)
    ** Replace : 'arith.constant'(0x6321972f5090)

    //===-------------------------------------------===//
    Legalizing operation : 'arith.constant'(0x63219732cc30) {
      %0 = "arith.constant"() <{value = dense<1.000000e+00> : tensor<128x32xf16, #ttg.blocked<{sizePerThread = [1, 1], threadsPerWarp = [1, 32], warpsPerCTA = [2, 1], order = [1, 0]}>>}> : () -> tensor<128x32xf16, #ttg.blocked<{sizePerThread = [1, 1], threadsPerWarp = [1, 32], warpsPerCTA = [2, 1], order = [1, 0]}>>

    } -> SUCCESS : operation marked legal by the target
    //===-------------------------------------------===//
  } -> SUCCESS : pattern applied successfully
} -> SUCCESS
//===-------------------------------------------===//

//===-------------------------------------------===//
Legalizing operation : 'arith.constant'(0x63219731fce0) {
  %2 = "arith.constant"() <{value = dense<2.000000e+00> : tensor<32x128xf16>}> : () -> tensor<32x128xf16>

  * Fold {
  } -> FAILURE : unable to fold

  * Pattern : 'arith.constant -> ()' {
    ** Insert  : 'arith.constant'(0x63219732d8b0)
    ** Replace : 'arith.constant'(0x63219731fce0)

    //===-------------------------------------------===//
    Legalizing operation : 'arith.constant'(0x63219732d8b0) {
      %2 = "arith.constant"() <{value = dense<2.000000e+00> : tensor<32x128xf16, #ttg.blocked<{sizePerThread = [1, 1], threadsPerWarp = [1, 32], warpsPerCTA = [1, 2], order = [1, 0]}>>}> : () -> tensor<32x128xf16, #ttg.blocked<{sizePerThread = [1, 1], threadsPerWarp = [1, 32], warpsPerCTA = [1, 2], order = [1, 0]}>>

    } -> SUCCESS : operation marked legal by the target
    //===-------------------------------------------===//
  } -> SUCCESS : pattern applied successfully
} -> SUCCESS
//===-------------------------------------------===//

//===-------------------------------------------===//
Legalizing operation : 'arith.constant'(0x632197320b30) {
  %4 = "arith.constant"() <{value = dense<3.000000e+00> : tensor<128x128xf32>}> : () -> tensor<128x128xf32>

  * Fold {
  } -> FAILURE : unable to fold

  * Pattern : 'arith.constant -> ()' {
    ** Insert  : 'arith.constant'(0x63219732e190)
    ** Replace : 'arith.constant'(0x632197320b30)

    //===-------------------------------------------===//
    Legalizing operation : 'arith.constant'(0x63219732e190) {
      %4 = "arith.constant"() <{value = dense<3.000000e+00> : tensor<128x128xf32, #ttg.blocked<{sizePerThread = [1, 1], threadsPerWarp = [1, 32], warpsPerCTA = [1, 2], order = [1, 0]}>>}> : () -> tensor<128x128xf32, #ttg.blocked<{sizePerThread = [1, 1], threadsPerWarp = [1, 32], warpsPerCTA = [1, 2], order = [1, 0]}>>

    } -> SUCCESS : operation marked legal by the target
    //===-------------------------------------------===//
  } -> SUCCESS : pattern applied successfully
} -> SUCCESS
//===-------------------------------------------===//

//===-------------------------------------------===//
Legalizing operation : 'tt.dot'(0x6321972e4480) {
  %6 = "tt.dot"(%1, %3, %5) <{inputPrecision = 2 : i32, maxNumImpreciseAcc = 0 : i32}> : (tensor<128x32xf16>, tensor<32x128xf16>, tensor<128x128xf32>) -> tensor<128x128xf32>

  * Fold {
  } -> FAILURE : unable to fold

  * Pattern : 'tt.dot -> ()' {
    ** Insert  : 'ttg.convert_layout'(0x632197323ba0)
    ** Insert  : 'ttg.convert_layout'(0x63219732de70)
    ** Insert  : 'ttg.convert_layout'(0x63219732df30)
    ** Insert  : 'tt.dot'(0x63219731ee60)
    ** Replace : 'tt.dot'(0x6321972e4480)

    //===-------------------------------------------===//
    Legalizing operation : 'ttg.convert_layout'(0x632197323ba0) {
      %6 = "ttg.convert_layout"(%0) : (tensor<128x32xf16, #ttg.blocked<{sizePerThread = [1, 1], threadsPerWarp = [1, 32], warpsPerCTA = [2, 1], order = [1, 0]}>>) -> tensor<128x32xf16, #ttg.dot_op<{opIdx = 0, parent = #ttg.blocked<{sizePerThread = [4, 4], threadsPerWarp = [1, 32], warpsPerCTA = [2, 1], order = [1, 0]}>}>>

    } -> SUCCESS : operation marked legal by the target
    //===-------------------------------------------===//

    //===-------------------------------------------===//
    Legalizing operation : 'ttg.convert_layout'(0x63219732de70) {
      %7 = "ttg.convert_layout"(%2) : (tensor<32x128xf16, #ttg.blocked<{sizePerThread = [1, 1], threadsPerWarp = [1, 32], warpsPerCTA = [1, 2], order = [1, 0]}>>) -> tensor<32x128xf16, #ttg.dot_op<{opIdx = 1, parent = #ttg.blocked<{sizePerThread = [4, 4], threadsPerWarp = [1, 32], warpsPerCTA = [2, 1], order = [1, 0]}>}>>

    } -> SUCCESS : operation marked legal by the target
    //===-------------------------------------------===//

    //===-------------------------------------------===//
    Legalizing operation : 'ttg.convert_layout'(0x63219732df30) {
      %8 = "ttg.convert_layout"(%4) : (tensor<128x128xf32, #ttg.blocked<{sizePerThread = [1, 1], threadsPerWarp = [1, 32], warpsPerCTA = [1, 2], order = [1, 0]}>>) -> tensor<128x128xf32, #ttg.blocked<{sizePerThread = [4, 4], threadsPerWarp = [1, 32], warpsPerCTA = [2, 1], order = [1, 0]}>>

    } -> SUCCESS : operation marked legal by the target
    //===-------------------------------------------===//

    //===-------------------------------------------===//
    Legalizing operation : 'tt.dot'(0x63219731ee60) {
      %9 = "tt.dot"(%6, %7, %8) <{inputPrecision = 2 : i32, maxNumImpreciseAcc = 0 : i32}> : (tensor<128x32xf16, #ttg.dot_op<{opIdx = 0, parent = #ttg.blocked<{sizePerThread = [4, 4], threadsPerWarp = [1, 32], warpsPerCTA = [2, 1], order = [1, 0]}>}>>, tensor<32x128xf16, #ttg.dot_op<{opIdx = 1, parent = #ttg.blocked<{sizePerThread = [4, 4], threadsPerWarp = [1, 32], warpsPerCTA = [2, 1], order = [1, 0]}>}>>, tensor<128x128xf32, #ttg.blocked<{sizePerThread = [4, 4], threadsPerWarp = [1, 32], warpsPerCTA = [2, 1], order = [1, 0]}>>) -> tensor<128x128xf32, #ttg.blocked<{sizePerThread = [4, 4], threadsPerWarp = [1, 32], warpsPerCTA = [2, 1], order = [1, 0]}>>

    } -> SUCCESS : operation marked legal by the target
    //===-------------------------------------------===//
  } -> SUCCESS : pattern applied successfully
} -> SUCCESS
//===-------------------------------------------===//

//===-------------------------------------------===//
Legalizing operation : 'tt.return'(0x6321972f3ce0) {
  "tt.return"() : () -> ()

} -> SUCCESS : operation marked legal by the target
//===-------------------------------------------===//
