// -----// IR Dump Before Inliner (inline) ('builtin.module' operation) //----- //
#loc = loc("/mnt/home/douliyang/triton-workspace/triton-tutorial/tutorial/Triton-101/Debug/vector_add.py":30:0)
module {
  tt.func public @add_kernel(%arg0: !tt.ptr<f32> {tt.divisibility = 16 : i32} loc("/mnt/home/douliyang/triton-workspace/triton-tutorial/tutorial/Triton-101/Debug/vector_add.py":30:0), %arg1: !tt.ptr<f32> {tt.divisibility = 16 : i32} loc("/mnt/home/douliyang/triton-workspace/triton-tutorial/tutorial/Triton-101/Debug/vector_add.py":30:0), %arg2: !tt.ptr<f32> {tt.divisibility = 16 : i32} loc("/mnt/home/douliyang/triton-workspace/triton-tutorial/tutorial/Triton-101/Debug/vector_add.py":30:0), %arg3: i32 {tt.divisibility = 16 : i32} loc("/mnt/home/douliyang/triton-workspace/triton-tutorial/tutorial/Triton-101/Debug/vector_add.py":30:0)) attributes {noinline = false} {
    %0 = tt.get_program_id x : i32 loc(#loc1)
    %c1024_i32 = arith.constant 1024 : i32 loc(#loc2)
    %c1024_i32_0 = arith.constant 1024 : i32 loc(#loc2)
    %1 = arith.extsi %0 : i32 to i64 loc(#loc2)
    %2 = arith.extsi %c1024_i32_0 : i32 to i64 loc(#loc2)
    %3 = arith.muli %1, %2 : i64 loc(#loc2)
    %c2147483647_i64 = arith.constant 2147483647 : i64 loc(#loc2)
    %c-2147483648_i64 = arith.constant -2147483648 : i64 loc(#loc2)
    %4 = arith.cmpi sle, %3, %c2147483647_i64 : i64 loc(#loc2)
    %5 = arith.cmpi sge, %3, %c-2147483648_i64 : i64 loc(#loc2)
    %6 = arith.andi %4, %5 : i1 loc(#loc2)
    %7 = arith.muli %0, %c1024_i32_0 : i32 loc(#loc2)
    %8 = tt.make_range {end = 1024 : i32, start = 0 : i32} : tensor<1024xi32> loc(#loc3)
    %9 = tt.splat %7 : i32 -> tensor<1024xi32> loc(#loc4)
    %10 = arith.extsi %9 : tensor<1024xi32> to tensor<1024xi64> loc(#loc4)
    %11 = arith.extsi %8 : tensor<1024xi32> to tensor<1024xi64> loc(#loc4)
    %12 = arith.addi %10, %11 : tensor<1024xi64> loc(#loc4)
    %c2147483647_i64_1 = arith.constant 2147483647 : i64 loc(#loc4)
    %c-2147483648_i64_2 = arith.constant -2147483648 : i64 loc(#loc4)
    %cst = arith.constant dense<2147483647> : tensor<1024xi64> loc(#loc4)
    %13 = arith.cmpi sle, %12, %cst : tensor<1024xi64> loc(#loc4)
    %cst_3 = arith.constant dense<-2147483648> : tensor<1024xi64> loc(#loc4)
    %14 = arith.cmpi sge, %12, %cst_3 : tensor<1024xi64> loc(#loc4)
    %15 = arith.andi %13, %14 : tensor<1024xi1> loc(#loc4)
    %16 = arith.addi %9, %8 : tensor<1024xi32> loc(#loc4)
    %17 = tt.splat %arg3 : i32 -> tensor<1024xi32> loc(#loc5)
    %18 = arith.cmpi slt, %16, %17 : tensor<1024xi32> loc(#loc5)
    %19 = tt.splat %arg0 : !tt.ptr<f32> -> tensor<1024x!tt.ptr<f32>> loc(#loc6)
    %20 = tt.addptr %19, %16 : tensor<1024x!tt.ptr<f32>>, tensor<1024xi32> loc(#loc6)
    %21 = tt.load %20, %18 : tensor<1024x!tt.ptr<f32>> loc(#loc7)
    %22 = tt.splat %arg1 : !tt.ptr<f32> -> tensor<1024x!tt.ptr<f32>> loc(#loc8)
    %23 = tt.addptr %22, %16 : tensor<1024x!tt.ptr<f32>>, tensor<1024xi32> loc(#loc8)
    %24 = tt.load %23, %18 : tensor<1024x!tt.ptr<f32>> loc(#loc9)
    %25 = arith.addf %21, %24 : tensor<1024xf32> loc(#loc10)
    %26 = tt.splat %arg2 : !tt.ptr<f32> -> tensor<1024x!tt.ptr<f32>> loc(#loc11)
    %27 = tt.addptr %26, %16 : tensor<1024x!tt.ptr<f32>>, tensor<1024xi32> loc(#loc11)
    tt.store %27, %25, %18 : tensor<1024x!tt.ptr<f32>> loc(#loc12)
    tt.return loc(#loc13)
  } loc(#loc)
} loc(#loc)
#loc1 = loc("/mnt/home/douliyang/triton-workspace/triton-tutorial/tutorial/Triton-101/Debug/vector_add.py":39:24)
#loc2 = loc("/mnt/home/douliyang/triton-workspace/triton-tutorial/tutorial/Triton-101/Debug/vector_add.py":52:24)
#loc3 = loc("/mnt/home/douliyang/triton-workspace/triton-tutorial/tutorial/Triton-101/Debug/vector_add.py":53:41)
#loc4 = loc("/mnt/home/douliyang/triton-workspace/triton-tutorial/tutorial/Triton-101/Debug/vector_add.py":53:28)
#loc5 = loc("/mnt/home/douliyang/triton-workspace/triton-tutorial/tutorial/Triton-101/Debug/vector_add.py":55:21)
#loc6 = loc("/mnt/home/douliyang/triton-workspace/triton-tutorial/tutorial/Triton-101/Debug/vector_add.py":58:24)
#loc7 = loc("/mnt/home/douliyang/triton-workspace/triton-tutorial/tutorial/Triton-101/Debug/vector_add.py":58:16)
#loc8 = loc("/mnt/home/douliyang/triton-workspace/triton-tutorial/tutorial/Triton-101/Debug/vector_add.py":59:24)
#loc9 = loc("/mnt/home/douliyang/triton-workspace/triton-tutorial/tutorial/Triton-101/Debug/vector_add.py":59:16)
#loc10 = loc("/mnt/home/douliyang/triton-workspace/triton-tutorial/tutorial/Triton-101/Debug/vector_add.py":60:17)
#loc11 = loc("/mnt/home/douliyang/triton-workspace/triton-tutorial/tutorial/Triton-101/Debug/vector_add.py":62:26)
#loc12 = loc("/mnt/home/douliyang/triton-workspace/triton-tutorial/tutorial/Triton-101/Debug/vector_add.py":62:35)
#loc13 = loc("/mnt/home/douliyang/triton-workspace/triton-tutorial/tutorial/Triton-101/Debug/vector_add.py":62:4)


// -----// IR Dump Before Canonicalizer (canonicalize) ('tt.func' operation: @add_kernel) //----- //
#loc = loc("/mnt/home/douliyang/triton-workspace/triton-tutorial/tutorial/Triton-101/Debug/vector_add.py":30:0)
module {
  tt.func public @add_kernel(%arg0: !tt.ptr<f32> {tt.divisibility = 16 : i32} loc("/mnt/home/douliyang/triton-workspace/triton-tutorial/tutorial/Triton-101/Debug/vector_add.py":30:0), %arg1: !tt.ptr<f32> {tt.divisibility = 16 : i32} loc("/mnt/home/douliyang/triton-workspace/triton-tutorial/tutorial/Triton-101/Debug/vector_add.py":30:0), %arg2: !tt.ptr<f32> {tt.divisibility = 16 : i32} loc("/mnt/home/douliyang/triton-workspace/triton-tutorial/tutorial/Triton-101/Debug/vector_add.py":30:0), %arg3: i32 {tt.divisibility = 16 : i32} loc("/mnt/home/douliyang/triton-workspace/triton-tutorial/tutorial/Triton-101/Debug/vector_add.py":30:0)) attributes {noinline = false} {
    %0 = tt.get_program_id x : i32 loc(#loc1)
    %c1024_i32 = arith.constant 1024 : i32 loc(#loc2)
    %c1024_i32_0 = arith.constant 1024 : i32 loc(#loc2)
    %1 = arith.extsi %0 : i32 to i64 loc(#loc2)
    %2 = arith.extsi %c1024_i32_0 : i32 to i64 loc(#loc2)
    %3 = arith.muli %1, %2 : i64 loc(#loc2)
    %c2147483647_i64 = arith.constant 2147483647 : i64 loc(#loc2)
    %c-2147483648_i64 = arith.constant -2147483648 : i64 loc(#loc2)
    %4 = arith.cmpi sle, %3, %c2147483647_i64 : i64 loc(#loc2)
    %5 = arith.cmpi sge, %3, %c-2147483648_i64 : i64 loc(#loc2)
    %6 = arith.andi %4, %5 : i1 loc(#loc2)
    %7 = arith.muli %0, %c1024_i32_0 : i32 loc(#loc2)
    %8 = tt.make_range {end = 1024 : i32, start = 0 : i32} : tensor<1024xi32> loc(#loc3)
    %9 = tt.splat %7 : i32 -> tensor<1024xi32> loc(#loc4)
    %10 = arith.extsi %9 : tensor<1024xi32> to tensor<1024xi64> loc(#loc4)
    %11 = arith.extsi %8 : tensor<1024xi32> to tensor<1024xi64> loc(#loc4)
    %12 = arith.addi %10, %11 : tensor<1024xi64> loc(#loc4)
    %c2147483647_i64_1 = arith.constant 2147483647 : i64 loc(#loc4)
    %c-2147483648_i64_2 = arith.constant -2147483648 : i64 loc(#loc4)
    %cst = arith.constant dense<2147483647> : tensor<1024xi64> loc(#loc4)
    %13 = arith.cmpi sle, %12, %cst : tensor<1024xi64> loc(#loc4)
    %cst_3 = arith.constant dense<-2147483648> : tensor<1024xi64> loc(#loc4)
    %14 = arith.cmpi sge, %12, %cst_3 : tensor<1024xi64> loc(#loc4)
    %15 = arith.andi %13, %14 : tensor<1024xi1> loc(#loc4)
    %16 = arith.addi %9, %8 : tensor<1024xi32> loc(#loc4)
    %17 = tt.splat %arg3 : i32 -> tensor<1024xi32> loc(#loc5)
    %18 = arith.cmpi slt, %16, %17 : tensor<1024xi32> loc(#loc5)
    %19 = tt.splat %arg0 : !tt.ptr<f32> -> tensor<1024x!tt.ptr<f32>> loc(#loc6)
    %20 = tt.addptr %19, %16 : tensor<1024x!tt.ptr<f32>>, tensor<1024xi32> loc(#loc6)
    %21 = tt.load %20, %18 : tensor<1024x!tt.ptr<f32>> loc(#loc7)
    %22 = tt.splat %arg1 : !tt.ptr<f32> -> tensor<1024x!tt.ptr<f32>> loc(#loc8)
    %23 = tt.addptr %22, %16 : tensor<1024x!tt.ptr<f32>>, tensor<1024xi32> loc(#loc8)
    %24 = tt.load %23, %18 : tensor<1024x!tt.ptr<f32>> loc(#loc9)
    %25 = arith.addf %21, %24 : tensor<1024xf32> loc(#loc10)
    %26 = tt.splat %arg2 : !tt.ptr<f32> -> tensor<1024x!tt.ptr<f32>> loc(#loc11)
    %27 = tt.addptr %26, %16 : tensor<1024x!tt.ptr<f32>>, tensor<1024xi32> loc(#loc11)
    tt.store %27, %25, %18 : tensor<1024x!tt.ptr<f32>> loc(#loc12)
    tt.return loc(#loc13)
  } loc(#loc)
} loc(#loc)
#loc1 = loc("/mnt/home/douliyang/triton-workspace/triton-tutorial/tutorial/Triton-101/Debug/vector_add.py":39:24)
#loc2 = loc("/mnt/home/douliyang/triton-workspace/triton-tutorial/tutorial/Triton-101/Debug/vector_add.py":52:24)
#loc3 = loc("/mnt/home/douliyang/triton-workspace/triton-tutorial/tutorial/Triton-101/Debug/vector_add.py":53:41)
#loc4 = loc("/mnt/home/douliyang/triton-workspace/triton-tutorial/tutorial/Triton-101/Debug/vector_add.py":53:28)
#loc5 = loc("/mnt/home/douliyang/triton-workspace/triton-tutorial/tutorial/Triton-101/Debug/vector_add.py":55:21)
#loc6 = loc("/mnt/home/douliyang/triton-workspace/triton-tutorial/tutorial/Triton-101/Debug/vector_add.py":58:24)
#loc7 = loc("/mnt/home/douliyang/triton-workspace/triton-tutorial/tutorial/Triton-101/Debug/vector_add.py":58:16)
#loc8 = loc("/mnt/home/douliyang/triton-workspace/triton-tutorial/tutorial/Triton-101/Debug/vector_add.py":59:24)
#loc9 = loc("/mnt/home/douliyang/triton-workspace/triton-tutorial/tutorial/Triton-101/Debug/vector_add.py":59:16)
#loc10 = loc("/mnt/home/douliyang/triton-workspace/triton-tutorial/tutorial/Triton-101/Debug/vector_add.py":60:17)
#loc11 = loc("/mnt/home/douliyang/triton-workspace/triton-tutorial/tutorial/Triton-101/Debug/vector_add.py":62:26)
#loc12 = loc("/mnt/home/douliyang/triton-workspace/triton-tutorial/tutorial/Triton-101/Debug/vector_add.py":62:35)
#loc13 = loc("/mnt/home/douliyang/triton-workspace/triton-tutorial/tutorial/Triton-101/Debug/vector_add.py":62:4)


// -----// IR Dump Before TritonRewriteTensorPointer (triton-rewrite-tensor-pointer) ('builtin.module' operation) //----- //
#loc = loc("/mnt/home/douliyang/triton-workspace/triton-tutorial/tutorial/Triton-101/Debug/vector_add.py":30:0)
module {
  tt.func public @add_kernel(%arg0: !tt.ptr<f32> {tt.divisibility = 16 : i32} loc("/mnt/home/douliyang/triton-workspace/triton-tutorial/tutorial/Triton-101/Debug/vector_add.py":30:0), %arg1: !tt.ptr<f32> {tt.divisibility = 16 : i32} loc("/mnt/home/douliyang/triton-workspace/triton-tutorial/tutorial/Triton-101/Debug/vector_add.py":30:0), %arg2: !tt.ptr<f32> {tt.divisibility = 16 : i32} loc("/mnt/home/douliyang/triton-workspace/triton-tutorial/tutorial/Triton-101/Debug/vector_add.py":30:0), %arg3: i32 {tt.divisibility = 16 : i32} loc("/mnt/home/douliyang/triton-workspace/triton-tutorial/tutorial/Triton-101/Debug/vector_add.py":30:0)) attributes {noinline = false} {
    %c1024_i32 = arith.constant 1024 : i32 loc(#loc1)
    %0 = tt.get_program_id x : i32 loc(#loc2)
    %1 = arith.muli %0, %c1024_i32 : i32 loc(#loc3)
    %2 = tt.make_range {end = 1024 : i32, start = 0 : i32} : tensor<1024xi32> loc(#loc4)
    %3 = tt.splat %1 : i32 -> tensor<1024xi32> loc(#loc5)
    %4 = arith.addi %3, %2 : tensor<1024xi32> loc(#loc5)
    %5 = tt.splat %arg3 : i32 -> tensor<1024xi32> loc(#loc6)
    %6 = arith.cmpi slt, %4, %5 : tensor<1024xi32> loc(#loc6)
    %7 = tt.splat %arg0 : !tt.ptr<f32> -> tensor<1024x!tt.ptr<f32>> loc(#loc7)
    %8 = tt.addptr %7, %4 : tensor<1024x!tt.ptr<f32>>, tensor<1024xi32> loc(#loc7)
    %9 = tt.load %8, %6 : tensor<1024x!tt.ptr<f32>> loc(#loc8)
    %10 = tt.splat %arg1 : !tt.ptr<f32> -> tensor<1024x!tt.ptr<f32>> loc(#loc9)
    %11 = tt.addptr %10, %4 : tensor<1024x!tt.ptr<f32>>, tensor<1024xi32> loc(#loc9)
    %12 = tt.load %11, %6 : tensor<1024x!tt.ptr<f32>> loc(#loc10)
    %13 = arith.addf %9, %12 : tensor<1024xf32> loc(#loc11)
    %14 = tt.splat %arg2 : !tt.ptr<f32> -> tensor<1024x!tt.ptr<f32>> loc(#loc12)
    %15 = tt.addptr %14, %4 : tensor<1024x!tt.ptr<f32>>, tensor<1024xi32> loc(#loc12)
    tt.store %15, %13, %6 : tensor<1024x!tt.ptr<f32>> loc(#loc13)
    tt.return loc(#loc14)
  } loc(#loc)
} loc(#loc)
#loc1 = loc(unknown)
#loc2 = loc("/mnt/home/douliyang/triton-workspace/triton-tutorial/tutorial/Triton-101/Debug/vector_add.py":39:24)
#loc3 = loc("/mnt/home/douliyang/triton-workspace/triton-tutorial/tutorial/Triton-101/Debug/vector_add.py":52:24)
#loc4 = loc("/mnt/home/douliyang/triton-workspace/triton-tutorial/tutorial/Triton-101/Debug/vector_add.py":53:41)
#loc5 = loc("/mnt/home/douliyang/triton-workspace/triton-tutorial/tutorial/Triton-101/Debug/vector_add.py":53:28)
#loc6 = loc("/mnt/home/douliyang/triton-workspace/triton-tutorial/tutorial/Triton-101/Debug/vector_add.py":55:21)
#loc7 = loc("/mnt/home/douliyang/triton-workspace/triton-tutorial/tutorial/Triton-101/Debug/vector_add.py":58:24)
#loc8 = loc("/mnt/home/douliyang/triton-workspace/triton-tutorial/tutorial/Triton-101/Debug/vector_add.py":58:16)
#loc9 = loc("/mnt/home/douliyang/triton-workspace/triton-tutorial/tutorial/Triton-101/Debug/vector_add.py":59:24)
#loc10 = loc("/mnt/home/douliyang/triton-workspace/triton-tutorial/tutorial/Triton-101/Debug/vector_add.py":59:16)
#loc11 = loc("/mnt/home/douliyang/triton-workspace/triton-tutorial/tutorial/Triton-101/Debug/vector_add.py":60:17)
#loc12 = loc("/mnt/home/douliyang/triton-workspace/triton-tutorial/tutorial/Triton-101/Debug/vector_add.py":62:26)
#loc13 = loc("/mnt/home/douliyang/triton-workspace/triton-tutorial/tutorial/Triton-101/Debug/vector_add.py":62:35)
#loc14 = loc("/mnt/home/douliyang/triton-workspace/triton-tutorial/tutorial/Triton-101/Debug/vector_add.py":62:4)


// -----// IR Dump Before TritonRewriteTensorDescriptorToPointer (triton-rewrite-tensor-descriptor-to-pointer) ('builtin.module' operation) //----- //
#loc = loc("/mnt/home/douliyang/triton-workspace/triton-tutorial/tutorial/Triton-101/Debug/vector_add.py":30:0)
module {
  tt.func public @add_kernel(%arg0: !tt.ptr<f32> {tt.divisibility = 16 : i32} loc("/mnt/home/douliyang/triton-workspace/triton-tutorial/tutorial/Triton-101/Debug/vector_add.py":30:0), %arg1: !tt.ptr<f32> {tt.divisibility = 16 : i32} loc("/mnt/home/douliyang/triton-workspace/triton-tutorial/tutorial/Triton-101/Debug/vector_add.py":30:0), %arg2: !tt.ptr<f32> {tt.divisibility = 16 : i32} loc("/mnt/home/douliyang/triton-workspace/triton-tutorial/tutorial/Triton-101/Debug/vector_add.py":30:0), %arg3: i32 {tt.divisibility = 16 : i32} loc("/mnt/home/douliyang/triton-workspace/triton-tutorial/tutorial/Triton-101/Debug/vector_add.py":30:0)) attributes {noinline = false} {
    %c1024_i32 = arith.constant 1024 : i32 loc(#loc1)
    %0 = tt.get_program_id x : i32 loc(#loc2)
    %1 = arith.muli %0, %c1024_i32 : i32 loc(#loc3)
    %2 = tt.make_range {end = 1024 : i32, start = 0 : i32} : tensor<1024xi32> loc(#loc4)
    %3 = tt.splat %1 : i32 -> tensor<1024xi32> loc(#loc5)
    %4 = arith.addi %3, %2 : tensor<1024xi32> loc(#loc5)
    %5 = tt.splat %arg3 : i32 -> tensor<1024xi32> loc(#loc6)
    %6 = arith.cmpi slt, %4, %5 : tensor<1024xi32> loc(#loc6)
    %7 = tt.splat %arg0 : !tt.ptr<f32> -> tensor<1024x!tt.ptr<f32>> loc(#loc7)
    %8 = tt.addptr %7, %4 : tensor<1024x!tt.ptr<f32>>, tensor<1024xi32> loc(#loc7)
    %9 = tt.load %8, %6 : tensor<1024x!tt.ptr<f32>> loc(#loc8)
    %10 = tt.splat %arg1 : !tt.ptr<f32> -> tensor<1024x!tt.ptr<f32>> loc(#loc9)
    %11 = tt.addptr %10, %4 : tensor<1024x!tt.ptr<f32>>, tensor<1024xi32> loc(#loc9)
    %12 = tt.load %11, %6 : tensor<1024x!tt.ptr<f32>> loc(#loc10)
    %13 = arith.addf %9, %12 : tensor<1024xf32> loc(#loc11)
    %14 = tt.splat %arg2 : !tt.ptr<f32> -> tensor<1024x!tt.ptr<f32>> loc(#loc12)
    %15 = tt.addptr %14, %4 : tensor<1024x!tt.ptr<f32>>, tensor<1024xi32> loc(#loc12)
    tt.store %15, %13, %6 : tensor<1024x!tt.ptr<f32>> loc(#loc13)
    tt.return loc(#loc14)
  } loc(#loc)
} loc(#loc)
#loc1 = loc(unknown)
#loc2 = loc("/mnt/home/douliyang/triton-workspace/triton-tutorial/tutorial/Triton-101/Debug/vector_add.py":39:24)
#loc3 = loc("/mnt/home/douliyang/triton-workspace/triton-tutorial/tutorial/Triton-101/Debug/vector_add.py":52:24)
#loc4 = loc("/mnt/home/douliyang/triton-workspace/triton-tutorial/tutorial/Triton-101/Debug/vector_add.py":53:41)
#loc5 = loc("/mnt/home/douliyang/triton-workspace/triton-tutorial/tutorial/Triton-101/Debug/vector_add.py":53:28)
#loc6 = loc("/mnt/home/douliyang/triton-workspace/triton-tutorial/tutorial/Triton-101/Debug/vector_add.py":55:21)
#loc7 = loc("/mnt/home/douliyang/triton-workspace/triton-tutorial/tutorial/Triton-101/Debug/vector_add.py":58:24)
#loc8 = loc("/mnt/home/douliyang/triton-workspace/triton-tutorial/tutorial/Triton-101/Debug/vector_add.py":58:16)
#loc9 = loc("/mnt/home/douliyang/triton-workspace/triton-tutorial/tutorial/Triton-101/Debug/vector_add.py":59:24)
#loc10 = loc("/mnt/home/douliyang/triton-workspace/triton-tutorial/tutorial/Triton-101/Debug/vector_add.py":59:16)
#loc11 = loc("/mnt/home/douliyang/triton-workspace/triton-tutorial/tutorial/Triton-101/Debug/vector_add.py":60:17)
#loc12 = loc("/mnt/home/douliyang/triton-workspace/triton-tutorial/tutorial/Triton-101/Debug/vector_add.py":62:26)
#loc13 = loc("/mnt/home/douliyang/triton-workspace/triton-tutorial/tutorial/Triton-101/Debug/vector_add.py":62:35)
#loc14 = loc("/mnt/home/douliyang/triton-workspace/triton-tutorial/tutorial/Triton-101/Debug/vector_add.py":62:4)


// -----// IR Dump Before Canonicalizer (canonicalize) ('builtin.module' operation) //----- //
#loc = loc("/mnt/home/douliyang/triton-workspace/triton-tutorial/tutorial/Triton-101/Debug/vector_add.py":30:0)
module {
  tt.func public @add_kernel(%arg0: !tt.ptr<f32> {tt.divisibility = 16 : i32} loc("/mnt/home/douliyang/triton-workspace/triton-tutorial/tutorial/Triton-101/Debug/vector_add.py":30:0), %arg1: !tt.ptr<f32> {tt.divisibility = 16 : i32} loc("/mnt/home/douliyang/triton-workspace/triton-tutorial/tutorial/Triton-101/Debug/vector_add.py":30:0), %arg2: !tt.ptr<f32> {tt.divisibility = 16 : i32} loc("/mnt/home/douliyang/triton-workspace/triton-tutorial/tutorial/Triton-101/Debug/vector_add.py":30:0), %arg3: i32 {tt.divisibility = 16 : i32} loc("/mnt/home/douliyang/triton-workspace/triton-tutorial/tutorial/Triton-101/Debug/vector_add.py":30:0)) attributes {noinline = false} {
    %c1024_i32 = arith.constant 1024 : i32 loc(#loc1)
    %0 = tt.get_program_id x : i32 loc(#loc2)
    %1 = arith.muli %0, %c1024_i32 : i32 loc(#loc3)
    %2 = tt.make_range {end = 1024 : i32, start = 0 : i32} : tensor<1024xi32> loc(#loc4)
    %3 = tt.splat %1 : i32 -> tensor<1024xi32> loc(#loc5)
    %4 = arith.addi %3, %2 : tensor<1024xi32> loc(#loc5)
    %5 = tt.splat %arg3 : i32 -> tensor<1024xi32> loc(#loc6)
    %6 = arith.cmpi slt, %4, %5 : tensor<1024xi32> loc(#loc6)
    %7 = tt.splat %arg0 : !tt.ptr<f32> -> tensor<1024x!tt.ptr<f32>> loc(#loc7)
    %8 = tt.addptr %7, %4 : tensor<1024x!tt.ptr<f32>>, tensor<1024xi32> loc(#loc7)
    %9 = tt.load %8, %6 : tensor<1024x!tt.ptr<f32>> loc(#loc8)
    %10 = tt.splat %arg1 : !tt.ptr<f32> -> tensor<1024x!tt.ptr<f32>> loc(#loc9)
    %11 = tt.addptr %10, %4 : tensor<1024x!tt.ptr<f32>>, tensor<1024xi32> loc(#loc9)
    %12 = tt.load %11, %6 : tensor<1024x!tt.ptr<f32>> loc(#loc10)
    %13 = arith.addf %9, %12 : tensor<1024xf32> loc(#loc11)
    %14 = tt.splat %arg2 : !tt.ptr<f32> -> tensor<1024x!tt.ptr<f32>> loc(#loc12)
    %15 = tt.addptr %14, %4 : tensor<1024x!tt.ptr<f32>>, tensor<1024xi32> loc(#loc12)
    tt.store %15, %13, %6 : tensor<1024x!tt.ptr<f32>> loc(#loc13)
    tt.return loc(#loc14)
  } loc(#loc)
} loc(#loc)
#loc1 = loc(unknown)
#loc2 = loc("/mnt/home/douliyang/triton-workspace/triton-tutorial/tutorial/Triton-101/Debug/vector_add.py":39:24)
#loc3 = loc("/mnt/home/douliyang/triton-workspace/triton-tutorial/tutorial/Triton-101/Debug/vector_add.py":52:24)
#loc4 = loc("/mnt/home/douliyang/triton-workspace/triton-tutorial/tutorial/Triton-101/Debug/vector_add.py":53:41)
#loc5 = loc("/mnt/home/douliyang/triton-workspace/triton-tutorial/tutorial/Triton-101/Debug/vector_add.py":53:28)
#loc6 = loc("/mnt/home/douliyang/triton-workspace/triton-tutorial/tutorial/Triton-101/Debug/vector_add.py":55:21)
#loc7 = loc("/mnt/home/douliyang/triton-workspace/triton-tutorial/tutorial/Triton-101/Debug/vector_add.py":58:24)
#loc8 = loc("/mnt/home/douliyang/triton-workspace/triton-tutorial/tutorial/Triton-101/Debug/vector_add.py":58:16)
#loc9 = loc("/mnt/home/douliyang/triton-workspace/triton-tutorial/tutorial/Triton-101/Debug/vector_add.py":59:24)
#loc10 = loc("/mnt/home/douliyang/triton-workspace/triton-tutorial/tutorial/Triton-101/Debug/vector_add.py":59:16)
#loc11 = loc("/mnt/home/douliyang/triton-workspace/triton-tutorial/tutorial/Triton-101/Debug/vector_add.py":60:17)
#loc12 = loc("/mnt/home/douliyang/triton-workspace/triton-tutorial/tutorial/Triton-101/Debug/vector_add.py":62:26)
#loc13 = loc("/mnt/home/douliyang/triton-workspace/triton-tutorial/tutorial/Triton-101/Debug/vector_add.py":62:35)
#loc14 = loc("/mnt/home/douliyang/triton-workspace/triton-tutorial/tutorial/Triton-101/Debug/vector_add.py":62:4)


// -----// IR Dump Before TritonCombineOps (triton-combine) ('builtin.module' operation) //----- //
#loc = loc("/mnt/home/douliyang/triton-workspace/triton-tutorial/tutorial/Triton-101/Debug/vector_add.py":30:0)
module {
  tt.func public @add_kernel(%arg0: !tt.ptr<f32> {tt.divisibility = 16 : i32} loc("/mnt/home/douliyang/triton-workspace/triton-tutorial/tutorial/Triton-101/Debug/vector_add.py":30:0), %arg1: !tt.ptr<f32> {tt.divisibility = 16 : i32} loc("/mnt/home/douliyang/triton-workspace/triton-tutorial/tutorial/Triton-101/Debug/vector_add.py":30:0), %arg2: !tt.ptr<f32> {tt.divisibility = 16 : i32} loc("/mnt/home/douliyang/triton-workspace/triton-tutorial/tutorial/Triton-101/Debug/vector_add.py":30:0), %arg3: i32 {tt.divisibility = 16 : i32} loc("/mnt/home/douliyang/triton-workspace/triton-tutorial/tutorial/Triton-101/Debug/vector_add.py":30:0)) attributes {noinline = false} {
    %c1024_i32 = arith.constant 1024 : i32 loc(#loc1)
    %0 = tt.get_program_id x : i32 loc(#loc2)
    %1 = arith.muli %0, %c1024_i32 : i32 loc(#loc3)
    %2 = tt.make_range {end = 1024 : i32, start = 0 : i32} : tensor<1024xi32> loc(#loc4)
    %3 = tt.splat %1 : i32 -> tensor<1024xi32> loc(#loc5)
    %4 = arith.addi %3, %2 : tensor<1024xi32> loc(#loc5)
    %5 = tt.splat %arg3 : i32 -> tensor<1024xi32> loc(#loc6)
    %6 = arith.cmpi slt, %4, %5 : tensor<1024xi32> loc(#loc6)
    %7 = tt.splat %arg0 : !tt.ptr<f32> -> tensor<1024x!tt.ptr<f32>> loc(#loc7)
    %8 = tt.addptr %7, %4 : tensor<1024x!tt.ptr<f32>>, tensor<1024xi32> loc(#loc7)
    %9 = tt.load %8, %6 : tensor<1024x!tt.ptr<f32>> loc(#loc8)
    %10 = tt.splat %arg1 : !tt.ptr<f32> -> tensor<1024x!tt.ptr<f32>> loc(#loc9)
    %11 = tt.addptr %10, %4 : tensor<1024x!tt.ptr<f32>>, tensor<1024xi32> loc(#loc9)
    %12 = tt.load %11, %6 : tensor<1024x!tt.ptr<f32>> loc(#loc10)
    %13 = arith.addf %9, %12 : tensor<1024xf32> loc(#loc11)
    %14 = tt.splat %arg2 : !tt.ptr<f32> -> tensor<1024x!tt.ptr<f32>> loc(#loc12)
    %15 = tt.addptr %14, %4 : tensor<1024x!tt.ptr<f32>>, tensor<1024xi32> loc(#loc12)
    tt.store %15, %13, %6 : tensor<1024x!tt.ptr<f32>> loc(#loc13)
    tt.return loc(#loc14)
  } loc(#loc)
} loc(#loc)
#loc1 = loc(unknown)
#loc2 = loc("/mnt/home/douliyang/triton-workspace/triton-tutorial/tutorial/Triton-101/Debug/vector_add.py":39:24)
#loc3 = loc("/mnt/home/douliyang/triton-workspace/triton-tutorial/tutorial/Triton-101/Debug/vector_add.py":52:24)
#loc4 = loc("/mnt/home/douliyang/triton-workspace/triton-tutorial/tutorial/Triton-101/Debug/vector_add.py":53:41)
#loc5 = loc("/mnt/home/douliyang/triton-workspace/triton-tutorial/tutorial/Triton-101/Debug/vector_add.py":53:28)
#loc6 = loc("/mnt/home/douliyang/triton-workspace/triton-tutorial/tutorial/Triton-101/Debug/vector_add.py":55:21)
#loc7 = loc("/mnt/home/douliyang/triton-workspace/triton-tutorial/tutorial/Triton-101/Debug/vector_add.py":58:24)
#loc8 = loc("/mnt/home/douliyang/triton-workspace/triton-tutorial/tutorial/Triton-101/Debug/vector_add.py":58:16)
#loc9 = loc("/mnt/home/douliyang/triton-workspace/triton-tutorial/tutorial/Triton-101/Debug/vector_add.py":59:24)
#loc10 = loc("/mnt/home/douliyang/triton-workspace/triton-tutorial/tutorial/Triton-101/Debug/vector_add.py":59:16)
#loc11 = loc("/mnt/home/douliyang/triton-workspace/triton-tutorial/tutorial/Triton-101/Debug/vector_add.py":60:17)
#loc12 = loc("/mnt/home/douliyang/triton-workspace/triton-tutorial/tutorial/Triton-101/Debug/vector_add.py":62:26)
#loc13 = loc("/mnt/home/douliyang/triton-workspace/triton-tutorial/tutorial/Triton-101/Debug/vector_add.py":62:35)
#loc14 = loc("/mnt/home/douliyang/triton-workspace/triton-tutorial/tutorial/Triton-101/Debug/vector_add.py":62:4)


// -----// IR Dump Before TritonReorderBroadcast (triton-reorder-broadcast) ('builtin.module' operation) //----- //
#loc = loc("/mnt/home/douliyang/triton-workspace/triton-tutorial/tutorial/Triton-101/Debug/vector_add.py":30:0)
module {
  tt.func public @add_kernel(%arg0: !tt.ptr<f32> {tt.divisibility = 16 : i32} loc("/mnt/home/douliyang/triton-workspace/triton-tutorial/tutorial/Triton-101/Debug/vector_add.py":30:0), %arg1: !tt.ptr<f32> {tt.divisibility = 16 : i32} loc("/mnt/home/douliyang/triton-workspace/triton-tutorial/tutorial/Triton-101/Debug/vector_add.py":30:0), %arg2: !tt.ptr<f32> {tt.divisibility = 16 : i32} loc("/mnt/home/douliyang/triton-workspace/triton-tutorial/tutorial/Triton-101/Debug/vector_add.py":30:0), %arg3: i32 {tt.divisibility = 16 : i32} loc("/mnt/home/douliyang/triton-workspace/triton-tutorial/tutorial/Triton-101/Debug/vector_add.py":30:0)) attributes {noinline = false} {
    %c1024_i32 = arith.constant 1024 : i32 loc(#loc1)
    %0 = tt.get_program_id x : i32 loc(#loc2)
    %1 = arith.muli %0, %c1024_i32 : i32 loc(#loc3)
    %2 = tt.make_range {end = 1024 : i32, start = 0 : i32} : tensor<1024xi32> loc(#loc4)
    %3 = tt.splat %1 : i32 -> tensor<1024xi32> loc(#loc5)
    %4 = arith.addi %3, %2 : tensor<1024xi32> loc(#loc5)
    %5 = tt.splat %arg3 : i32 -> tensor<1024xi32> loc(#loc6)
    %6 = arith.cmpi slt, %4, %5 : tensor<1024xi32> loc(#loc6)
    %7 = tt.splat %arg0 : !tt.ptr<f32> -> tensor<1024x!tt.ptr<f32>> loc(#loc7)
    %8 = tt.addptr %7, %4 : tensor<1024x!tt.ptr<f32>>, tensor<1024xi32> loc(#loc7)
    %9 = tt.load %8, %6 : tensor<1024x!tt.ptr<f32>> loc(#loc8)
    %10 = tt.splat %arg1 : !tt.ptr<f32> -> tensor<1024x!tt.ptr<f32>> loc(#loc9)
    %11 = tt.addptr %10, %4 : tensor<1024x!tt.ptr<f32>>, tensor<1024xi32> loc(#loc9)
    %12 = tt.load %11, %6 : tensor<1024x!tt.ptr<f32>> loc(#loc10)
    %13 = arith.addf %9, %12 : tensor<1024xf32> loc(#loc11)
    %14 = tt.splat %arg2 : !tt.ptr<f32> -> tensor<1024x!tt.ptr<f32>> loc(#loc12)
    %15 = tt.addptr %14, %4 : tensor<1024x!tt.ptr<f32>>, tensor<1024xi32> loc(#loc12)
    tt.store %15, %13, %6 : tensor<1024x!tt.ptr<f32>> loc(#loc13)
    tt.return loc(#loc14)
  } loc(#loc)
} loc(#loc)
#loc1 = loc(unknown)
#loc2 = loc("/mnt/home/douliyang/triton-workspace/triton-tutorial/tutorial/Triton-101/Debug/vector_add.py":39:24)
#loc3 = loc("/mnt/home/douliyang/triton-workspace/triton-tutorial/tutorial/Triton-101/Debug/vector_add.py":52:24)
#loc4 = loc("/mnt/home/douliyang/triton-workspace/triton-tutorial/tutorial/Triton-101/Debug/vector_add.py":53:41)
#loc5 = loc("/mnt/home/douliyang/triton-workspace/triton-tutorial/tutorial/Triton-101/Debug/vector_add.py":53:28)
#loc6 = loc("/mnt/home/douliyang/triton-workspace/triton-tutorial/tutorial/Triton-101/Debug/vector_add.py":55:21)
#loc7 = loc("/mnt/home/douliyang/triton-workspace/triton-tutorial/tutorial/Triton-101/Debug/vector_add.py":58:24)
#loc8 = loc("/mnt/home/douliyang/triton-workspace/triton-tutorial/tutorial/Triton-101/Debug/vector_add.py":58:16)
#loc9 = loc("/mnt/home/douliyang/triton-workspace/triton-tutorial/tutorial/Triton-101/Debug/vector_add.py":59:24)
#loc10 = loc("/mnt/home/douliyang/triton-workspace/triton-tutorial/tutorial/Triton-101/Debug/vector_add.py":59:16)
#loc11 = loc("/mnt/home/douliyang/triton-workspace/triton-tutorial/tutorial/Triton-101/Debug/vector_add.py":60:17)
#loc12 = loc("/mnt/home/douliyang/triton-workspace/triton-tutorial/tutorial/Triton-101/Debug/vector_add.py":62:26)
#loc13 = loc("/mnt/home/douliyang/triton-workspace/triton-tutorial/tutorial/Triton-101/Debug/vector_add.py":62:35)
#loc14 = loc("/mnt/home/douliyang/triton-workspace/triton-tutorial/tutorial/Triton-101/Debug/vector_add.py":62:4)


// -----// IR Dump Before CSE (cse) ('builtin.module' operation) //----- //
#loc = loc("/mnt/home/douliyang/triton-workspace/triton-tutorial/tutorial/Triton-101/Debug/vector_add.py":30:0)
module {
  tt.func public @add_kernel(%arg0: !tt.ptr<f32> {tt.divisibility = 16 : i32} loc("/mnt/home/douliyang/triton-workspace/triton-tutorial/tutorial/Triton-101/Debug/vector_add.py":30:0), %arg1: !tt.ptr<f32> {tt.divisibility = 16 : i32} loc("/mnt/home/douliyang/triton-workspace/triton-tutorial/tutorial/Triton-101/Debug/vector_add.py":30:0), %arg2: !tt.ptr<f32> {tt.divisibility = 16 : i32} loc("/mnt/home/douliyang/triton-workspace/triton-tutorial/tutorial/Triton-101/Debug/vector_add.py":30:0), %arg3: i32 {tt.divisibility = 16 : i32} loc("/mnt/home/douliyang/triton-workspace/triton-tutorial/tutorial/Triton-101/Debug/vector_add.py":30:0)) attributes {noinline = false} {
    %c1024_i32 = arith.constant 1024 : i32 loc(#loc1)
    %0 = tt.get_program_id x : i32 loc(#loc2)
    %1 = arith.muli %0, %c1024_i32 : i32 loc(#loc3)
    %2 = tt.make_range {end = 1024 : i32, start = 0 : i32} : tensor<1024xi32> loc(#loc4)
    %3 = tt.splat %1 : i32 -> tensor<1024xi32> loc(#loc5)
    %4 = arith.addi %3, %2 : tensor<1024xi32> loc(#loc5)
    %5 = tt.splat %arg3 : i32 -> tensor<1024xi32> loc(#loc6)
    %6 = arith.cmpi slt, %4, %5 : tensor<1024xi32> loc(#loc6)
    %7 = tt.splat %arg0 : !tt.ptr<f32> -> tensor<1024x!tt.ptr<f32>> loc(#loc7)
    %8 = tt.addptr %7, %4 : tensor<1024x!tt.ptr<f32>>, tensor<1024xi32> loc(#loc7)
    %9 = tt.load %8, %6 : tensor<1024x!tt.ptr<f32>> loc(#loc8)
    %10 = tt.splat %arg1 : !tt.ptr<f32> -> tensor<1024x!tt.ptr<f32>> loc(#loc9)
    %11 = tt.addptr %10, %4 : tensor<1024x!tt.ptr<f32>>, tensor<1024xi32> loc(#loc9)
    %12 = tt.load %11, %6 : tensor<1024x!tt.ptr<f32>> loc(#loc10)
    %13 = arith.addf %9, %12 : tensor<1024xf32> loc(#loc11)
    %14 = tt.splat %arg2 : !tt.ptr<f32> -> tensor<1024x!tt.ptr<f32>> loc(#loc12)
    %15 = tt.addptr %14, %4 : tensor<1024x!tt.ptr<f32>>, tensor<1024xi32> loc(#loc12)
    tt.store %15, %13, %6 : tensor<1024x!tt.ptr<f32>> loc(#loc13)
    tt.return loc(#loc14)
  } loc(#loc)
} loc(#loc)
#loc1 = loc(unknown)
#loc2 = loc("/mnt/home/douliyang/triton-workspace/triton-tutorial/tutorial/Triton-101/Debug/vector_add.py":39:24)
#loc3 = loc("/mnt/home/douliyang/triton-workspace/triton-tutorial/tutorial/Triton-101/Debug/vector_add.py":52:24)
#loc4 = loc("/mnt/home/douliyang/triton-workspace/triton-tutorial/tutorial/Triton-101/Debug/vector_add.py":53:41)
#loc5 = loc("/mnt/home/douliyang/triton-workspace/triton-tutorial/tutorial/Triton-101/Debug/vector_add.py":53:28)
#loc6 = loc("/mnt/home/douliyang/triton-workspace/triton-tutorial/tutorial/Triton-101/Debug/vector_add.py":55:21)
#loc7 = loc("/mnt/home/douliyang/triton-workspace/triton-tutorial/tutorial/Triton-101/Debug/vector_add.py":58:24)
#loc8 = loc("/mnt/home/douliyang/triton-workspace/triton-tutorial/tutorial/Triton-101/Debug/vector_add.py":58:16)
#loc9 = loc("/mnt/home/douliyang/triton-workspace/triton-tutorial/tutorial/Triton-101/Debug/vector_add.py":59:24)
#loc10 = loc("/mnt/home/douliyang/triton-workspace/triton-tutorial/tutorial/Triton-101/Debug/vector_add.py":59:16)
#loc11 = loc("/mnt/home/douliyang/triton-workspace/triton-tutorial/tutorial/Triton-101/Debug/vector_add.py":60:17)
#loc12 = loc("/mnt/home/douliyang/triton-workspace/triton-tutorial/tutorial/Triton-101/Debug/vector_add.py":62:26)
#loc13 = loc("/mnt/home/douliyang/triton-workspace/triton-tutorial/tutorial/Triton-101/Debug/vector_add.py":62:35)
#loc14 = loc("/mnt/home/douliyang/triton-workspace/triton-tutorial/tutorial/Triton-101/Debug/vector_add.py":62:4)


// -----// IR Dump Before SymbolDCE (symbol-dce) ('builtin.module' operation) //----- //
#loc = loc("/mnt/home/douliyang/triton-workspace/triton-tutorial/tutorial/Triton-101/Debug/vector_add.py":30:0)
module {
  tt.func public @add_kernel(%arg0: !tt.ptr<f32> {tt.divisibility = 16 : i32} loc("/mnt/home/douliyang/triton-workspace/triton-tutorial/tutorial/Triton-101/Debug/vector_add.py":30:0), %arg1: !tt.ptr<f32> {tt.divisibility = 16 : i32} loc("/mnt/home/douliyang/triton-workspace/triton-tutorial/tutorial/Triton-101/Debug/vector_add.py":30:0), %arg2: !tt.ptr<f32> {tt.divisibility = 16 : i32} loc("/mnt/home/douliyang/triton-workspace/triton-tutorial/tutorial/Triton-101/Debug/vector_add.py":30:0), %arg3: i32 {tt.divisibility = 16 : i32} loc("/mnt/home/douliyang/triton-workspace/triton-tutorial/tutorial/Triton-101/Debug/vector_add.py":30:0)) attributes {noinline = false} {
    %c1024_i32 = arith.constant 1024 : i32 loc(#loc1)
    %0 = tt.get_program_id x : i32 loc(#loc2)
    %1 = arith.muli %0, %c1024_i32 : i32 loc(#loc3)
    %2 = tt.make_range {end = 1024 : i32, start = 0 : i32} : tensor<1024xi32> loc(#loc4)
    %3 = tt.splat %1 : i32 -> tensor<1024xi32> loc(#loc5)
    %4 = arith.addi %3, %2 : tensor<1024xi32> loc(#loc5)
    %5 = tt.splat %arg3 : i32 -> tensor<1024xi32> loc(#loc6)
    %6 = arith.cmpi slt, %4, %5 : tensor<1024xi32> loc(#loc6)
    %7 = tt.splat %arg0 : !tt.ptr<f32> -> tensor<1024x!tt.ptr<f32>> loc(#loc7)
    %8 = tt.addptr %7, %4 : tensor<1024x!tt.ptr<f32>>, tensor<1024xi32> loc(#loc7)
    %9 = tt.load %8, %6 : tensor<1024x!tt.ptr<f32>> loc(#loc8)
    %10 = tt.splat %arg1 : !tt.ptr<f32> -> tensor<1024x!tt.ptr<f32>> loc(#loc9)
    %11 = tt.addptr %10, %4 : tensor<1024x!tt.ptr<f32>>, tensor<1024xi32> loc(#loc9)
    %12 = tt.load %11, %6 : tensor<1024x!tt.ptr<f32>> loc(#loc10)
    %13 = arith.addf %9, %12 : tensor<1024xf32> loc(#loc11)
    %14 = tt.splat %arg2 : !tt.ptr<f32> -> tensor<1024x!tt.ptr<f32>> loc(#loc12)
    %15 = tt.addptr %14, %4 : tensor<1024x!tt.ptr<f32>>, tensor<1024xi32> loc(#loc12)
    tt.store %15, %13, %6 : tensor<1024x!tt.ptr<f32>> loc(#loc13)
    tt.return loc(#loc14)
  } loc(#loc)
} loc(#loc)
#loc1 = loc(unknown)
#loc2 = loc("/mnt/home/douliyang/triton-workspace/triton-tutorial/tutorial/Triton-101/Debug/vector_add.py":39:24)
#loc3 = loc("/mnt/home/douliyang/triton-workspace/triton-tutorial/tutorial/Triton-101/Debug/vector_add.py":52:24)
#loc4 = loc("/mnt/home/douliyang/triton-workspace/triton-tutorial/tutorial/Triton-101/Debug/vector_add.py":53:41)
#loc5 = loc("/mnt/home/douliyang/triton-workspace/triton-tutorial/tutorial/Triton-101/Debug/vector_add.py":53:28)
#loc6 = loc("/mnt/home/douliyang/triton-workspace/triton-tutorial/tutorial/Triton-101/Debug/vector_add.py":55:21)
#loc7 = loc("/mnt/home/douliyang/triton-workspace/triton-tutorial/tutorial/Triton-101/Debug/vector_add.py":58:24)
#loc8 = loc("/mnt/home/douliyang/triton-workspace/triton-tutorial/tutorial/Triton-101/Debug/vector_add.py":58:16)
#loc9 = loc("/mnt/home/douliyang/triton-workspace/triton-tutorial/tutorial/Triton-101/Debug/vector_add.py":59:24)
#loc10 = loc("/mnt/home/douliyang/triton-workspace/triton-tutorial/tutorial/Triton-101/Debug/vector_add.py":59:16)
#loc11 = loc("/mnt/home/douliyang/triton-workspace/triton-tutorial/tutorial/Triton-101/Debug/vector_add.py":60:17)
#loc12 = loc("/mnt/home/douliyang/triton-workspace/triton-tutorial/tutorial/Triton-101/Debug/vector_add.py":62:26)
#loc13 = loc("/mnt/home/douliyang/triton-workspace/triton-tutorial/tutorial/Triton-101/Debug/vector_add.py":62:35)
#loc14 = loc("/mnt/home/douliyang/triton-workspace/triton-tutorial/tutorial/Triton-101/Debug/vector_add.py":62:4)


// -----// IR Dump Before TritonLoopUnroll (triton-loop-unroll) ('builtin.module' operation) //----- //
#loc = loc("/mnt/home/douliyang/triton-workspace/triton-tutorial/tutorial/Triton-101/Debug/vector_add.py":30:0)
module {
  tt.func public @add_kernel(%arg0: !tt.ptr<f32> {tt.divisibility = 16 : i32} loc("/mnt/home/douliyang/triton-workspace/triton-tutorial/tutorial/Triton-101/Debug/vector_add.py":30:0), %arg1: !tt.ptr<f32> {tt.divisibility = 16 : i32} loc("/mnt/home/douliyang/triton-workspace/triton-tutorial/tutorial/Triton-101/Debug/vector_add.py":30:0), %arg2: !tt.ptr<f32> {tt.divisibility = 16 : i32} loc("/mnt/home/douliyang/triton-workspace/triton-tutorial/tutorial/Triton-101/Debug/vector_add.py":30:0), %arg3: i32 {tt.divisibility = 16 : i32} loc("/mnt/home/douliyang/triton-workspace/triton-tutorial/tutorial/Triton-101/Debug/vector_add.py":30:0)) attributes {noinline = false} {
    %c1024_i32 = arith.constant 1024 : i32 loc(#loc1)
    %0 = tt.get_program_id x : i32 loc(#loc2)
    %1 = arith.muli %0, %c1024_i32 : i32 loc(#loc3)
    %2 = tt.make_range {end = 1024 : i32, start = 0 : i32} : tensor<1024xi32> loc(#loc4)
    %3 = tt.splat %1 : i32 -> tensor<1024xi32> loc(#loc5)
    %4 = arith.addi %3, %2 : tensor<1024xi32> loc(#loc5)
    %5 = tt.splat %arg3 : i32 -> tensor<1024xi32> loc(#loc6)
    %6 = arith.cmpi slt, %4, %5 : tensor<1024xi32> loc(#loc6)
    %7 = tt.splat %arg0 : !tt.ptr<f32> -> tensor<1024x!tt.ptr<f32>> loc(#loc7)
    %8 = tt.addptr %7, %4 : tensor<1024x!tt.ptr<f32>>, tensor<1024xi32> loc(#loc7)
    %9 = tt.load %8, %6 : tensor<1024x!tt.ptr<f32>> loc(#loc8)
    %10 = tt.splat %arg1 : !tt.ptr<f32> -> tensor<1024x!tt.ptr<f32>> loc(#loc9)
    %11 = tt.addptr %10, %4 : tensor<1024x!tt.ptr<f32>>, tensor<1024xi32> loc(#loc9)
    %12 = tt.load %11, %6 : tensor<1024x!tt.ptr<f32>> loc(#loc10)
    %13 = arith.addf %9, %12 : tensor<1024xf32> loc(#loc11)
    %14 = tt.splat %arg2 : !tt.ptr<f32> -> tensor<1024x!tt.ptr<f32>> loc(#loc12)
    %15 = tt.addptr %14, %4 : tensor<1024x!tt.ptr<f32>>, tensor<1024xi32> loc(#loc12)
    tt.store %15, %13, %6 : tensor<1024x!tt.ptr<f32>> loc(#loc13)
    tt.return loc(#loc14)
  } loc(#loc)
} loc(#loc)
#loc1 = loc(unknown)
#loc2 = loc("/mnt/home/douliyang/triton-workspace/triton-tutorial/tutorial/Triton-101/Debug/vector_add.py":39:24)
#loc3 = loc("/mnt/home/douliyang/triton-workspace/triton-tutorial/tutorial/Triton-101/Debug/vector_add.py":52:24)
#loc4 = loc("/mnt/home/douliyang/triton-workspace/triton-tutorial/tutorial/Triton-101/Debug/vector_add.py":53:41)
#loc5 = loc("/mnt/home/douliyang/triton-workspace/triton-tutorial/tutorial/Triton-101/Debug/vector_add.py":53:28)
#loc6 = loc("/mnt/home/douliyang/triton-workspace/triton-tutorial/tutorial/Triton-101/Debug/vector_add.py":55:21)
#loc7 = loc("/mnt/home/douliyang/triton-workspace/triton-tutorial/tutorial/Triton-101/Debug/vector_add.py":58:24)
#loc8 = loc("/mnt/home/douliyang/triton-workspace/triton-tutorial/tutorial/Triton-101/Debug/vector_add.py":58:16)
#loc9 = loc("/mnt/home/douliyang/triton-workspace/triton-tutorial/tutorial/Triton-101/Debug/vector_add.py":59:24)
#loc10 = loc("/mnt/home/douliyang/triton-workspace/triton-tutorial/tutorial/Triton-101/Debug/vector_add.py":59:16)
#loc11 = loc("/mnt/home/douliyang/triton-workspace/triton-tutorial/tutorial/Triton-101/Debug/vector_add.py":60:17)
#loc12 = loc("/mnt/home/douliyang/triton-workspace/triton-tutorial/tutorial/Triton-101/Debug/vector_add.py":62:26)
#loc13 = loc("/mnt/home/douliyang/triton-workspace/triton-tutorial/tutorial/Triton-101/Debug/vector_add.py":62:35)
#loc14 = loc("/mnt/home/douliyang/triton-workspace/triton-tutorial/tutorial/Triton-101/Debug/vector_add.py":62:4)


// -----// IR Dump Before ConvertTritonToTritonGPU (convert-triton-to-tritongpu) ('builtin.module' operation) //----- //
#loc = loc("/mnt/home/douliyang/triton-workspace/triton-tutorial/tutorial/Triton-101/Debug/vector_add.py":30:0)
module {
  tt.func public @add_kernel(%arg0: !tt.ptr<f32> {tt.divisibility = 16 : i32} loc("/mnt/home/douliyang/triton-workspace/triton-tutorial/tutorial/Triton-101/Debug/vector_add.py":30:0), %arg1: !tt.ptr<f32> {tt.divisibility = 16 : i32} loc("/mnt/home/douliyang/triton-workspace/triton-tutorial/tutorial/Triton-101/Debug/vector_add.py":30:0), %arg2: !tt.ptr<f32> {tt.divisibility = 16 : i32} loc("/mnt/home/douliyang/triton-workspace/triton-tutorial/tutorial/Triton-101/Debug/vector_add.py":30:0), %arg3: i32 {tt.divisibility = 16 : i32} loc("/mnt/home/douliyang/triton-workspace/triton-tutorial/tutorial/Triton-101/Debug/vector_add.py":30:0)) attributes {noinline = false} {
    %c1024_i32 = arith.constant 1024 : i32 loc(#loc1)
    %0 = tt.get_program_id x : i32 loc(#loc2)
    %1 = arith.muli %0, %c1024_i32 : i32 loc(#loc3)
    %2 = tt.make_range {end = 1024 : i32, start = 0 : i32} : tensor<1024xi32> loc(#loc4)
    %3 = tt.splat %1 : i32 -> tensor<1024xi32> loc(#loc5)
    %4 = arith.addi %3, %2 : tensor<1024xi32> loc(#loc5)
    %5 = tt.splat %arg3 : i32 -> tensor<1024xi32> loc(#loc6)
    %6 = arith.cmpi slt, %4, %5 : tensor<1024xi32> loc(#loc6)
    %7 = tt.splat %arg0 : !tt.ptr<f32> -> tensor<1024x!tt.ptr<f32>> loc(#loc7)
    %8 = tt.addptr %7, %4 : tensor<1024x!tt.ptr<f32>>, tensor<1024xi32> loc(#loc7)
    %9 = tt.load %8, %6 : tensor<1024x!tt.ptr<f32>> loc(#loc8)
    %10 = tt.splat %arg1 : !tt.ptr<f32> -> tensor<1024x!tt.ptr<f32>> loc(#loc9)
    %11 = tt.addptr %10, %4 : tensor<1024x!tt.ptr<f32>>, tensor<1024xi32> loc(#loc9)
    %12 = tt.load %11, %6 : tensor<1024x!tt.ptr<f32>> loc(#loc10)
    %13 = arith.addf %9, %12 : tensor<1024xf32> loc(#loc11)
    %14 = tt.splat %arg2 : !tt.ptr<f32> -> tensor<1024x!tt.ptr<f32>> loc(#loc12)
    %15 = tt.addptr %14, %4 : tensor<1024x!tt.ptr<f32>>, tensor<1024xi32> loc(#loc12)
    tt.store %15, %13, %6 : tensor<1024x!tt.ptr<f32>> loc(#loc13)
    tt.return loc(#loc14)
  } loc(#loc)
} loc(#loc)
#loc1 = loc(unknown)
#loc2 = loc("/mnt/home/douliyang/triton-workspace/triton-tutorial/tutorial/Triton-101/Debug/vector_add.py":39:24)
#loc3 = loc("/mnt/home/douliyang/triton-workspace/triton-tutorial/tutorial/Triton-101/Debug/vector_add.py":52:24)
#loc4 = loc("/mnt/home/douliyang/triton-workspace/triton-tutorial/tutorial/Triton-101/Debug/vector_add.py":53:41)
#loc5 = loc("/mnt/home/douliyang/triton-workspace/triton-tutorial/tutorial/Triton-101/Debug/vector_add.py":53:28)
#loc6 = loc("/mnt/home/douliyang/triton-workspace/triton-tutorial/tutorial/Triton-101/Debug/vector_add.py":55:21)
#loc7 = loc("/mnt/home/douliyang/triton-workspace/triton-tutorial/tutorial/Triton-101/Debug/vector_add.py":58:24)
#loc8 = loc("/mnt/home/douliyang/triton-workspace/triton-tutorial/tutorial/Triton-101/Debug/vector_add.py":58:16)
#loc9 = loc("/mnt/home/douliyang/triton-workspace/triton-tutorial/tutorial/Triton-101/Debug/vector_add.py":59:24)
#loc10 = loc("/mnt/home/douliyang/triton-workspace/triton-tutorial/tutorial/Triton-101/Debug/vector_add.py":59:16)
#loc11 = loc("/mnt/home/douliyang/triton-workspace/triton-tutorial/tutorial/Triton-101/Debug/vector_add.py":60:17)
#loc12 = loc("/mnt/home/douliyang/triton-workspace/triton-tutorial/tutorial/Triton-101/Debug/vector_add.py":62:26)
#loc13 = loc("/mnt/home/douliyang/triton-workspace/triton-tutorial/tutorial/Triton-101/Debug/vector_add.py":62:35)
#loc14 = loc("/mnt/home/douliyang/triton-workspace/triton-tutorial/tutorial/Triton-101/Debug/vector_add.py":62:4)


// -----// IR Dump Before TritonGPUCoalesce (tritongpu-coalesce) ('builtin.module' operation) //----- //
#blocked = #ttg.blocked<{sizePerThread = [1], threadsPerWarp = [32], warpsPerCTA = [4], order = [0]}>
#loc = loc("/mnt/home/douliyang/triton-workspace/triton-tutorial/tutorial/Triton-101/Debug/vector_add.py":30:0)
module attributes {"ttg.num-ctas" = 1 : i32, "ttg.num-warps" = 4 : i32, ttg.target = "cuda:86", "ttg.threads-per-warp" = 32 : i32} {
  tt.func public @add_kernel(%arg0: !tt.ptr<f32> {tt.divisibility = 16 : i32} loc("/mnt/home/douliyang/triton-workspace/triton-tutorial/tutorial/Triton-101/Debug/vector_add.py":30:0), %arg1: !tt.ptr<f32> {tt.divisibility = 16 : i32} loc("/mnt/home/douliyang/triton-workspace/triton-tutorial/tutorial/Triton-101/Debug/vector_add.py":30:0), %arg2: !tt.ptr<f32> {tt.divisibility = 16 : i32} loc("/mnt/home/douliyang/triton-workspace/triton-tutorial/tutorial/Triton-101/Debug/vector_add.py":30:0), %arg3: i32 {tt.divisibility = 16 : i32} loc("/mnt/home/douliyang/triton-workspace/triton-tutorial/tutorial/Triton-101/Debug/vector_add.py":30:0)) attributes {noinline = false} {
    %c1024_i32 = arith.constant 1024 : i32 loc(#loc1)
    %0 = tt.get_program_id x : i32 loc(#loc2)
    %1 = arith.muli %0, %c1024_i32 : i32 loc(#loc3)
    %2 = tt.make_range {end = 1024 : i32, start = 0 : i32} : tensor<1024xi32, #blocked> loc(#loc4)
    %3 = tt.splat %1 : i32 -> tensor<1024xi32, #blocked> loc(#loc5)
    %4 = arith.addi %3, %2 : tensor<1024xi32, #blocked> loc(#loc5)
    %5 = tt.splat %arg3 : i32 -> tensor<1024xi32, #blocked> loc(#loc6)
    %6 = arith.cmpi slt, %4, %5 : tensor<1024xi32, #blocked> loc(#loc6)
    %7 = tt.splat %arg0 : !tt.ptr<f32> -> tensor<1024x!tt.ptr<f32>, #blocked> loc(#loc7)
    %8 = tt.addptr %7, %4 : tensor<1024x!tt.ptr<f32>, #blocked>, tensor<1024xi32, #blocked> loc(#loc7)
    %9 = tt.load %8, %6 : tensor<1024x!tt.ptr<f32>, #blocked> loc(#loc8)
    %10 = tt.splat %arg1 : !tt.ptr<f32> -> tensor<1024x!tt.ptr<f32>, #blocked> loc(#loc9)
    %11 = tt.addptr %10, %4 : tensor<1024x!tt.ptr<f32>, #blocked>, tensor<1024xi32, #blocked> loc(#loc9)
    %12 = tt.load %11, %6 : tensor<1024x!tt.ptr<f32>, #blocked> loc(#loc10)
    %13 = arith.addf %9, %12 : tensor<1024xf32, #blocked> loc(#loc11)
    %14 = tt.splat %arg2 : !tt.ptr<f32> -> tensor<1024x!tt.ptr<f32>, #blocked> loc(#loc12)
    %15 = tt.addptr %14, %4 : tensor<1024x!tt.ptr<f32>, #blocked>, tensor<1024xi32, #blocked> loc(#loc12)
    tt.store %15, %13, %6 : tensor<1024x!tt.ptr<f32>, #blocked> loc(#loc13)
    tt.return loc(#loc14)
  } loc(#loc)
} loc(#loc)
#loc1 = loc(unknown)
#loc2 = loc("/mnt/home/douliyang/triton-workspace/triton-tutorial/tutorial/Triton-101/Debug/vector_add.py":39:24)
#loc3 = loc("/mnt/home/douliyang/triton-workspace/triton-tutorial/tutorial/Triton-101/Debug/vector_add.py":52:24)
#loc4 = loc("/mnt/home/douliyang/triton-workspace/triton-tutorial/tutorial/Triton-101/Debug/vector_add.py":53:41)
#loc5 = loc("/mnt/home/douliyang/triton-workspace/triton-tutorial/tutorial/Triton-101/Debug/vector_add.py":53:28)
#loc6 = loc("/mnt/home/douliyang/triton-workspace/triton-tutorial/tutorial/Triton-101/Debug/vector_add.py":55:21)
#loc7 = loc("/mnt/home/douliyang/triton-workspace/triton-tutorial/tutorial/Triton-101/Debug/vector_add.py":58:24)
#loc8 = loc("/mnt/home/douliyang/triton-workspace/triton-tutorial/tutorial/Triton-101/Debug/vector_add.py":58:16)
#loc9 = loc("/mnt/home/douliyang/triton-workspace/triton-tutorial/tutorial/Triton-101/Debug/vector_add.py":59:24)
#loc10 = loc("/mnt/home/douliyang/triton-workspace/triton-tutorial/tutorial/Triton-101/Debug/vector_add.py":59:16)
#loc11 = loc("/mnt/home/douliyang/triton-workspace/triton-tutorial/tutorial/Triton-101/Debug/vector_add.py":60:17)
#loc12 = loc("/mnt/home/douliyang/triton-workspace/triton-tutorial/tutorial/Triton-101/Debug/vector_add.py":62:26)
#loc13 = loc("/mnt/home/douliyang/triton-workspace/triton-tutorial/tutorial/Triton-101/Debug/vector_add.py":62:35)
#loc14 = loc("/mnt/home/douliyang/triton-workspace/triton-tutorial/tutorial/Triton-101/Debug/vector_add.py":62:4)


// -----// IR Dump Before TritonGPUPrintAddIOp (tritongpu-print-addiop) ('builtin.module' operation) //----- //
#blocked = #ttg.blocked<{sizePerThread = [1], threadsPerWarp = [32], warpsPerCTA = [4], order = [0]}>
#blocked1 = #ttg.blocked<{sizePerThread = [4], threadsPerWarp = [32], warpsPerCTA = [4], order = [0]}>
#loc = loc("/mnt/home/douliyang/triton-workspace/triton-tutorial/tutorial/Triton-101/Debug/vector_add.py":30:0)
module attributes {"ttg.num-ctas" = 1 : i32, "ttg.num-warps" = 4 : i32, ttg.target = "cuda:86", "ttg.threads-per-warp" = 32 : i32} {
  tt.func public @add_kernel(%arg0: !tt.ptr<f32> {tt.divisibility = 16 : i32} loc("/mnt/home/douliyang/triton-workspace/triton-tutorial/tutorial/Triton-101/Debug/vector_add.py":30:0), %arg1: !tt.ptr<f32> {tt.divisibility = 16 : i32} loc("/mnt/home/douliyang/triton-workspace/triton-tutorial/tutorial/Triton-101/Debug/vector_add.py":30:0), %arg2: !tt.ptr<f32> {tt.divisibility = 16 : i32} loc("/mnt/home/douliyang/triton-workspace/triton-tutorial/tutorial/Triton-101/Debug/vector_add.py":30:0), %arg3: i32 {tt.divisibility = 16 : i32} loc("/mnt/home/douliyang/triton-workspace/triton-tutorial/tutorial/Triton-101/Debug/vector_add.py":30:0)) attributes {noinline = false} {
    %c1024_i32 = arith.constant 1024 : i32 loc(#loc1)
    %0 = tt.get_program_id x : i32 loc(#loc2)
    %1 = arith.muli %0, %c1024_i32 : i32 loc(#loc3)
    %2 = tt.make_range {end = 1024 : i32, start = 0 : i32} : tensor<1024xi32, #blocked> loc(#loc4)
    %3 = tt.splat %1 : i32 -> tensor<1024xi32, #blocked> loc(#loc5)
    %4 = arith.addi %3, %2 : tensor<1024xi32, #blocked> loc(#loc5)
    %5 = tt.splat %arg3 : i32 -> tensor<1024xi32, #blocked> loc(#loc6)
    %6 = arith.cmpi slt, %4, %5 : tensor<1024xi32, #blocked> loc(#loc6)
    %7 = tt.splat %arg0 : !tt.ptr<f32> -> tensor<1024x!tt.ptr<f32>, #blocked> loc(#loc7)
    %8 = tt.addptr %7, %4 : tensor<1024x!tt.ptr<f32>, #blocked>, tensor<1024xi32, #blocked> loc(#loc7)
    %9 = ttg.convert_layout %8 : tensor<1024x!tt.ptr<f32>, #blocked> -> tensor<1024x!tt.ptr<f32>, #blocked1> loc(#loc8)
    %10 = ttg.convert_layout %6 : tensor<1024xi1, #blocked> -> tensor<1024xi1, #blocked1> loc(#loc8)
    %11 = tt.load %9, %10 : tensor<1024x!tt.ptr<f32>, #blocked1> loc(#loc8)
    %12 = ttg.convert_layout %11 : tensor<1024xf32, #blocked1> -> tensor<1024xf32, #blocked> loc(#loc8)
    %13 = tt.splat %arg1 : !tt.ptr<f32> -> tensor<1024x!tt.ptr<f32>, #blocked> loc(#loc9)
    %14 = tt.addptr %13, %4 : tensor<1024x!tt.ptr<f32>, #blocked>, tensor<1024xi32, #blocked> loc(#loc9)
    %15 = ttg.convert_layout %14 : tensor<1024x!tt.ptr<f32>, #blocked> -> tensor<1024x!tt.ptr<f32>, #blocked1> loc(#loc10)
    %16 = ttg.convert_layout %6 : tensor<1024xi1, #blocked> -> tensor<1024xi1, #blocked1> loc(#loc10)
    %17 = tt.load %15, %16 : tensor<1024x!tt.ptr<f32>, #blocked1> loc(#loc10)
    %18 = ttg.convert_layout %17 : tensor<1024xf32, #blocked1> -> tensor<1024xf32, #blocked> loc(#loc10)
    %19 = arith.addf %12, %18 : tensor<1024xf32, #blocked> loc(#loc11)
    %20 = tt.splat %arg2 : !tt.ptr<f32> -> tensor<1024x!tt.ptr<f32>, #blocked> loc(#loc12)
    %21 = tt.addptr %20, %4 : tensor<1024x!tt.ptr<f32>, #blocked>, tensor<1024xi32, #blocked> loc(#loc12)
    %22 = ttg.convert_layout %21 : tensor<1024x!tt.ptr<f32>, #blocked> -> tensor<1024x!tt.ptr<f32>, #blocked1> loc(#loc13)
    %23 = ttg.convert_layout %19 : tensor<1024xf32, #blocked> -> tensor<1024xf32, #blocked1> loc(#loc13)
    %24 = ttg.convert_layout %6 : tensor<1024xi1, #blocked> -> tensor<1024xi1, #blocked1> loc(#loc13)
    tt.store %22, %23, %24 : tensor<1024x!tt.ptr<f32>, #blocked1> loc(#loc13)
    tt.return loc(#loc14)
  } loc(#loc)
} loc(#loc)
#loc1 = loc(unknown)
#loc2 = loc("/mnt/home/douliyang/triton-workspace/triton-tutorial/tutorial/Triton-101/Debug/vector_add.py":39:24)
#loc3 = loc("/mnt/home/douliyang/triton-workspace/triton-tutorial/tutorial/Triton-101/Debug/vector_add.py":52:24)
#loc4 = loc("/mnt/home/douliyang/triton-workspace/triton-tutorial/tutorial/Triton-101/Debug/vector_add.py":53:41)
#loc5 = loc("/mnt/home/douliyang/triton-workspace/triton-tutorial/tutorial/Triton-101/Debug/vector_add.py":53:28)
#loc6 = loc("/mnt/home/douliyang/triton-workspace/triton-tutorial/tutorial/Triton-101/Debug/vector_add.py":55:21)
#loc7 = loc("/mnt/home/douliyang/triton-workspace/triton-tutorial/tutorial/Triton-101/Debug/vector_add.py":58:24)
#loc8 = loc("/mnt/home/douliyang/triton-workspace/triton-tutorial/tutorial/Triton-101/Debug/vector_add.py":58:16)
#loc9 = loc("/mnt/home/douliyang/triton-workspace/triton-tutorial/tutorial/Triton-101/Debug/vector_add.py":59:24)
#loc10 = loc("/mnt/home/douliyang/triton-workspace/triton-tutorial/tutorial/Triton-101/Debug/vector_add.py":59:16)
#loc11 = loc("/mnt/home/douliyang/triton-workspace/triton-tutorial/tutorial/Triton-101/Debug/vector_add.py":60:17)
#loc12 = loc("/mnt/home/douliyang/triton-workspace/triton-tutorial/tutorial/Triton-101/Debug/vector_add.py":62:26)
#loc13 = loc("/mnt/home/douliyang/triton-workspace/triton-tutorial/tutorial/Triton-101/Debug/vector_add.py":62:35)
#loc14 = loc("/mnt/home/douliyang/triton-workspace/triton-tutorial/tutorial/Triton-101/Debug/vector_add.py":62:4)


// -----// IR Dump Before TritonGPUF32DotTC (tritongpu-F32DotTC) ('builtin.module' operation) //----- //
#blocked = #ttg.blocked<{sizePerThread = [1], threadsPerWarp = [32], warpsPerCTA = [4], order = [0]}>
#blocked1 = #ttg.blocked<{sizePerThread = [4], threadsPerWarp = [32], warpsPerCTA = [4], order = [0]}>
#loc = loc("/mnt/home/douliyang/triton-workspace/triton-tutorial/tutorial/Triton-101/Debug/vector_add.py":30:0)
module attributes {"ttg.num-ctas" = 1 : i32, "ttg.num-warps" = 4 : i32, ttg.target = "cuda:86", "ttg.threads-per-warp" = 32 : i32} {
  tt.func public @add_kernel(%arg0: !tt.ptr<f32> {tt.divisibility = 16 : i32} loc("/mnt/home/douliyang/triton-workspace/triton-tutorial/tutorial/Triton-101/Debug/vector_add.py":30:0), %arg1: !tt.ptr<f32> {tt.divisibility = 16 : i32} loc("/mnt/home/douliyang/triton-workspace/triton-tutorial/tutorial/Triton-101/Debug/vector_add.py":30:0), %arg2: !tt.ptr<f32> {tt.divisibility = 16 : i32} loc("/mnt/home/douliyang/triton-workspace/triton-tutorial/tutorial/Triton-101/Debug/vector_add.py":30:0), %arg3: i32 {tt.divisibility = 16 : i32} loc("/mnt/home/douliyang/triton-workspace/triton-tutorial/tutorial/Triton-101/Debug/vector_add.py":30:0)) attributes {noinline = false} {
    %c1024_i32 = arith.constant 1024 : i32 loc(#loc1)
    %0 = tt.get_program_id x : i32 loc(#loc2)
    %1 = arith.muli %0, %c1024_i32 : i32 loc(#loc3)
    %2 = tt.make_range {end = 1024 : i32, start = 0 : i32} : tensor<1024xi32, #blocked> loc(#loc4)
    %3 = tt.splat %1 : i32 -> tensor<1024xi32, #blocked> loc(#loc5)
    %4 = arith.addi %3, %2 : tensor<1024xi32, #blocked> loc(#loc5)
    %5 = tt.splat %arg3 : i32 -> tensor<1024xi32, #blocked> loc(#loc6)
    %6 = arith.cmpi slt, %4, %5 : tensor<1024xi32, #blocked> loc(#loc6)
    %7 = tt.splat %arg0 : !tt.ptr<f32> -> tensor<1024x!tt.ptr<f32>, #blocked> loc(#loc7)
    %8 = tt.addptr %7, %4 : tensor<1024x!tt.ptr<f32>, #blocked>, tensor<1024xi32, #blocked> loc(#loc7)
    %9 = ttg.convert_layout %8 : tensor<1024x!tt.ptr<f32>, #blocked> -> tensor<1024x!tt.ptr<f32>, #blocked1> loc(#loc8)
    %10 = ttg.convert_layout %6 : tensor<1024xi1, #blocked> -> tensor<1024xi1, #blocked1> loc(#loc8)
    %11 = tt.load %9, %10 : tensor<1024x!tt.ptr<f32>, #blocked1> loc(#loc8)
    %12 = ttg.convert_layout %11 : tensor<1024xf32, #blocked1> -> tensor<1024xf32, #blocked> loc(#loc8)
    %13 = tt.splat %arg1 : !tt.ptr<f32> -> tensor<1024x!tt.ptr<f32>, #blocked> loc(#loc9)
    %14 = tt.addptr %13, %4 : tensor<1024x!tt.ptr<f32>, #blocked>, tensor<1024xi32, #blocked> loc(#loc9)
    %15 = ttg.convert_layout %14 : tensor<1024x!tt.ptr<f32>, #blocked> -> tensor<1024x!tt.ptr<f32>, #blocked1> loc(#loc10)
    %16 = ttg.convert_layout %6 : tensor<1024xi1, #blocked> -> tensor<1024xi1, #blocked1> loc(#loc10)
    %17 = tt.load %15, %16 : tensor<1024x!tt.ptr<f32>, #blocked1> loc(#loc10)
    %18 = ttg.convert_layout %17 : tensor<1024xf32, #blocked1> -> tensor<1024xf32, #blocked> loc(#loc10)
    %19 = arith.addf %12, %18 : tensor<1024xf32, #blocked> loc(#loc11)
    %20 = tt.splat %arg2 : !tt.ptr<f32> -> tensor<1024x!tt.ptr<f32>, #blocked> loc(#loc12)
    %21 = tt.addptr %20, %4 : tensor<1024x!tt.ptr<f32>, #blocked>, tensor<1024xi32, #blocked> loc(#loc12)
    %22 = ttg.convert_layout %21 : tensor<1024x!tt.ptr<f32>, #blocked> -> tensor<1024x!tt.ptr<f32>, #blocked1> loc(#loc13)
    %23 = ttg.convert_layout %19 : tensor<1024xf32, #blocked> -> tensor<1024xf32, #blocked1> loc(#loc13)
    %24 = ttg.convert_layout %6 : tensor<1024xi1, #blocked> -> tensor<1024xi1, #blocked1> loc(#loc13)
    tt.store %22, %23, %24 : tensor<1024x!tt.ptr<f32>, #blocked1> loc(#loc13)
    tt.return loc(#loc14)
  } loc(#loc)
} loc(#loc)
#loc1 = loc(unknown)
#loc2 = loc("/mnt/home/douliyang/triton-workspace/triton-tutorial/tutorial/Triton-101/Debug/vector_add.py":39:24)
#loc3 = loc("/mnt/home/douliyang/triton-workspace/triton-tutorial/tutorial/Triton-101/Debug/vector_add.py":52:24)
#loc4 = loc("/mnt/home/douliyang/triton-workspace/triton-tutorial/tutorial/Triton-101/Debug/vector_add.py":53:41)
#loc5 = loc("/mnt/home/douliyang/triton-workspace/triton-tutorial/tutorial/Triton-101/Debug/vector_add.py":53:28)
#loc6 = loc("/mnt/home/douliyang/triton-workspace/triton-tutorial/tutorial/Triton-101/Debug/vector_add.py":55:21)
#loc7 = loc("/mnt/home/douliyang/triton-workspace/triton-tutorial/tutorial/Triton-101/Debug/vector_add.py":58:24)
#loc8 = loc("/mnt/home/douliyang/triton-workspace/triton-tutorial/tutorial/Triton-101/Debug/vector_add.py":58:16)
#loc9 = loc("/mnt/home/douliyang/triton-workspace/triton-tutorial/tutorial/Triton-101/Debug/vector_add.py":59:24)
#loc10 = loc("/mnt/home/douliyang/triton-workspace/triton-tutorial/tutorial/Triton-101/Debug/vector_add.py":59:16)
#loc11 = loc("/mnt/home/douliyang/triton-workspace/triton-tutorial/tutorial/Triton-101/Debug/vector_add.py":60:17)
#loc12 = loc("/mnt/home/douliyang/triton-workspace/triton-tutorial/tutorial/Triton-101/Debug/vector_add.py":62:26)
#loc13 = loc("/mnt/home/douliyang/triton-workspace/triton-tutorial/tutorial/Triton-101/Debug/vector_add.py":62:35)
#loc14 = loc("/mnt/home/douliyang/triton-workspace/triton-tutorial/tutorial/Triton-101/Debug/vector_add.py":62:4)


// -----// IR Dump Before TritonGPUPlanCTAPass (triton-nvidia-gpu-plan-cta) ('builtin.module' operation) //----- //
#blocked = #ttg.blocked<{sizePerThread = [1], threadsPerWarp = [32], warpsPerCTA = [4], order = [0]}>
#blocked1 = #ttg.blocked<{sizePerThread = [4], threadsPerWarp = [32], warpsPerCTA = [4], order = [0]}>
#loc = loc("/mnt/home/douliyang/triton-workspace/triton-tutorial/tutorial/Triton-101/Debug/vector_add.py":30:0)
module attributes {"ttg.num-ctas" = 1 : i32, "ttg.num-warps" = 4 : i32, ttg.target = "cuda:86", "ttg.threads-per-warp" = 32 : i32} {
  tt.func public @add_kernel(%arg0: !tt.ptr<f32> {tt.divisibility = 16 : i32} loc("/mnt/home/douliyang/triton-workspace/triton-tutorial/tutorial/Triton-101/Debug/vector_add.py":30:0), %arg1: !tt.ptr<f32> {tt.divisibility = 16 : i32} loc("/mnt/home/douliyang/triton-workspace/triton-tutorial/tutorial/Triton-101/Debug/vector_add.py":30:0), %arg2: !tt.ptr<f32> {tt.divisibility = 16 : i32} loc("/mnt/home/douliyang/triton-workspace/triton-tutorial/tutorial/Triton-101/Debug/vector_add.py":30:0), %arg3: i32 {tt.divisibility = 16 : i32} loc("/mnt/home/douliyang/triton-workspace/triton-tutorial/tutorial/Triton-101/Debug/vector_add.py":30:0)) attributes {noinline = false} {
    %c1024_i32 = arith.constant 1024 : i32 loc(#loc1)
    %0 = tt.get_program_id x : i32 loc(#loc2)
    %1 = arith.muli %0, %c1024_i32 : i32 loc(#loc3)
    %2 = tt.make_range {end = 1024 : i32, start = 0 : i32} : tensor<1024xi32, #blocked> loc(#loc4)
    %3 = tt.splat %1 : i32 -> tensor<1024xi32, #blocked> loc(#loc5)
    %4 = arith.addi %3, %2 : tensor<1024xi32, #blocked> loc(#loc5)
    %5 = tt.splat %arg3 : i32 -> tensor<1024xi32, #blocked> loc(#loc6)
    %6 = arith.cmpi slt, %4, %5 : tensor<1024xi32, #blocked> loc(#loc6)
    %7 = tt.splat %arg0 : !tt.ptr<f32> -> tensor<1024x!tt.ptr<f32>, #blocked> loc(#loc7)
    %8 = tt.addptr %7, %4 : tensor<1024x!tt.ptr<f32>, #blocked>, tensor<1024xi32, #blocked> loc(#loc7)
    %9 = ttg.convert_layout %8 : tensor<1024x!tt.ptr<f32>, #blocked> -> tensor<1024x!tt.ptr<f32>, #blocked1> loc(#loc8)
    %10 = ttg.convert_layout %6 : tensor<1024xi1, #blocked> -> tensor<1024xi1, #blocked1> loc(#loc8)
    %11 = tt.load %9, %10 : tensor<1024x!tt.ptr<f32>, #blocked1> loc(#loc8)
    %12 = ttg.convert_layout %11 : tensor<1024xf32, #blocked1> -> tensor<1024xf32, #blocked> loc(#loc8)
    %13 = tt.splat %arg1 : !tt.ptr<f32> -> tensor<1024x!tt.ptr<f32>, #blocked> loc(#loc9)
    %14 = tt.addptr %13, %4 : tensor<1024x!tt.ptr<f32>, #blocked>, tensor<1024xi32, #blocked> loc(#loc9)
    %15 = ttg.convert_layout %14 : tensor<1024x!tt.ptr<f32>, #blocked> -> tensor<1024x!tt.ptr<f32>, #blocked1> loc(#loc10)
    %16 = ttg.convert_layout %6 : tensor<1024xi1, #blocked> -> tensor<1024xi1, #blocked1> loc(#loc10)
    %17 = tt.load %15, %16 : tensor<1024x!tt.ptr<f32>, #blocked1> loc(#loc10)
    %18 = ttg.convert_layout %17 : tensor<1024xf32, #blocked1> -> tensor<1024xf32, #blocked> loc(#loc10)
    %19 = arith.addf %12, %18 : tensor<1024xf32, #blocked> loc(#loc11)
    %20 = tt.splat %arg2 : !tt.ptr<f32> -> tensor<1024x!tt.ptr<f32>, #blocked> loc(#loc12)
    %21 = tt.addptr %20, %4 : tensor<1024x!tt.ptr<f32>, #blocked>, tensor<1024xi32, #blocked> loc(#loc12)
    %22 = ttg.convert_layout %21 : tensor<1024x!tt.ptr<f32>, #blocked> -> tensor<1024x!tt.ptr<f32>, #blocked1> loc(#loc13)
    %23 = ttg.convert_layout %19 : tensor<1024xf32, #blocked> -> tensor<1024xf32, #blocked1> loc(#loc13)
    %24 = ttg.convert_layout %6 : tensor<1024xi1, #blocked> -> tensor<1024xi1, #blocked1> loc(#loc13)
    tt.store %22, %23, %24 : tensor<1024x!tt.ptr<f32>, #blocked1> loc(#loc13)
    tt.return loc(#loc14)
  } loc(#loc)
} loc(#loc)
#loc1 = loc(unknown)
#loc2 = loc("/mnt/home/douliyang/triton-workspace/triton-tutorial/tutorial/Triton-101/Debug/vector_add.py":39:24)
#loc3 = loc("/mnt/home/douliyang/triton-workspace/triton-tutorial/tutorial/Triton-101/Debug/vector_add.py":52:24)
#loc4 = loc("/mnt/home/douliyang/triton-workspace/triton-tutorial/tutorial/Triton-101/Debug/vector_add.py":53:41)
#loc5 = loc("/mnt/home/douliyang/triton-workspace/triton-tutorial/tutorial/Triton-101/Debug/vector_add.py":53:28)
#loc6 = loc("/mnt/home/douliyang/triton-workspace/triton-tutorial/tutorial/Triton-101/Debug/vector_add.py":55:21)
#loc7 = loc("/mnt/home/douliyang/triton-workspace/triton-tutorial/tutorial/Triton-101/Debug/vector_add.py":58:24)
#loc8 = loc("/mnt/home/douliyang/triton-workspace/triton-tutorial/tutorial/Triton-101/Debug/vector_add.py":58:16)
#loc9 = loc("/mnt/home/douliyang/triton-workspace/triton-tutorial/tutorial/Triton-101/Debug/vector_add.py":59:24)
#loc10 = loc("/mnt/home/douliyang/triton-workspace/triton-tutorial/tutorial/Triton-101/Debug/vector_add.py":59:16)
#loc11 = loc("/mnt/home/douliyang/triton-workspace/triton-tutorial/tutorial/Triton-101/Debug/vector_add.py":60:17)
#loc12 = loc("/mnt/home/douliyang/triton-workspace/triton-tutorial/tutorial/Triton-101/Debug/vector_add.py":62:26)
#loc13 = loc("/mnt/home/douliyang/triton-workspace/triton-tutorial/tutorial/Triton-101/Debug/vector_add.py":62:35)
#loc14 = loc("/mnt/home/douliyang/triton-workspace/triton-tutorial/tutorial/Triton-101/Debug/vector_add.py":62:4)


// -----// IR Dump Before TritonGPURemoveLayoutConversions (tritongpu-remove-layout-conversions) ('builtin.module' operation) //----- //
#blocked = #ttg.blocked<{sizePerThread = [1], threadsPerWarp = [32], warpsPerCTA = [4], order = [0]}>
#blocked1 = #ttg.blocked<{sizePerThread = [4], threadsPerWarp = [32], warpsPerCTA = [4], order = [0]}>
#loc = loc("/mnt/home/douliyang/triton-workspace/triton-tutorial/tutorial/Triton-101/Debug/vector_add.py":30:0)
module attributes {"ttg.num-ctas" = 1 : i32, "ttg.num-warps" = 4 : i32, ttg.target = "cuda:86", "ttg.threads-per-warp" = 32 : i32} {
  tt.func public @add_kernel(%arg0: !tt.ptr<f32> {tt.divisibility = 16 : i32} loc("/mnt/home/douliyang/triton-workspace/triton-tutorial/tutorial/Triton-101/Debug/vector_add.py":30:0), %arg1: !tt.ptr<f32> {tt.divisibility = 16 : i32} loc("/mnt/home/douliyang/triton-workspace/triton-tutorial/tutorial/Triton-101/Debug/vector_add.py":30:0), %arg2: !tt.ptr<f32> {tt.divisibility = 16 : i32} loc("/mnt/home/douliyang/triton-workspace/triton-tutorial/tutorial/Triton-101/Debug/vector_add.py":30:0), %arg3: i32 {tt.divisibility = 16 : i32} loc("/mnt/home/douliyang/triton-workspace/triton-tutorial/tutorial/Triton-101/Debug/vector_add.py":30:0)) attributes {noinline = false} {
    %c1024_i32 = arith.constant 1024 : i32 loc(#loc1)
    %0 = tt.get_program_id x : i32 loc(#loc2)
    %1 = arith.muli %0, %c1024_i32 : i32 loc(#loc3)
    %2 = tt.make_range {end = 1024 : i32, start = 0 : i32} : tensor<1024xi32, #blocked> loc(#loc4)
    %3 = tt.splat %1 : i32 -> tensor<1024xi32, #blocked> loc(#loc5)
    %4 = arith.addi %3, %2 : tensor<1024xi32, #blocked> loc(#loc5)
    %5 = tt.splat %arg3 : i32 -> tensor<1024xi32, #blocked> loc(#loc6)
    %6 = arith.cmpi slt, %4, %5 : tensor<1024xi32, #blocked> loc(#loc6)
    %7 = tt.splat %arg0 : !tt.ptr<f32> -> tensor<1024x!tt.ptr<f32>, #blocked> loc(#loc7)
    %8 = tt.addptr %7, %4 : tensor<1024x!tt.ptr<f32>, #blocked>, tensor<1024xi32, #blocked> loc(#loc7)
    %9 = ttg.convert_layout %8 : tensor<1024x!tt.ptr<f32>, #blocked> -> tensor<1024x!tt.ptr<f32>, #blocked1> loc(#loc8)
    %10 = ttg.convert_layout %6 : tensor<1024xi1, #blocked> -> tensor<1024xi1, #blocked1> loc(#loc8)
    %11 = tt.load %9, %10 : tensor<1024x!tt.ptr<f32>, #blocked1> loc(#loc8)
    %12 = ttg.convert_layout %11 : tensor<1024xf32, #blocked1> -> tensor<1024xf32, #blocked> loc(#loc8)
    %13 = tt.splat %arg1 : !tt.ptr<f32> -> tensor<1024x!tt.ptr<f32>, #blocked> loc(#loc9)
    %14 = tt.addptr %13, %4 : tensor<1024x!tt.ptr<f32>, #blocked>, tensor<1024xi32, #blocked> loc(#loc9)
    %15 = ttg.convert_layout %14 : tensor<1024x!tt.ptr<f32>, #blocked> -> tensor<1024x!tt.ptr<f32>, #blocked1> loc(#loc10)
    %16 = ttg.convert_layout %6 : tensor<1024xi1, #blocked> -> tensor<1024xi1, #blocked1> loc(#loc10)
    %17 = tt.load %15, %16 : tensor<1024x!tt.ptr<f32>, #blocked1> loc(#loc10)
    %18 = ttg.convert_layout %17 : tensor<1024xf32, #blocked1> -> tensor<1024xf32, #blocked> loc(#loc10)
    %19 = arith.addf %12, %18 : tensor<1024xf32, #blocked> loc(#loc11)
    %20 = tt.splat %arg2 : !tt.ptr<f32> -> tensor<1024x!tt.ptr<f32>, #blocked> loc(#loc12)
    %21 = tt.addptr %20, %4 : tensor<1024x!tt.ptr<f32>, #blocked>, tensor<1024xi32, #blocked> loc(#loc12)
    %22 = ttg.convert_layout %21 : tensor<1024x!tt.ptr<f32>, #blocked> -> tensor<1024x!tt.ptr<f32>, #blocked1> loc(#loc13)
    %23 = ttg.convert_layout %19 : tensor<1024xf32, #blocked> -> tensor<1024xf32, #blocked1> loc(#loc13)
    %24 = ttg.convert_layout %6 : tensor<1024xi1, #blocked> -> tensor<1024xi1, #blocked1> loc(#loc13)
    tt.store %22, %23, %24 : tensor<1024x!tt.ptr<f32>, #blocked1> loc(#loc13)
    tt.return loc(#loc14)
  } loc(#loc)
} loc(#loc)
#loc1 = loc(unknown)
#loc2 = loc("/mnt/home/douliyang/triton-workspace/triton-tutorial/tutorial/Triton-101/Debug/vector_add.py":39:24)
#loc3 = loc("/mnt/home/douliyang/triton-workspace/triton-tutorial/tutorial/Triton-101/Debug/vector_add.py":52:24)
#loc4 = loc("/mnt/home/douliyang/triton-workspace/triton-tutorial/tutorial/Triton-101/Debug/vector_add.py":53:41)
#loc5 = loc("/mnt/home/douliyang/triton-workspace/triton-tutorial/tutorial/Triton-101/Debug/vector_add.py":53:28)
#loc6 = loc("/mnt/home/douliyang/triton-workspace/triton-tutorial/tutorial/Triton-101/Debug/vector_add.py":55:21)
#loc7 = loc("/mnt/home/douliyang/triton-workspace/triton-tutorial/tutorial/Triton-101/Debug/vector_add.py":58:24)
#loc8 = loc("/mnt/home/douliyang/triton-workspace/triton-tutorial/tutorial/Triton-101/Debug/vector_add.py":58:16)
#loc9 = loc("/mnt/home/douliyang/triton-workspace/triton-tutorial/tutorial/Triton-101/Debug/vector_add.py":59:24)
#loc10 = loc("/mnt/home/douliyang/triton-workspace/triton-tutorial/tutorial/Triton-101/Debug/vector_add.py":59:16)
#loc11 = loc("/mnt/home/douliyang/triton-workspace/triton-tutorial/tutorial/Triton-101/Debug/vector_add.py":60:17)
#loc12 = loc("/mnt/home/douliyang/triton-workspace/triton-tutorial/tutorial/Triton-101/Debug/vector_add.py":62:26)
#loc13 = loc("/mnt/home/douliyang/triton-workspace/triton-tutorial/tutorial/Triton-101/Debug/vector_add.py":62:35)
#loc14 = loc("/mnt/home/douliyang/triton-workspace/triton-tutorial/tutorial/Triton-101/Debug/vector_add.py":62:4)


// -----// IR Dump Before TritonGPUOptimizeThreadLocality (tritongpu-optimize-thread-locality) ('builtin.module' operation) //----- //
#blocked = #ttg.blocked<{sizePerThread = [4], threadsPerWarp = [32], warpsPerCTA = [4], order = [0]}>
#loc = loc("/mnt/home/douliyang/triton-workspace/triton-tutorial/tutorial/Triton-101/Debug/vector_add.py":30:0)
module attributes {"ttg.num-ctas" = 1 : i32, "ttg.num-warps" = 4 : i32, ttg.target = "cuda:86", "ttg.threads-per-warp" = 32 : i32} {
  tt.func public @add_kernel(%arg0: !tt.ptr<f32> {tt.divisibility = 16 : i32} loc("/mnt/home/douliyang/triton-workspace/triton-tutorial/tutorial/Triton-101/Debug/vector_add.py":30:0), %arg1: !tt.ptr<f32> {tt.divisibility = 16 : i32} loc("/mnt/home/douliyang/triton-workspace/triton-tutorial/tutorial/Triton-101/Debug/vector_add.py":30:0), %arg2: !tt.ptr<f32> {tt.divisibility = 16 : i32} loc("/mnt/home/douliyang/triton-workspace/triton-tutorial/tutorial/Triton-101/Debug/vector_add.py":30:0), %arg3: i32 {tt.divisibility = 16 : i32} loc("/mnt/home/douliyang/triton-workspace/triton-tutorial/tutorial/Triton-101/Debug/vector_add.py":30:0)) attributes {noinline = false} {
    %c1024_i32 = arith.constant 1024 : i32 loc(#loc1)
    %0 = tt.get_program_id x : i32 loc(#loc2)
    %1 = arith.muli %0, %c1024_i32 : i32 loc(#loc3)
    %2 = tt.make_range {end = 1024 : i32, start = 0 : i32} : tensor<1024xi32, #blocked> loc(#loc4)
    %3 = tt.splat %1 : i32 -> tensor<1024xi32, #blocked> loc(#loc5)
    %4 = arith.addi %3, %2 : tensor<1024xi32, #blocked> loc(#loc5)
    %5 = tt.splat %arg3 : i32 -> tensor<1024xi32, #blocked> loc(#loc6)
    %6 = arith.cmpi slt, %4, %5 : tensor<1024xi32, #blocked> loc(#loc6)
    %7 = tt.splat %arg0 : !tt.ptr<f32> -> tensor<1024x!tt.ptr<f32>, #blocked> loc(#loc7)
    %8 = tt.addptr %7, %4 : tensor<1024x!tt.ptr<f32>, #blocked>, tensor<1024xi32, #blocked> loc(#loc7)
    %9 = tt.load %8, %6 : tensor<1024x!tt.ptr<f32>, #blocked> loc(#loc8)
    %10 = tt.splat %arg1 : !tt.ptr<f32> -> tensor<1024x!tt.ptr<f32>, #blocked> loc(#loc9)
    %11 = tt.addptr %10, %4 : tensor<1024x!tt.ptr<f32>, #blocked>, tensor<1024xi32, #blocked> loc(#loc9)
    %12 = tt.load %11, %6 : tensor<1024x!tt.ptr<f32>, #blocked> loc(#loc10)
    %13 = arith.addf %9, %12 : tensor<1024xf32, #blocked> loc(#loc11)
    %14 = tt.splat %arg2 : !tt.ptr<f32> -> tensor<1024x!tt.ptr<f32>, #blocked> loc(#loc12)
    %15 = tt.addptr %14, %4 : tensor<1024x!tt.ptr<f32>, #blocked>, tensor<1024xi32, #blocked> loc(#loc12)
    tt.store %15, %13, %6 : tensor<1024x!tt.ptr<f32>, #blocked> loc(#loc13)
    tt.return loc(#loc14)
  } loc(#loc)
} loc(#loc)
#loc1 = loc(unknown)
#loc2 = loc("/mnt/home/douliyang/triton-workspace/triton-tutorial/tutorial/Triton-101/Debug/vector_add.py":39:24)
#loc3 = loc("/mnt/home/douliyang/triton-workspace/triton-tutorial/tutorial/Triton-101/Debug/vector_add.py":52:24)
#loc4 = loc("/mnt/home/douliyang/triton-workspace/triton-tutorial/tutorial/Triton-101/Debug/vector_add.py":53:41)
#loc5 = loc("/mnt/home/douliyang/triton-workspace/triton-tutorial/tutorial/Triton-101/Debug/vector_add.py":53:28)
#loc6 = loc("/mnt/home/douliyang/triton-workspace/triton-tutorial/tutorial/Triton-101/Debug/vector_add.py":55:21)
#loc7 = loc("/mnt/home/douliyang/triton-workspace/triton-tutorial/tutorial/Triton-101/Debug/vector_add.py":58:24)
#loc8 = loc("/mnt/home/douliyang/triton-workspace/triton-tutorial/tutorial/Triton-101/Debug/vector_add.py":58:16)
#loc9 = loc("/mnt/home/douliyang/triton-workspace/triton-tutorial/tutorial/Triton-101/Debug/vector_add.py":59:24)
#loc10 = loc("/mnt/home/douliyang/triton-workspace/triton-tutorial/tutorial/Triton-101/Debug/vector_add.py":59:16)
#loc11 = loc("/mnt/home/douliyang/triton-workspace/triton-tutorial/tutorial/Triton-101/Debug/vector_add.py":60:17)
#loc12 = loc("/mnt/home/douliyang/triton-workspace/triton-tutorial/tutorial/Triton-101/Debug/vector_add.py":62:26)
#loc13 = loc("/mnt/home/douliyang/triton-workspace/triton-tutorial/tutorial/Triton-101/Debug/vector_add.py":62:35)
#loc14 = loc("/mnt/home/douliyang/triton-workspace/triton-tutorial/tutorial/Triton-101/Debug/vector_add.py":62:4)


// -----// IR Dump Before TritonGPUAccelerateMatmul (tritongpu-accelerate-matmul) ('builtin.module' operation) //----- //
#blocked = #ttg.blocked<{sizePerThread = [4], threadsPerWarp = [32], warpsPerCTA = [4], order = [0]}>
#loc = loc("/mnt/home/douliyang/triton-workspace/triton-tutorial/tutorial/Triton-101/Debug/vector_add.py":30:0)
module attributes {"ttg.num-ctas" = 1 : i32, "ttg.num-warps" = 4 : i32, ttg.target = "cuda:86", "ttg.threads-per-warp" = 32 : i32} {
  tt.func public @add_kernel(%arg0: !tt.ptr<f32> {tt.divisibility = 16 : i32} loc("/mnt/home/douliyang/triton-workspace/triton-tutorial/tutorial/Triton-101/Debug/vector_add.py":30:0), %arg1: !tt.ptr<f32> {tt.divisibility = 16 : i32} loc("/mnt/home/douliyang/triton-workspace/triton-tutorial/tutorial/Triton-101/Debug/vector_add.py":30:0), %arg2: !tt.ptr<f32> {tt.divisibility = 16 : i32} loc("/mnt/home/douliyang/triton-workspace/triton-tutorial/tutorial/Triton-101/Debug/vector_add.py":30:0), %arg3: i32 {tt.divisibility = 16 : i32} loc("/mnt/home/douliyang/triton-workspace/triton-tutorial/tutorial/Triton-101/Debug/vector_add.py":30:0)) attributes {noinline = false} {
    %c1024_i32 = arith.constant 1024 : i32 loc(#loc1)
    %0 = tt.get_program_id x : i32 loc(#loc2)
    %1 = arith.muli %0, %c1024_i32 : i32 loc(#loc3)
    %2 = tt.make_range {end = 1024 : i32, start = 0 : i32} : tensor<1024xi32, #blocked> loc(#loc4)
    %3 = tt.splat %1 : i32 -> tensor<1024xi32, #blocked> loc(#loc5)
    %4 = arith.addi %3, %2 : tensor<1024xi32, #blocked> loc(#loc5)
    %5 = tt.splat %arg3 : i32 -> tensor<1024xi32, #blocked> loc(#loc6)
    %6 = arith.cmpi slt, %4, %5 : tensor<1024xi32, #blocked> loc(#loc6)
    %7 = tt.splat %arg0 : !tt.ptr<f32> -> tensor<1024x!tt.ptr<f32>, #blocked> loc(#loc7)
    %8 = tt.addptr %7, %4 : tensor<1024x!tt.ptr<f32>, #blocked>, tensor<1024xi32, #blocked> loc(#loc7)
    %9 = tt.load %8, %6 : tensor<1024x!tt.ptr<f32>, #blocked> loc(#loc8)
    %10 = tt.splat %arg1 : !tt.ptr<f32> -> tensor<1024x!tt.ptr<f32>, #blocked> loc(#loc9)
    %11 = tt.addptr %10, %4 : tensor<1024x!tt.ptr<f32>, #blocked>, tensor<1024xi32, #blocked> loc(#loc9)
    %12 = tt.load %11, %6 : tensor<1024x!tt.ptr<f32>, #blocked> loc(#loc10)
    %13 = arith.addf %9, %12 : tensor<1024xf32, #blocked> loc(#loc11)
    %14 = tt.splat %arg2 : !tt.ptr<f32> -> tensor<1024x!tt.ptr<f32>, #blocked> loc(#loc12)
    %15 = tt.addptr %14, %4 : tensor<1024x!tt.ptr<f32>, #blocked>, tensor<1024xi32, #blocked> loc(#loc12)
    tt.store %15, %13, %6 : tensor<1024x!tt.ptr<f32>, #blocked> loc(#loc13)
    tt.return loc(#loc14)
  } loc(#loc)
} loc(#loc)
#loc1 = loc(unknown)
#loc2 = loc("/mnt/home/douliyang/triton-workspace/triton-tutorial/tutorial/Triton-101/Debug/vector_add.py":39:24)
#loc3 = loc("/mnt/home/douliyang/triton-workspace/triton-tutorial/tutorial/Triton-101/Debug/vector_add.py":52:24)
#loc4 = loc("/mnt/home/douliyang/triton-workspace/triton-tutorial/tutorial/Triton-101/Debug/vector_add.py":53:41)
#loc5 = loc("/mnt/home/douliyang/triton-workspace/triton-tutorial/tutorial/Triton-101/Debug/vector_add.py":53:28)
#loc6 = loc("/mnt/home/douliyang/triton-workspace/triton-tutorial/tutorial/Triton-101/Debug/vector_add.py":55:21)
#loc7 = loc("/mnt/home/douliyang/triton-workspace/triton-tutorial/tutorial/Triton-101/Debug/vector_add.py":58:24)
#loc8 = loc("/mnt/home/douliyang/triton-workspace/triton-tutorial/tutorial/Triton-101/Debug/vector_add.py":58:16)
#loc9 = loc("/mnt/home/douliyang/triton-workspace/triton-tutorial/tutorial/Triton-101/Debug/vector_add.py":59:24)
#loc10 = loc("/mnt/home/douliyang/triton-workspace/triton-tutorial/tutorial/Triton-101/Debug/vector_add.py":59:16)
#loc11 = loc("/mnt/home/douliyang/triton-workspace/triton-tutorial/tutorial/Triton-101/Debug/vector_add.py":60:17)
#loc12 = loc("/mnt/home/douliyang/triton-workspace/triton-tutorial/tutorial/Triton-101/Debug/vector_add.py":62:26)
#loc13 = loc("/mnt/home/douliyang/triton-workspace/triton-tutorial/tutorial/Triton-101/Debug/vector_add.py":62:35)
#loc14 = loc("/mnt/home/douliyang/triton-workspace/triton-tutorial/tutorial/Triton-101/Debug/vector_add.py":62:4)


// -----// IR Dump Before TritonGPURemoveLayoutConversions (tritongpu-remove-layout-conversions) ('builtin.module' operation) //----- //
#blocked = #ttg.blocked<{sizePerThread = [4], threadsPerWarp = [32], warpsPerCTA = [4], order = [0]}>
#loc = loc("/mnt/home/douliyang/triton-workspace/triton-tutorial/tutorial/Triton-101/Debug/vector_add.py":30:0)
module attributes {"ttg.num-ctas" = 1 : i32, "ttg.num-warps" = 4 : i32, ttg.target = "cuda:86", "ttg.threads-per-warp" = 32 : i32} {
  tt.func public @add_kernel(%arg0: !tt.ptr<f32> {tt.divisibility = 16 : i32} loc("/mnt/home/douliyang/triton-workspace/triton-tutorial/tutorial/Triton-101/Debug/vector_add.py":30:0), %arg1: !tt.ptr<f32> {tt.divisibility = 16 : i32} loc("/mnt/home/douliyang/triton-workspace/triton-tutorial/tutorial/Triton-101/Debug/vector_add.py":30:0), %arg2: !tt.ptr<f32> {tt.divisibility = 16 : i32} loc("/mnt/home/douliyang/triton-workspace/triton-tutorial/tutorial/Triton-101/Debug/vector_add.py":30:0), %arg3: i32 {tt.divisibility = 16 : i32} loc("/mnt/home/douliyang/triton-workspace/triton-tutorial/tutorial/Triton-101/Debug/vector_add.py":30:0)) attributes {noinline = false} {
    %c1024_i32 = arith.constant 1024 : i32 loc(#loc1)
    %0 = tt.get_program_id x : i32 loc(#loc2)
    %1 = arith.muli %0, %c1024_i32 : i32 loc(#loc3)
    %2 = tt.make_range {end = 1024 : i32, start = 0 : i32} : tensor<1024xi32, #blocked> loc(#loc4)
    %3 = tt.splat %1 : i32 -> tensor<1024xi32, #blocked> loc(#loc5)
    %4 = arith.addi %3, %2 : tensor<1024xi32, #blocked> loc(#loc5)
    %5 = tt.splat %arg3 : i32 -> tensor<1024xi32, #blocked> loc(#loc6)
    %6 = arith.cmpi slt, %4, %5 : tensor<1024xi32, #blocked> loc(#loc6)
    %7 = tt.splat %arg0 : !tt.ptr<f32> -> tensor<1024x!tt.ptr<f32>, #blocked> loc(#loc7)
    %8 = tt.addptr %7, %4 : tensor<1024x!tt.ptr<f32>, #blocked>, tensor<1024xi32, #blocked> loc(#loc7)
    %9 = tt.load %8, %6 : tensor<1024x!tt.ptr<f32>, #blocked> loc(#loc8)
    %10 = tt.splat %arg1 : !tt.ptr<f32> -> tensor<1024x!tt.ptr<f32>, #blocked> loc(#loc9)
    %11 = tt.addptr %10, %4 : tensor<1024x!tt.ptr<f32>, #blocked>, tensor<1024xi32, #blocked> loc(#loc9)
    %12 = tt.load %11, %6 : tensor<1024x!tt.ptr<f32>, #blocked> loc(#loc10)
    %13 = arith.addf %9, %12 : tensor<1024xf32, #blocked> loc(#loc11)
    %14 = tt.splat %arg2 : !tt.ptr<f32> -> tensor<1024x!tt.ptr<f32>, #blocked> loc(#loc12)
    %15 = tt.addptr %14, %4 : tensor<1024x!tt.ptr<f32>, #blocked>, tensor<1024xi32, #blocked> loc(#loc12)
    tt.store %15, %13, %6 : tensor<1024x!tt.ptr<f32>, #blocked> loc(#loc13)
    tt.return loc(#loc14)
  } loc(#loc)
} loc(#loc)
#loc1 = loc(unknown)
#loc2 = loc("/mnt/home/douliyang/triton-workspace/triton-tutorial/tutorial/Triton-101/Debug/vector_add.py":39:24)
#loc3 = loc("/mnt/home/douliyang/triton-workspace/triton-tutorial/tutorial/Triton-101/Debug/vector_add.py":52:24)
#loc4 = loc("/mnt/home/douliyang/triton-workspace/triton-tutorial/tutorial/Triton-101/Debug/vector_add.py":53:41)
#loc5 = loc("/mnt/home/douliyang/triton-workspace/triton-tutorial/tutorial/Triton-101/Debug/vector_add.py":53:28)
#loc6 = loc("/mnt/home/douliyang/triton-workspace/triton-tutorial/tutorial/Triton-101/Debug/vector_add.py":55:21)
#loc7 = loc("/mnt/home/douliyang/triton-workspace/triton-tutorial/tutorial/Triton-101/Debug/vector_add.py":58:24)
#loc8 = loc("/mnt/home/douliyang/triton-workspace/triton-tutorial/tutorial/Triton-101/Debug/vector_add.py":58:16)
#loc9 = loc("/mnt/home/douliyang/triton-workspace/triton-tutorial/tutorial/Triton-101/Debug/vector_add.py":59:24)
#loc10 = loc("/mnt/home/douliyang/triton-workspace/triton-tutorial/tutorial/Triton-101/Debug/vector_add.py":59:16)
#loc11 = loc("/mnt/home/douliyang/triton-workspace/triton-tutorial/tutorial/Triton-101/Debug/vector_add.py":60:17)
#loc12 = loc("/mnt/home/douliyang/triton-workspace/triton-tutorial/tutorial/Triton-101/Debug/vector_add.py":62:26)
#loc13 = loc("/mnt/home/douliyang/triton-workspace/triton-tutorial/tutorial/Triton-101/Debug/vector_add.py":62:35)
#loc14 = loc("/mnt/home/douliyang/triton-workspace/triton-tutorial/tutorial/Triton-101/Debug/vector_add.py":62:4)


// -----// IR Dump Before TritonGPUOptimizeDotOperands (tritongpu-optimize-dot-operands) ('builtin.module' operation) //----- //
#blocked = #ttg.blocked<{sizePerThread = [4], threadsPerWarp = [32], warpsPerCTA = [4], order = [0]}>
#loc = loc("/mnt/home/douliyang/triton-workspace/triton-tutorial/tutorial/Triton-101/Debug/vector_add.py":30:0)
module attributes {"ttg.num-ctas" = 1 : i32, "ttg.num-warps" = 4 : i32, ttg.target = "cuda:86", "ttg.threads-per-warp" = 32 : i32} {
  tt.func public @add_kernel(%arg0: !tt.ptr<f32> {tt.divisibility = 16 : i32} loc("/mnt/home/douliyang/triton-workspace/triton-tutorial/tutorial/Triton-101/Debug/vector_add.py":30:0), %arg1: !tt.ptr<f32> {tt.divisibility = 16 : i32} loc("/mnt/home/douliyang/triton-workspace/triton-tutorial/tutorial/Triton-101/Debug/vector_add.py":30:0), %arg2: !tt.ptr<f32> {tt.divisibility = 16 : i32} loc("/mnt/home/douliyang/triton-workspace/triton-tutorial/tutorial/Triton-101/Debug/vector_add.py":30:0), %arg3: i32 {tt.divisibility = 16 : i32} loc("/mnt/home/douliyang/triton-workspace/triton-tutorial/tutorial/Triton-101/Debug/vector_add.py":30:0)) attributes {noinline = false} {
    %c1024_i32 = arith.constant 1024 : i32 loc(#loc1)
    %0 = tt.get_program_id x : i32 loc(#loc2)
    %1 = arith.muli %0, %c1024_i32 : i32 loc(#loc3)
    %2 = tt.make_range {end = 1024 : i32, start = 0 : i32} : tensor<1024xi32, #blocked> loc(#loc4)
    %3 = tt.splat %1 : i32 -> tensor<1024xi32, #blocked> loc(#loc5)
    %4 = arith.addi %3, %2 : tensor<1024xi32, #blocked> loc(#loc5)
    %5 = tt.splat %arg3 : i32 -> tensor<1024xi32, #blocked> loc(#loc6)
    %6 = arith.cmpi slt, %4, %5 : tensor<1024xi32, #blocked> loc(#loc6)
    %7 = tt.splat %arg0 : !tt.ptr<f32> -> tensor<1024x!tt.ptr<f32>, #blocked> loc(#loc7)
    %8 = tt.addptr %7, %4 : tensor<1024x!tt.ptr<f32>, #blocked>, tensor<1024xi32, #blocked> loc(#loc7)
    %9 = tt.load %8, %6 : tensor<1024x!tt.ptr<f32>, #blocked> loc(#loc8)
    %10 = tt.splat %arg1 : !tt.ptr<f32> -> tensor<1024x!tt.ptr<f32>, #blocked> loc(#loc9)
    %11 = tt.addptr %10, %4 : tensor<1024x!tt.ptr<f32>, #blocked>, tensor<1024xi32, #blocked> loc(#loc9)
    %12 = tt.load %11, %6 : tensor<1024x!tt.ptr<f32>, #blocked> loc(#loc10)
    %13 = arith.addf %9, %12 : tensor<1024xf32, #blocked> loc(#loc11)
    %14 = tt.splat %arg2 : !tt.ptr<f32> -> tensor<1024x!tt.ptr<f32>, #blocked> loc(#loc12)
    %15 = tt.addptr %14, %4 : tensor<1024x!tt.ptr<f32>, #blocked>, tensor<1024xi32, #blocked> loc(#loc12)
    tt.store %15, %13, %6 : tensor<1024x!tt.ptr<f32>, #blocked> loc(#loc13)
    tt.return loc(#loc14)
  } loc(#loc)
} loc(#loc)
#loc1 = loc(unknown)
#loc2 = loc("/mnt/home/douliyang/triton-workspace/triton-tutorial/tutorial/Triton-101/Debug/vector_add.py":39:24)
#loc3 = loc("/mnt/home/douliyang/triton-workspace/triton-tutorial/tutorial/Triton-101/Debug/vector_add.py":52:24)
#loc4 = loc("/mnt/home/douliyang/triton-workspace/triton-tutorial/tutorial/Triton-101/Debug/vector_add.py":53:41)
#loc5 = loc("/mnt/home/douliyang/triton-workspace/triton-tutorial/tutorial/Triton-101/Debug/vector_add.py":53:28)
#loc6 = loc("/mnt/home/douliyang/triton-workspace/triton-tutorial/tutorial/Triton-101/Debug/vector_add.py":55:21)
#loc7 = loc("/mnt/home/douliyang/triton-workspace/triton-tutorial/tutorial/Triton-101/Debug/vector_add.py":58:24)
#loc8 = loc("/mnt/home/douliyang/triton-workspace/triton-tutorial/tutorial/Triton-101/Debug/vector_add.py":58:16)
#loc9 = loc("/mnt/home/douliyang/triton-workspace/triton-tutorial/tutorial/Triton-101/Debug/vector_add.py":59:24)
#loc10 = loc("/mnt/home/douliyang/triton-workspace/triton-tutorial/tutorial/Triton-101/Debug/vector_add.py":59:16)
#loc11 = loc("/mnt/home/douliyang/triton-workspace/triton-tutorial/tutorial/Triton-101/Debug/vector_add.py":60:17)
#loc12 = loc("/mnt/home/douliyang/triton-workspace/triton-tutorial/tutorial/Triton-101/Debug/vector_add.py":62:26)
#loc13 = loc("/mnt/home/douliyang/triton-workspace/triton-tutorial/tutorial/Triton-101/Debug/vector_add.py":62:35)
#loc14 = loc("/mnt/home/douliyang/triton-workspace/triton-tutorial/tutorial/Triton-101/Debug/vector_add.py":62:4)


// -----// IR Dump Before Canonicalizer (canonicalize) ('builtin.module' operation) //----- //
#blocked = #ttg.blocked<{sizePerThread = [4], threadsPerWarp = [32], warpsPerCTA = [4], order = [0]}>
#loc = loc("/mnt/home/douliyang/triton-workspace/triton-tutorial/tutorial/Triton-101/Debug/vector_add.py":30:0)
module attributes {"ttg.num-ctas" = 1 : i32, "ttg.num-warps" = 4 : i32, ttg.target = "cuda:86", "ttg.threads-per-warp" = 32 : i32} {
  tt.func public @add_kernel(%arg0: !tt.ptr<f32> {tt.divisibility = 16 : i32} loc("/mnt/home/douliyang/triton-workspace/triton-tutorial/tutorial/Triton-101/Debug/vector_add.py":30:0), %arg1: !tt.ptr<f32> {tt.divisibility = 16 : i32} loc("/mnt/home/douliyang/triton-workspace/triton-tutorial/tutorial/Triton-101/Debug/vector_add.py":30:0), %arg2: !tt.ptr<f32> {tt.divisibility = 16 : i32} loc("/mnt/home/douliyang/triton-workspace/triton-tutorial/tutorial/Triton-101/Debug/vector_add.py":30:0), %arg3: i32 {tt.divisibility = 16 : i32} loc("/mnt/home/douliyang/triton-workspace/triton-tutorial/tutorial/Triton-101/Debug/vector_add.py":30:0)) attributes {noinline = false} {
    %c1024_i32 = arith.constant 1024 : i32 loc(#loc1)
    %0 = tt.get_program_id x : i32 loc(#loc2)
    %1 = arith.muli %0, %c1024_i32 : i32 loc(#loc3)
    %2 = tt.make_range {end = 1024 : i32, start = 0 : i32} : tensor<1024xi32, #blocked> loc(#loc4)
    %3 = tt.splat %1 : i32 -> tensor<1024xi32, #blocked> loc(#loc5)
    %4 = arith.addi %3, %2 : tensor<1024xi32, #blocked> loc(#loc5)
    %5 = tt.splat %arg3 : i32 -> tensor<1024xi32, #blocked> loc(#loc6)
    %6 = arith.cmpi slt, %4, %5 : tensor<1024xi32, #blocked> loc(#loc6)
    %7 = tt.splat %arg0 : !tt.ptr<f32> -> tensor<1024x!tt.ptr<f32>, #blocked> loc(#loc7)
    %8 = tt.addptr %7, %4 : tensor<1024x!tt.ptr<f32>, #blocked>, tensor<1024xi32, #blocked> loc(#loc7)
    %9 = tt.load %8, %6 : tensor<1024x!tt.ptr<f32>, #blocked> loc(#loc8)
    %10 = tt.splat %arg1 : !tt.ptr<f32> -> tensor<1024x!tt.ptr<f32>, #blocked> loc(#loc9)
    %11 = tt.addptr %10, %4 : tensor<1024x!tt.ptr<f32>, #blocked>, tensor<1024xi32, #blocked> loc(#loc9)
    %12 = tt.load %11, %6 : tensor<1024x!tt.ptr<f32>, #blocked> loc(#loc10)
    %13 = arith.addf %9, %12 : tensor<1024xf32, #blocked> loc(#loc11)
    %14 = tt.splat %arg2 : !tt.ptr<f32> -> tensor<1024x!tt.ptr<f32>, #blocked> loc(#loc12)
    %15 = tt.addptr %14, %4 : tensor<1024x!tt.ptr<f32>, #blocked>, tensor<1024xi32, #blocked> loc(#loc12)
    tt.store %15, %13, %6 : tensor<1024x!tt.ptr<f32>, #blocked> loc(#loc13)
    tt.return loc(#loc14)
  } loc(#loc)
} loc(#loc)
#loc1 = loc(unknown)
#loc2 = loc("/mnt/home/douliyang/triton-workspace/triton-tutorial/tutorial/Triton-101/Debug/vector_add.py":39:24)
#loc3 = loc("/mnt/home/douliyang/triton-workspace/triton-tutorial/tutorial/Triton-101/Debug/vector_add.py":52:24)
#loc4 = loc("/mnt/home/douliyang/triton-workspace/triton-tutorial/tutorial/Triton-101/Debug/vector_add.py":53:41)
#loc5 = loc("/mnt/home/douliyang/triton-workspace/triton-tutorial/tutorial/Triton-101/Debug/vector_add.py":53:28)
#loc6 = loc("/mnt/home/douliyang/triton-workspace/triton-tutorial/tutorial/Triton-101/Debug/vector_add.py":55:21)
#loc7 = loc("/mnt/home/douliyang/triton-workspace/triton-tutorial/tutorial/Triton-101/Debug/vector_add.py":58:24)
#loc8 = loc("/mnt/home/douliyang/triton-workspace/triton-tutorial/tutorial/Triton-101/Debug/vector_add.py":58:16)
#loc9 = loc("/mnt/home/douliyang/triton-workspace/triton-tutorial/tutorial/Triton-101/Debug/vector_add.py":59:24)
#loc10 = loc("/mnt/home/douliyang/triton-workspace/triton-tutorial/tutorial/Triton-101/Debug/vector_add.py":59:16)
#loc11 = loc("/mnt/home/douliyang/triton-workspace/triton-tutorial/tutorial/Triton-101/Debug/vector_add.py":60:17)
#loc12 = loc("/mnt/home/douliyang/triton-workspace/triton-tutorial/tutorial/Triton-101/Debug/vector_add.py":62:26)
#loc13 = loc("/mnt/home/douliyang/triton-workspace/triton-tutorial/tutorial/Triton-101/Debug/vector_add.py":62:35)
#loc14 = loc("/mnt/home/douliyang/triton-workspace/triton-tutorial/tutorial/Triton-101/Debug/vector_add.py":62:4)


// -----// IR Dump Before TritonNvidiaGPUOptimizeDescriptorEncodingPass (triton-nvidia-optimize-descriptor-encoding) ('builtin.module' operation) //----- //
#blocked = #ttg.blocked<{sizePerThread = [4], threadsPerWarp = [32], warpsPerCTA = [4], order = [0]}>
#loc = loc("/mnt/home/douliyang/triton-workspace/triton-tutorial/tutorial/Triton-101/Debug/vector_add.py":30:0)
module attributes {"ttg.num-ctas" = 1 : i32, "ttg.num-warps" = 4 : i32, ttg.target = "cuda:86", "ttg.threads-per-warp" = 32 : i32} {
  tt.func public @add_kernel(%arg0: !tt.ptr<f32> {tt.divisibility = 16 : i32} loc("/mnt/home/douliyang/triton-workspace/triton-tutorial/tutorial/Triton-101/Debug/vector_add.py":30:0), %arg1: !tt.ptr<f32> {tt.divisibility = 16 : i32} loc("/mnt/home/douliyang/triton-workspace/triton-tutorial/tutorial/Triton-101/Debug/vector_add.py":30:0), %arg2: !tt.ptr<f32> {tt.divisibility = 16 : i32} loc("/mnt/home/douliyang/triton-workspace/triton-tutorial/tutorial/Triton-101/Debug/vector_add.py":30:0), %arg3: i32 {tt.divisibility = 16 : i32} loc("/mnt/home/douliyang/triton-workspace/triton-tutorial/tutorial/Triton-101/Debug/vector_add.py":30:0)) attributes {noinline = false} {
    %c1024_i32 = arith.constant 1024 : i32 loc(#loc1)
    %0 = tt.get_program_id x : i32 loc(#loc2)
    %1 = arith.muli %0, %c1024_i32 : i32 loc(#loc3)
    %2 = tt.make_range {end = 1024 : i32, start = 0 : i32} : tensor<1024xi32, #blocked> loc(#loc4)
    %3 = tt.splat %1 : i32 -> tensor<1024xi32, #blocked> loc(#loc5)
    %4 = arith.addi %3, %2 : tensor<1024xi32, #blocked> loc(#loc5)
    %5 = tt.splat %arg3 : i32 -> tensor<1024xi32, #blocked> loc(#loc6)
    %6 = arith.cmpi slt, %4, %5 : tensor<1024xi32, #blocked> loc(#loc6)
    %7 = tt.splat %arg0 : !tt.ptr<f32> -> tensor<1024x!tt.ptr<f32>, #blocked> loc(#loc7)
    %8 = tt.addptr %7, %4 : tensor<1024x!tt.ptr<f32>, #blocked>, tensor<1024xi32, #blocked> loc(#loc7)
    %9 = tt.load %8, %6 : tensor<1024x!tt.ptr<f32>, #blocked> loc(#loc8)
    %10 = tt.splat %arg1 : !tt.ptr<f32> -> tensor<1024x!tt.ptr<f32>, #blocked> loc(#loc9)
    %11 = tt.addptr %10, %4 : tensor<1024x!tt.ptr<f32>, #blocked>, tensor<1024xi32, #blocked> loc(#loc9)
    %12 = tt.load %11, %6 : tensor<1024x!tt.ptr<f32>, #blocked> loc(#loc10)
    %13 = arith.addf %9, %12 : tensor<1024xf32, #blocked> loc(#loc11)
    %14 = tt.splat %arg2 : !tt.ptr<f32> -> tensor<1024x!tt.ptr<f32>, #blocked> loc(#loc12)
    %15 = tt.addptr %14, %4 : tensor<1024x!tt.ptr<f32>, #blocked>, tensor<1024xi32, #blocked> loc(#loc12)
    tt.store %15, %13, %6 : tensor<1024x!tt.ptr<f32>, #blocked> loc(#loc13)
    tt.return loc(#loc14)
  } loc(#loc)
} loc(#loc)
#loc1 = loc(unknown)
#loc2 = loc("/mnt/home/douliyang/triton-workspace/triton-tutorial/tutorial/Triton-101/Debug/vector_add.py":39:24)
#loc3 = loc("/mnt/home/douliyang/triton-workspace/triton-tutorial/tutorial/Triton-101/Debug/vector_add.py":52:24)
#loc4 = loc("/mnt/home/douliyang/triton-workspace/triton-tutorial/tutorial/Triton-101/Debug/vector_add.py":53:41)
#loc5 = loc("/mnt/home/douliyang/triton-workspace/triton-tutorial/tutorial/Triton-101/Debug/vector_add.py":53:28)
#loc6 = loc("/mnt/home/douliyang/triton-workspace/triton-tutorial/tutorial/Triton-101/Debug/vector_add.py":55:21)
#loc7 = loc("/mnt/home/douliyang/triton-workspace/triton-tutorial/tutorial/Triton-101/Debug/vector_add.py":58:24)
#loc8 = loc("/mnt/home/douliyang/triton-workspace/triton-tutorial/tutorial/Triton-101/Debug/vector_add.py":58:16)
#loc9 = loc("/mnt/home/douliyang/triton-workspace/triton-tutorial/tutorial/Triton-101/Debug/vector_add.py":59:24)
#loc10 = loc("/mnt/home/douliyang/triton-workspace/triton-tutorial/tutorial/Triton-101/Debug/vector_add.py":59:16)
#loc11 = loc("/mnt/home/douliyang/triton-workspace/triton-tutorial/tutorial/Triton-101/Debug/vector_add.py":60:17)
#loc12 = loc("/mnt/home/douliyang/triton-workspace/triton-tutorial/tutorial/Triton-101/Debug/vector_add.py":62:26)
#loc13 = loc("/mnt/home/douliyang/triton-workspace/triton-tutorial/tutorial/Triton-101/Debug/vector_add.py":62:35)
#loc14 = loc("/mnt/home/douliyang/triton-workspace/triton-tutorial/tutorial/Triton-101/Debug/vector_add.py":62:4)


// -----// IR Dump Before TritonLoopAwareCSE (triton-loop-aware-cse) ('builtin.module' operation) //----- //
#blocked = #ttg.blocked<{sizePerThread = [4], threadsPerWarp = [32], warpsPerCTA = [4], order = [0]}>
#loc = loc("/mnt/home/douliyang/triton-workspace/triton-tutorial/tutorial/Triton-101/Debug/vector_add.py":30:0)
module attributes {"ttg.num-ctas" = 1 : i32, "ttg.num-warps" = 4 : i32, ttg.target = "cuda:86", "ttg.threads-per-warp" = 32 : i32} {
  tt.func public @add_kernel(%arg0: !tt.ptr<f32> {tt.divisibility = 16 : i32} loc("/mnt/home/douliyang/triton-workspace/triton-tutorial/tutorial/Triton-101/Debug/vector_add.py":30:0), %arg1: !tt.ptr<f32> {tt.divisibility = 16 : i32} loc("/mnt/home/douliyang/triton-workspace/triton-tutorial/tutorial/Triton-101/Debug/vector_add.py":30:0), %arg2: !tt.ptr<f32> {tt.divisibility = 16 : i32} loc("/mnt/home/douliyang/triton-workspace/triton-tutorial/tutorial/Triton-101/Debug/vector_add.py":30:0), %arg3: i32 {tt.divisibility = 16 : i32} loc("/mnt/home/douliyang/triton-workspace/triton-tutorial/tutorial/Triton-101/Debug/vector_add.py":30:0)) attributes {noinline = false} {
    %c1024_i32 = arith.constant 1024 : i32 loc(#loc1)
    %0 = tt.get_program_id x : i32 loc(#loc2)
    %1 = arith.muli %0, %c1024_i32 : i32 loc(#loc3)
    %2 = tt.make_range {end = 1024 : i32, start = 0 : i32} : tensor<1024xi32, #blocked> loc(#loc4)
    %3 = tt.splat %1 : i32 -> tensor<1024xi32, #blocked> loc(#loc5)
    %4 = arith.addi %3, %2 : tensor<1024xi32, #blocked> loc(#loc5)
    %5 = tt.splat %arg3 : i32 -> tensor<1024xi32, #blocked> loc(#loc6)
    %6 = arith.cmpi slt, %4, %5 : tensor<1024xi32, #blocked> loc(#loc6)
    %7 = tt.splat %arg0 : !tt.ptr<f32> -> tensor<1024x!tt.ptr<f32>, #blocked> loc(#loc7)
    %8 = tt.addptr %7, %4 : tensor<1024x!tt.ptr<f32>, #blocked>, tensor<1024xi32, #blocked> loc(#loc7)
    %9 = tt.load %8, %6 : tensor<1024x!tt.ptr<f32>, #blocked> loc(#loc8)
    %10 = tt.splat %arg1 : !tt.ptr<f32> -> tensor<1024x!tt.ptr<f32>, #blocked> loc(#loc9)
    %11 = tt.addptr %10, %4 : tensor<1024x!tt.ptr<f32>, #blocked>, tensor<1024xi32, #blocked> loc(#loc9)
    %12 = tt.load %11, %6 : tensor<1024x!tt.ptr<f32>, #blocked> loc(#loc10)
    %13 = arith.addf %9, %12 : tensor<1024xf32, #blocked> loc(#loc11)
    %14 = tt.splat %arg2 : !tt.ptr<f32> -> tensor<1024x!tt.ptr<f32>, #blocked> loc(#loc12)
    %15 = tt.addptr %14, %4 : tensor<1024x!tt.ptr<f32>, #blocked>, tensor<1024xi32, #blocked> loc(#loc12)
    tt.store %15, %13, %6 : tensor<1024x!tt.ptr<f32>, #blocked> loc(#loc13)
    tt.return loc(#loc14)
  } loc(#loc)
} loc(#loc)
#loc1 = loc(unknown)
#loc2 = loc("/mnt/home/douliyang/triton-workspace/triton-tutorial/tutorial/Triton-101/Debug/vector_add.py":39:24)
#loc3 = loc("/mnt/home/douliyang/triton-workspace/triton-tutorial/tutorial/Triton-101/Debug/vector_add.py":52:24)
#loc4 = loc("/mnt/home/douliyang/triton-workspace/triton-tutorial/tutorial/Triton-101/Debug/vector_add.py":53:41)
#loc5 = loc("/mnt/home/douliyang/triton-workspace/triton-tutorial/tutorial/Triton-101/Debug/vector_add.py":53:28)
#loc6 = loc("/mnt/home/douliyang/triton-workspace/triton-tutorial/tutorial/Triton-101/Debug/vector_add.py":55:21)
#loc7 = loc("/mnt/home/douliyang/triton-workspace/triton-tutorial/tutorial/Triton-101/Debug/vector_add.py":58:24)
#loc8 = loc("/mnt/home/douliyang/triton-workspace/triton-tutorial/tutorial/Triton-101/Debug/vector_add.py":58:16)
#loc9 = loc("/mnt/home/douliyang/triton-workspace/triton-tutorial/tutorial/Triton-101/Debug/vector_add.py":59:24)
#loc10 = loc("/mnt/home/douliyang/triton-workspace/triton-tutorial/tutorial/Triton-101/Debug/vector_add.py":59:16)
#loc11 = loc("/mnt/home/douliyang/triton-workspace/triton-tutorial/tutorial/Triton-101/Debug/vector_add.py":60:17)
#loc12 = loc("/mnt/home/douliyang/triton-workspace/triton-tutorial/tutorial/Triton-101/Debug/vector_add.py":62:26)
#loc13 = loc("/mnt/home/douliyang/triton-workspace/triton-tutorial/tutorial/Triton-101/Debug/vector_add.py":62:35)
#loc14 = loc("/mnt/home/douliyang/triton-workspace/triton-tutorial/tutorial/Triton-101/Debug/vector_add.py":62:4)


// -----// IR Dump Before TritonGPUFuseNestedLoops (tritongpu-fuse-nested-loops) ('builtin.module' operation) //----- //
#blocked = #ttg.blocked<{sizePerThread = [4], threadsPerWarp = [32], warpsPerCTA = [4], order = [0]}>
#loc = loc("/mnt/home/douliyang/triton-workspace/triton-tutorial/tutorial/Triton-101/Debug/vector_add.py":30:0)
module attributes {"ttg.num-ctas" = 1 : i32, "ttg.num-warps" = 4 : i32, ttg.target = "cuda:86", "ttg.threads-per-warp" = 32 : i32} {
  tt.func public @add_kernel(%arg0: !tt.ptr<f32> {tt.divisibility = 16 : i32} loc("/mnt/home/douliyang/triton-workspace/triton-tutorial/tutorial/Triton-101/Debug/vector_add.py":30:0), %arg1: !tt.ptr<f32> {tt.divisibility = 16 : i32} loc("/mnt/home/douliyang/triton-workspace/triton-tutorial/tutorial/Triton-101/Debug/vector_add.py":30:0), %arg2: !tt.ptr<f32> {tt.divisibility = 16 : i32} loc("/mnt/home/douliyang/triton-workspace/triton-tutorial/tutorial/Triton-101/Debug/vector_add.py":30:0), %arg3: i32 {tt.divisibility = 16 : i32} loc("/mnt/home/douliyang/triton-workspace/triton-tutorial/tutorial/Triton-101/Debug/vector_add.py":30:0)) attributes {noinline = false} {
    %c1024_i32 = arith.constant 1024 : i32 loc(#loc1)
    %0 = tt.get_program_id x : i32 loc(#loc2)
    %1 = arith.muli %0, %c1024_i32 : i32 loc(#loc3)
    %2 = tt.make_range {end = 1024 : i32, start = 0 : i32} : tensor<1024xi32, #blocked> loc(#loc4)
    %3 = tt.splat %1 : i32 -> tensor<1024xi32, #blocked> loc(#loc5)
    %4 = arith.addi %3, %2 : tensor<1024xi32, #blocked> loc(#loc5)
    %5 = tt.splat %arg3 : i32 -> tensor<1024xi32, #blocked> loc(#loc6)
    %6 = arith.cmpi slt, %4, %5 : tensor<1024xi32, #blocked> loc(#loc6)
    %7 = tt.splat %arg0 : !tt.ptr<f32> -> tensor<1024x!tt.ptr<f32>, #blocked> loc(#loc7)
    %8 = tt.addptr %7, %4 : tensor<1024x!tt.ptr<f32>, #blocked>, tensor<1024xi32, #blocked> loc(#loc7)
    %9 = tt.load %8, %6 : tensor<1024x!tt.ptr<f32>, #blocked> loc(#loc8)
    %10 = tt.splat %arg1 : !tt.ptr<f32> -> tensor<1024x!tt.ptr<f32>, #blocked> loc(#loc9)
    %11 = tt.addptr %10, %4 : tensor<1024x!tt.ptr<f32>, #blocked>, tensor<1024xi32, #blocked> loc(#loc9)
    %12 = tt.load %11, %6 : tensor<1024x!tt.ptr<f32>, #blocked> loc(#loc10)
    %13 = arith.addf %9, %12 : tensor<1024xf32, #blocked> loc(#loc11)
    %14 = tt.splat %arg2 : !tt.ptr<f32> -> tensor<1024x!tt.ptr<f32>, #blocked> loc(#loc12)
    %15 = tt.addptr %14, %4 : tensor<1024x!tt.ptr<f32>, #blocked>, tensor<1024xi32, #blocked> loc(#loc12)
    tt.store %15, %13, %6 : tensor<1024x!tt.ptr<f32>, #blocked> loc(#loc13)
    tt.return loc(#loc14)
  } loc(#loc)
} loc(#loc)
#loc1 = loc(unknown)
#loc2 = loc("/mnt/home/douliyang/triton-workspace/triton-tutorial/tutorial/Triton-101/Debug/vector_add.py":39:24)
#loc3 = loc("/mnt/home/douliyang/triton-workspace/triton-tutorial/tutorial/Triton-101/Debug/vector_add.py":52:24)
#loc4 = loc("/mnt/home/douliyang/triton-workspace/triton-tutorial/tutorial/Triton-101/Debug/vector_add.py":53:41)
#loc5 = loc("/mnt/home/douliyang/triton-workspace/triton-tutorial/tutorial/Triton-101/Debug/vector_add.py":53:28)
#loc6 = loc("/mnt/home/douliyang/triton-workspace/triton-tutorial/tutorial/Triton-101/Debug/vector_add.py":55:21)
#loc7 = loc("/mnt/home/douliyang/triton-workspace/triton-tutorial/tutorial/Triton-101/Debug/vector_add.py":58:24)
#loc8 = loc("/mnt/home/douliyang/triton-workspace/triton-tutorial/tutorial/Triton-101/Debug/vector_add.py":58:16)
#loc9 = loc("/mnt/home/douliyang/triton-workspace/triton-tutorial/tutorial/Triton-101/Debug/vector_add.py":59:24)
#loc10 = loc("/mnt/home/douliyang/triton-workspace/triton-tutorial/tutorial/Triton-101/Debug/vector_add.py":59:16)
#loc11 = loc("/mnt/home/douliyang/triton-workspace/triton-tutorial/tutorial/Triton-101/Debug/vector_add.py":60:17)
#loc12 = loc("/mnt/home/douliyang/triton-workspace/triton-tutorial/tutorial/Triton-101/Debug/vector_add.py":62:26)
#loc13 = loc("/mnt/home/douliyang/triton-workspace/triton-tutorial/tutorial/Triton-101/Debug/vector_add.py":62:35)
#loc14 = loc("/mnt/home/douliyang/triton-workspace/triton-tutorial/tutorial/Triton-101/Debug/vector_add.py":62:4)


// -----// IR Dump Before Canonicalizer (canonicalize) ('builtin.module' operation) //----- //
#blocked = #ttg.blocked<{sizePerThread = [4], threadsPerWarp = [32], warpsPerCTA = [4], order = [0]}>
#loc = loc("/mnt/home/douliyang/triton-workspace/triton-tutorial/tutorial/Triton-101/Debug/vector_add.py":30:0)
module attributes {"ttg.num-ctas" = 1 : i32, "ttg.num-warps" = 4 : i32, ttg.target = "cuda:86", "ttg.threads-per-warp" = 32 : i32} {
  tt.func public @add_kernel(%arg0: !tt.ptr<f32> {tt.divisibility = 16 : i32} loc("/mnt/home/douliyang/triton-workspace/triton-tutorial/tutorial/Triton-101/Debug/vector_add.py":30:0), %arg1: !tt.ptr<f32> {tt.divisibility = 16 : i32} loc("/mnt/home/douliyang/triton-workspace/triton-tutorial/tutorial/Triton-101/Debug/vector_add.py":30:0), %arg2: !tt.ptr<f32> {tt.divisibility = 16 : i32} loc("/mnt/home/douliyang/triton-workspace/triton-tutorial/tutorial/Triton-101/Debug/vector_add.py":30:0), %arg3: i32 {tt.divisibility = 16 : i32} loc("/mnt/home/douliyang/triton-workspace/triton-tutorial/tutorial/Triton-101/Debug/vector_add.py":30:0)) attributes {noinline = false} {
    %c1024_i32 = arith.constant 1024 : i32 loc(#loc1)
    %0 = tt.get_program_id x : i32 loc(#loc2)
    %1 = arith.muli %0, %c1024_i32 : i32 loc(#loc3)
    %2 = tt.make_range {end = 1024 : i32, start = 0 : i32} : tensor<1024xi32, #blocked> loc(#loc4)
    %3 = tt.splat %1 : i32 -> tensor<1024xi32, #blocked> loc(#loc5)
    %4 = arith.addi %3, %2 : tensor<1024xi32, #blocked> loc(#loc5)
    %5 = tt.splat %arg3 : i32 -> tensor<1024xi32, #blocked> loc(#loc6)
    %6 = arith.cmpi slt, %4, %5 : tensor<1024xi32, #blocked> loc(#loc6)
    %7 = tt.splat %arg0 : !tt.ptr<f32> -> tensor<1024x!tt.ptr<f32>, #blocked> loc(#loc7)
    %8 = tt.addptr %7, %4 : tensor<1024x!tt.ptr<f32>, #blocked>, tensor<1024xi32, #blocked> loc(#loc7)
    %9 = tt.load %8, %6 : tensor<1024x!tt.ptr<f32>, #blocked> loc(#loc8)
    %10 = tt.splat %arg1 : !tt.ptr<f32> -> tensor<1024x!tt.ptr<f32>, #blocked> loc(#loc9)
    %11 = tt.addptr %10, %4 : tensor<1024x!tt.ptr<f32>, #blocked>, tensor<1024xi32, #blocked> loc(#loc9)
    %12 = tt.load %11, %6 : tensor<1024x!tt.ptr<f32>, #blocked> loc(#loc10)
    %13 = arith.addf %9, %12 : tensor<1024xf32, #blocked> loc(#loc11)
    %14 = tt.splat %arg2 : !tt.ptr<f32> -> tensor<1024x!tt.ptr<f32>, #blocked> loc(#loc12)
    %15 = tt.addptr %14, %4 : tensor<1024x!tt.ptr<f32>, #blocked>, tensor<1024xi32, #blocked> loc(#loc12)
    tt.store %15, %13, %6 : tensor<1024x!tt.ptr<f32>, #blocked> loc(#loc13)
    tt.return loc(#loc14)
  } loc(#loc)
} loc(#loc)
#loc1 = loc(unknown)
#loc2 = loc("/mnt/home/douliyang/triton-workspace/triton-tutorial/tutorial/Triton-101/Debug/vector_add.py":39:24)
#loc3 = loc("/mnt/home/douliyang/triton-workspace/triton-tutorial/tutorial/Triton-101/Debug/vector_add.py":52:24)
#loc4 = loc("/mnt/home/douliyang/triton-workspace/triton-tutorial/tutorial/Triton-101/Debug/vector_add.py":53:41)
#loc5 = loc("/mnt/home/douliyang/triton-workspace/triton-tutorial/tutorial/Triton-101/Debug/vector_add.py":53:28)
#loc6 = loc("/mnt/home/douliyang/triton-workspace/triton-tutorial/tutorial/Triton-101/Debug/vector_add.py":55:21)
#loc7 = loc("/mnt/home/douliyang/triton-workspace/triton-tutorial/tutorial/Triton-101/Debug/vector_add.py":58:24)
#loc8 = loc("/mnt/home/douliyang/triton-workspace/triton-tutorial/tutorial/Triton-101/Debug/vector_add.py":58:16)
#loc9 = loc("/mnt/home/douliyang/triton-workspace/triton-tutorial/tutorial/Triton-101/Debug/vector_add.py":59:24)
#loc10 = loc("/mnt/home/douliyang/triton-workspace/triton-tutorial/tutorial/Triton-101/Debug/vector_add.py":59:16)
#loc11 = loc("/mnt/home/douliyang/triton-workspace/triton-tutorial/tutorial/Triton-101/Debug/vector_add.py":60:17)
#loc12 = loc("/mnt/home/douliyang/triton-workspace/triton-tutorial/tutorial/Triton-101/Debug/vector_add.py":62:26)
#loc13 = loc("/mnt/home/douliyang/triton-workspace/triton-tutorial/tutorial/Triton-101/Debug/vector_add.py":62:35)
#loc14 = loc("/mnt/home/douliyang/triton-workspace/triton-tutorial/tutorial/Triton-101/Debug/vector_add.py":62:4)


// -----// IR Dump Before TritonLoopInvariantCodeMotion (triton-licm) ('builtin.module' operation) //----- //
#blocked = #ttg.blocked<{sizePerThread = [4], threadsPerWarp = [32], warpsPerCTA = [4], order = [0]}>
#loc = loc("/mnt/home/douliyang/triton-workspace/triton-tutorial/tutorial/Triton-101/Debug/vector_add.py":30:0)
module attributes {"ttg.num-ctas" = 1 : i32, "ttg.num-warps" = 4 : i32, ttg.target = "cuda:86", "ttg.threads-per-warp" = 32 : i32} {
  tt.func public @add_kernel(%arg0: !tt.ptr<f32> {tt.divisibility = 16 : i32} loc("/mnt/home/douliyang/triton-workspace/triton-tutorial/tutorial/Triton-101/Debug/vector_add.py":30:0), %arg1: !tt.ptr<f32> {tt.divisibility = 16 : i32} loc("/mnt/home/douliyang/triton-workspace/triton-tutorial/tutorial/Triton-101/Debug/vector_add.py":30:0), %arg2: !tt.ptr<f32> {tt.divisibility = 16 : i32} loc("/mnt/home/douliyang/triton-workspace/triton-tutorial/tutorial/Triton-101/Debug/vector_add.py":30:0), %arg3: i32 {tt.divisibility = 16 : i32} loc("/mnt/home/douliyang/triton-workspace/triton-tutorial/tutorial/Triton-101/Debug/vector_add.py":30:0)) attributes {noinline = false} {
    %c1024_i32 = arith.constant 1024 : i32 loc(#loc1)
    %0 = tt.get_program_id x : i32 loc(#loc2)
    %1 = arith.muli %0, %c1024_i32 : i32 loc(#loc3)
    %2 = tt.make_range {end = 1024 : i32, start = 0 : i32} : tensor<1024xi32, #blocked> loc(#loc4)
    %3 = tt.splat %1 : i32 -> tensor<1024xi32, #blocked> loc(#loc5)
    %4 = arith.addi %3, %2 : tensor<1024xi32, #blocked> loc(#loc5)
    %5 = tt.splat %arg3 : i32 -> tensor<1024xi32, #blocked> loc(#loc6)
    %6 = arith.cmpi slt, %4, %5 : tensor<1024xi32, #blocked> loc(#loc6)
    %7 = tt.splat %arg0 : !tt.ptr<f32> -> tensor<1024x!tt.ptr<f32>, #blocked> loc(#loc7)
    %8 = tt.addptr %7, %4 : tensor<1024x!tt.ptr<f32>, #blocked>, tensor<1024xi32, #blocked> loc(#loc7)
    %9 = tt.load %8, %6 : tensor<1024x!tt.ptr<f32>, #blocked> loc(#loc8)
    %10 = tt.splat %arg1 : !tt.ptr<f32> -> tensor<1024x!tt.ptr<f32>, #blocked> loc(#loc9)
    %11 = tt.addptr %10, %4 : tensor<1024x!tt.ptr<f32>, #blocked>, tensor<1024xi32, #blocked> loc(#loc9)
    %12 = tt.load %11, %6 : tensor<1024x!tt.ptr<f32>, #blocked> loc(#loc10)
    %13 = arith.addf %9, %12 : tensor<1024xf32, #blocked> loc(#loc11)
    %14 = tt.splat %arg2 : !tt.ptr<f32> -> tensor<1024x!tt.ptr<f32>, #blocked> loc(#loc12)
    %15 = tt.addptr %14, %4 : tensor<1024x!tt.ptr<f32>, #blocked>, tensor<1024xi32, #blocked> loc(#loc12)
    tt.store %15, %13, %6 : tensor<1024x!tt.ptr<f32>, #blocked> loc(#loc13)
    tt.return loc(#loc14)
  } loc(#loc)
} loc(#loc)
#loc1 = loc(unknown)
#loc2 = loc("/mnt/home/douliyang/triton-workspace/triton-tutorial/tutorial/Triton-101/Debug/vector_add.py":39:24)
#loc3 = loc("/mnt/home/douliyang/triton-workspace/triton-tutorial/tutorial/Triton-101/Debug/vector_add.py":52:24)
#loc4 = loc("/mnt/home/douliyang/triton-workspace/triton-tutorial/tutorial/Triton-101/Debug/vector_add.py":53:41)
#loc5 = loc("/mnt/home/douliyang/triton-workspace/triton-tutorial/tutorial/Triton-101/Debug/vector_add.py":53:28)
#loc6 = loc("/mnt/home/douliyang/triton-workspace/triton-tutorial/tutorial/Triton-101/Debug/vector_add.py":55:21)
#loc7 = loc("/mnt/home/douliyang/triton-workspace/triton-tutorial/tutorial/Triton-101/Debug/vector_add.py":58:24)
#loc8 = loc("/mnt/home/douliyang/triton-workspace/triton-tutorial/tutorial/Triton-101/Debug/vector_add.py":58:16)
#loc9 = loc("/mnt/home/douliyang/triton-workspace/triton-tutorial/tutorial/Triton-101/Debug/vector_add.py":59:24)
#loc10 = loc("/mnt/home/douliyang/triton-workspace/triton-tutorial/tutorial/Triton-101/Debug/vector_add.py":59:16)
#loc11 = loc("/mnt/home/douliyang/triton-workspace/triton-tutorial/tutorial/Triton-101/Debug/vector_add.py":60:17)
#loc12 = loc("/mnt/home/douliyang/triton-workspace/triton-tutorial/tutorial/Triton-101/Debug/vector_add.py":62:26)
#loc13 = loc("/mnt/home/douliyang/triton-workspace/triton-tutorial/tutorial/Triton-101/Debug/vector_add.py":62:35)
#loc14 = loc("/mnt/home/douliyang/triton-workspace/triton-tutorial/tutorial/Triton-101/Debug/vector_add.py":62:4)


// -----// IR Dump Before Canonicalizer (canonicalize) ('builtin.module' operation) //----- //
#blocked = #ttg.blocked<{sizePerThread = [4], threadsPerWarp = [32], warpsPerCTA = [4], order = [0]}>
#loc = loc("/mnt/home/douliyang/triton-workspace/triton-tutorial/tutorial/Triton-101/Debug/vector_add.py":30:0)
module attributes {"ttg.num-ctas" = 1 : i32, "ttg.num-warps" = 4 : i32, ttg.target = "cuda:86", "ttg.threads-per-warp" = 32 : i32} {
  tt.func public @add_kernel(%arg0: !tt.ptr<f32> {tt.divisibility = 16 : i32} loc("/mnt/home/douliyang/triton-workspace/triton-tutorial/tutorial/Triton-101/Debug/vector_add.py":30:0), %arg1: !tt.ptr<f32> {tt.divisibility = 16 : i32} loc("/mnt/home/douliyang/triton-workspace/triton-tutorial/tutorial/Triton-101/Debug/vector_add.py":30:0), %arg2: !tt.ptr<f32> {tt.divisibility = 16 : i32} loc("/mnt/home/douliyang/triton-workspace/triton-tutorial/tutorial/Triton-101/Debug/vector_add.py":30:0), %arg3: i32 {tt.divisibility = 16 : i32} loc("/mnt/home/douliyang/triton-workspace/triton-tutorial/tutorial/Triton-101/Debug/vector_add.py":30:0)) attributes {noinline = false} {
    %c1024_i32 = arith.constant 1024 : i32 loc(#loc1)
    %0 = tt.get_program_id x : i32 loc(#loc2)
    %1 = arith.muli %0, %c1024_i32 : i32 loc(#loc3)
    %2 = tt.make_range {end = 1024 : i32, start = 0 : i32} : tensor<1024xi32, #blocked> loc(#loc4)
    %3 = tt.splat %1 : i32 -> tensor<1024xi32, #blocked> loc(#loc5)
    %4 = arith.addi %3, %2 : tensor<1024xi32, #blocked> loc(#loc5)
    %5 = tt.splat %arg3 : i32 -> tensor<1024xi32, #blocked> loc(#loc6)
    %6 = arith.cmpi slt, %4, %5 : tensor<1024xi32, #blocked> loc(#loc6)
    %7 = tt.splat %arg0 : !tt.ptr<f32> -> tensor<1024x!tt.ptr<f32>, #blocked> loc(#loc7)
    %8 = tt.addptr %7, %4 : tensor<1024x!tt.ptr<f32>, #blocked>, tensor<1024xi32, #blocked> loc(#loc7)
    %9 = tt.load %8, %6 : tensor<1024x!tt.ptr<f32>, #blocked> loc(#loc8)
    %10 = tt.splat %arg1 : !tt.ptr<f32> -> tensor<1024x!tt.ptr<f32>, #blocked> loc(#loc9)
    %11 = tt.addptr %10, %4 : tensor<1024x!tt.ptr<f32>, #blocked>, tensor<1024xi32, #blocked> loc(#loc9)
    %12 = tt.load %11, %6 : tensor<1024x!tt.ptr<f32>, #blocked> loc(#loc10)
    %13 = arith.addf %9, %12 : tensor<1024xf32, #blocked> loc(#loc11)
    %14 = tt.splat %arg2 : !tt.ptr<f32> -> tensor<1024x!tt.ptr<f32>, #blocked> loc(#loc12)
    %15 = tt.addptr %14, %4 : tensor<1024x!tt.ptr<f32>, #blocked>, tensor<1024xi32, #blocked> loc(#loc12)
    tt.store %15, %13, %6 : tensor<1024x!tt.ptr<f32>, #blocked> loc(#loc13)
    tt.return loc(#loc14)
  } loc(#loc)
} loc(#loc)
#loc1 = loc(unknown)
#loc2 = loc("/mnt/home/douliyang/triton-workspace/triton-tutorial/tutorial/Triton-101/Debug/vector_add.py":39:24)
#loc3 = loc("/mnt/home/douliyang/triton-workspace/triton-tutorial/tutorial/Triton-101/Debug/vector_add.py":52:24)
#loc4 = loc("/mnt/home/douliyang/triton-workspace/triton-tutorial/tutorial/Triton-101/Debug/vector_add.py":53:41)
#loc5 = loc("/mnt/home/douliyang/triton-workspace/triton-tutorial/tutorial/Triton-101/Debug/vector_add.py":53:28)
#loc6 = loc("/mnt/home/douliyang/triton-workspace/triton-tutorial/tutorial/Triton-101/Debug/vector_add.py":55:21)
#loc7 = loc("/mnt/home/douliyang/triton-workspace/triton-tutorial/tutorial/Triton-101/Debug/vector_add.py":58:24)
#loc8 = loc("/mnt/home/douliyang/triton-workspace/triton-tutorial/tutorial/Triton-101/Debug/vector_add.py":58:16)
#loc9 = loc("/mnt/home/douliyang/triton-workspace/triton-tutorial/tutorial/Triton-101/Debug/vector_add.py":59:24)
#loc10 = loc("/mnt/home/douliyang/triton-workspace/triton-tutorial/tutorial/Triton-101/Debug/vector_add.py":59:16)
#loc11 = loc("/mnt/home/douliyang/triton-workspace/triton-tutorial/tutorial/Triton-101/Debug/vector_add.py":60:17)
#loc12 = loc("/mnt/home/douliyang/triton-workspace/triton-tutorial/tutorial/Triton-101/Debug/vector_add.py":62:26)
#loc13 = loc("/mnt/home/douliyang/triton-workspace/triton-tutorial/tutorial/Triton-101/Debug/vector_add.py":62:35)
#loc14 = loc("/mnt/home/douliyang/triton-workspace/triton-tutorial/tutorial/Triton-101/Debug/vector_add.py":62:4)


// -----// IR Dump Before TritonGPUCombineTensorSelectAndIf (tritongpu-combine-tensor-select-and-if) ('builtin.module' operation) //----- //
#blocked = #ttg.blocked<{sizePerThread = [4], threadsPerWarp = [32], warpsPerCTA = [4], order = [0]}>
#loc = loc("/mnt/home/douliyang/triton-workspace/triton-tutorial/tutorial/Triton-101/Debug/vector_add.py":30:0)
module attributes {"ttg.num-ctas" = 1 : i32, "ttg.num-warps" = 4 : i32, ttg.target = "cuda:86", "ttg.threads-per-warp" = 32 : i32} {
  tt.func public @add_kernel(%arg0: !tt.ptr<f32> {tt.divisibility = 16 : i32} loc("/mnt/home/douliyang/triton-workspace/triton-tutorial/tutorial/Triton-101/Debug/vector_add.py":30:0), %arg1: !tt.ptr<f32> {tt.divisibility = 16 : i32} loc("/mnt/home/douliyang/triton-workspace/triton-tutorial/tutorial/Triton-101/Debug/vector_add.py":30:0), %arg2: !tt.ptr<f32> {tt.divisibility = 16 : i32} loc("/mnt/home/douliyang/triton-workspace/triton-tutorial/tutorial/Triton-101/Debug/vector_add.py":30:0), %arg3: i32 {tt.divisibility = 16 : i32} loc("/mnt/home/douliyang/triton-workspace/triton-tutorial/tutorial/Triton-101/Debug/vector_add.py":30:0)) attributes {noinline = false} {
    %c1024_i32 = arith.constant 1024 : i32 loc(#loc1)
    %0 = tt.get_program_id x : i32 loc(#loc2)
    %1 = arith.muli %0, %c1024_i32 : i32 loc(#loc3)
    %2 = tt.make_range {end = 1024 : i32, start = 0 : i32} : tensor<1024xi32, #blocked> loc(#loc4)
    %3 = tt.splat %1 : i32 -> tensor<1024xi32, #blocked> loc(#loc5)
    %4 = arith.addi %3, %2 : tensor<1024xi32, #blocked> loc(#loc5)
    %5 = tt.splat %arg3 : i32 -> tensor<1024xi32, #blocked> loc(#loc6)
    %6 = arith.cmpi slt, %4, %5 : tensor<1024xi32, #blocked> loc(#loc6)
    %7 = tt.splat %arg0 : !tt.ptr<f32> -> tensor<1024x!tt.ptr<f32>, #blocked> loc(#loc7)
    %8 = tt.addptr %7, %4 : tensor<1024x!tt.ptr<f32>, #blocked>, tensor<1024xi32, #blocked> loc(#loc7)
    %9 = tt.load %8, %6 : tensor<1024x!tt.ptr<f32>, #blocked> loc(#loc8)
    %10 = tt.splat %arg1 : !tt.ptr<f32> -> tensor<1024x!tt.ptr<f32>, #blocked> loc(#loc9)
    %11 = tt.addptr %10, %4 : tensor<1024x!tt.ptr<f32>, #blocked>, tensor<1024xi32, #blocked> loc(#loc9)
    %12 = tt.load %11, %6 : tensor<1024x!tt.ptr<f32>, #blocked> loc(#loc10)
    %13 = arith.addf %9, %12 : tensor<1024xf32, #blocked> loc(#loc11)
    %14 = tt.splat %arg2 : !tt.ptr<f32> -> tensor<1024x!tt.ptr<f32>, #blocked> loc(#loc12)
    %15 = tt.addptr %14, %4 : tensor<1024x!tt.ptr<f32>, #blocked>, tensor<1024xi32, #blocked> loc(#loc12)
    tt.store %15, %13, %6 : tensor<1024x!tt.ptr<f32>, #blocked> loc(#loc13)
    tt.return loc(#loc14)
  } loc(#loc)
} loc(#loc)
#loc1 = loc(unknown)
#loc2 = loc("/mnt/home/douliyang/triton-workspace/triton-tutorial/tutorial/Triton-101/Debug/vector_add.py":39:24)
#loc3 = loc("/mnt/home/douliyang/triton-workspace/triton-tutorial/tutorial/Triton-101/Debug/vector_add.py":52:24)
#loc4 = loc("/mnt/home/douliyang/triton-workspace/triton-tutorial/tutorial/Triton-101/Debug/vector_add.py":53:41)
#loc5 = loc("/mnt/home/douliyang/triton-workspace/triton-tutorial/tutorial/Triton-101/Debug/vector_add.py":53:28)
#loc6 = loc("/mnt/home/douliyang/triton-workspace/triton-tutorial/tutorial/Triton-101/Debug/vector_add.py":55:21)
#loc7 = loc("/mnt/home/douliyang/triton-workspace/triton-tutorial/tutorial/Triton-101/Debug/vector_add.py":58:24)
#loc8 = loc("/mnt/home/douliyang/triton-workspace/triton-tutorial/tutorial/Triton-101/Debug/vector_add.py":58:16)
#loc9 = loc("/mnt/home/douliyang/triton-workspace/triton-tutorial/tutorial/Triton-101/Debug/vector_add.py":59:24)
#loc10 = loc("/mnt/home/douliyang/triton-workspace/triton-tutorial/tutorial/Triton-101/Debug/vector_add.py":59:16)
#loc11 = loc("/mnt/home/douliyang/triton-workspace/triton-tutorial/tutorial/Triton-101/Debug/vector_add.py":60:17)
#loc12 = loc("/mnt/home/douliyang/triton-workspace/triton-tutorial/tutorial/Triton-101/Debug/vector_add.py":62:26)
#loc13 = loc("/mnt/home/douliyang/triton-workspace/triton-tutorial/tutorial/Triton-101/Debug/vector_add.py":62:35)
#loc14 = loc("/mnt/home/douliyang/triton-workspace/triton-tutorial/tutorial/Triton-101/Debug/vector_add.py":62:4)


// -----// IR Dump Before TritonGPUAssignLatencies (tritongpu-assign-latencies) ('builtin.module' operation) //----- //
#blocked = #ttg.blocked<{sizePerThread = [4], threadsPerWarp = [32], warpsPerCTA = [4], order = [0]}>
#loc = loc("/mnt/home/douliyang/triton-workspace/triton-tutorial/tutorial/Triton-101/Debug/vector_add.py":30:0)
module attributes {"ttg.num-ctas" = 1 : i32, "ttg.num-warps" = 4 : i32, ttg.target = "cuda:86", "ttg.threads-per-warp" = 32 : i32} {
  tt.func public @add_kernel(%arg0: !tt.ptr<f32> {tt.divisibility = 16 : i32} loc("/mnt/home/douliyang/triton-workspace/triton-tutorial/tutorial/Triton-101/Debug/vector_add.py":30:0), %arg1: !tt.ptr<f32> {tt.divisibility = 16 : i32} loc("/mnt/home/douliyang/triton-workspace/triton-tutorial/tutorial/Triton-101/Debug/vector_add.py":30:0), %arg2: !tt.ptr<f32> {tt.divisibility = 16 : i32} loc("/mnt/home/douliyang/triton-workspace/triton-tutorial/tutorial/Triton-101/Debug/vector_add.py":30:0), %arg3: i32 {tt.divisibility = 16 : i32} loc("/mnt/home/douliyang/triton-workspace/triton-tutorial/tutorial/Triton-101/Debug/vector_add.py":30:0)) attributes {noinline = false} {
    %c1024_i32 = arith.constant 1024 : i32 loc(#loc1)
    %0 = tt.get_program_id x : i32 loc(#loc2)
    %1 = arith.muli %0, %c1024_i32 : i32 loc(#loc3)
    %2 = tt.make_range {end = 1024 : i32, start = 0 : i32} : tensor<1024xi32, #blocked> loc(#loc4)
    %3 = tt.splat %1 : i32 -> tensor<1024xi32, #blocked> loc(#loc5)
    %4 = arith.addi %3, %2 : tensor<1024xi32, #blocked> loc(#loc5)
    %5 = tt.splat %arg3 : i32 -> tensor<1024xi32, #blocked> loc(#loc6)
    %6 = arith.cmpi slt, %4, %5 : tensor<1024xi32, #blocked> loc(#loc6)
    %7 = tt.splat %arg0 : !tt.ptr<f32> -> tensor<1024x!tt.ptr<f32>, #blocked> loc(#loc7)
    %8 = tt.addptr %7, %4 : tensor<1024x!tt.ptr<f32>, #blocked>, tensor<1024xi32, #blocked> loc(#loc7)
    %9 = tt.load %8, %6 : tensor<1024x!tt.ptr<f32>, #blocked> loc(#loc8)
    %10 = tt.splat %arg1 : !tt.ptr<f32> -> tensor<1024x!tt.ptr<f32>, #blocked> loc(#loc9)
    %11 = tt.addptr %10, %4 : tensor<1024x!tt.ptr<f32>, #blocked>, tensor<1024xi32, #blocked> loc(#loc9)
    %12 = tt.load %11, %6 : tensor<1024x!tt.ptr<f32>, #blocked> loc(#loc10)
    %13 = arith.addf %9, %12 : tensor<1024xf32, #blocked> loc(#loc11)
    %14 = tt.splat %arg2 : !tt.ptr<f32> -> tensor<1024x!tt.ptr<f32>, #blocked> loc(#loc12)
    %15 = tt.addptr %14, %4 : tensor<1024x!tt.ptr<f32>, #blocked>, tensor<1024xi32, #blocked> loc(#loc12)
    tt.store %15, %13, %6 : tensor<1024x!tt.ptr<f32>, #blocked> loc(#loc13)
    tt.return loc(#loc14)
  } loc(#loc)
} loc(#loc)
#loc1 = loc(unknown)
#loc2 = loc("/mnt/home/douliyang/triton-workspace/triton-tutorial/tutorial/Triton-101/Debug/vector_add.py":39:24)
#loc3 = loc("/mnt/home/douliyang/triton-workspace/triton-tutorial/tutorial/Triton-101/Debug/vector_add.py":52:24)
#loc4 = loc("/mnt/home/douliyang/triton-workspace/triton-tutorial/tutorial/Triton-101/Debug/vector_add.py":53:41)
#loc5 = loc("/mnt/home/douliyang/triton-workspace/triton-tutorial/tutorial/Triton-101/Debug/vector_add.py":53:28)
#loc6 = loc("/mnt/home/douliyang/triton-workspace/triton-tutorial/tutorial/Triton-101/Debug/vector_add.py":55:21)
#loc7 = loc("/mnt/home/douliyang/triton-workspace/triton-tutorial/tutorial/Triton-101/Debug/vector_add.py":58:24)
#loc8 = loc("/mnt/home/douliyang/triton-workspace/triton-tutorial/tutorial/Triton-101/Debug/vector_add.py":58:16)
#loc9 = loc("/mnt/home/douliyang/triton-workspace/triton-tutorial/tutorial/Triton-101/Debug/vector_add.py":59:24)
#loc10 = loc("/mnt/home/douliyang/triton-workspace/triton-tutorial/tutorial/Triton-101/Debug/vector_add.py":59:16)
#loc11 = loc("/mnt/home/douliyang/triton-workspace/triton-tutorial/tutorial/Triton-101/Debug/vector_add.py":60:17)
#loc12 = loc("/mnt/home/douliyang/triton-workspace/triton-tutorial/tutorial/Triton-101/Debug/vector_add.py":62:26)
#loc13 = loc("/mnt/home/douliyang/triton-workspace/triton-tutorial/tutorial/Triton-101/Debug/vector_add.py":62:35)
#loc14 = loc("/mnt/home/douliyang/triton-workspace/triton-tutorial/tutorial/Triton-101/Debug/vector_add.py":62:4)


// -----// IR Dump Before TritonGPUScheduleLoops (tritongpu-schedule-loops) ('builtin.module' operation) //----- //
#blocked = #ttg.blocked<{sizePerThread = [4], threadsPerWarp = [32], warpsPerCTA = [4], order = [0]}>
#loc = loc("/mnt/home/douliyang/triton-workspace/triton-tutorial/tutorial/Triton-101/Debug/vector_add.py":30:0)
module attributes {"ttg.num-ctas" = 1 : i32, "ttg.num-warps" = 4 : i32, ttg.target = "cuda:86", "ttg.threads-per-warp" = 32 : i32} {
  tt.func public @add_kernel(%arg0: !tt.ptr<f32> {tt.divisibility = 16 : i32} loc("/mnt/home/douliyang/triton-workspace/triton-tutorial/tutorial/Triton-101/Debug/vector_add.py":30:0), %arg1: !tt.ptr<f32> {tt.divisibility = 16 : i32} loc("/mnt/home/douliyang/triton-workspace/triton-tutorial/tutorial/Triton-101/Debug/vector_add.py":30:0), %arg2: !tt.ptr<f32> {tt.divisibility = 16 : i32} loc("/mnt/home/douliyang/triton-workspace/triton-tutorial/tutorial/Triton-101/Debug/vector_add.py":30:0), %arg3: i32 {tt.divisibility = 16 : i32} loc("/mnt/home/douliyang/triton-workspace/triton-tutorial/tutorial/Triton-101/Debug/vector_add.py":30:0)) attributes {noinline = false} {
    %c1024_i32 = arith.constant 1024 : i32 loc(#loc1)
    %0 = tt.get_program_id x : i32 loc(#loc2)
    %1 = arith.muli %0, %c1024_i32 : i32 loc(#loc3)
    %2 = tt.make_range {end = 1024 : i32, start = 0 : i32} : tensor<1024xi32, #blocked> loc(#loc4)
    %3 = tt.splat %1 : i32 -> tensor<1024xi32, #blocked> loc(#loc5)
    %4 = arith.addi %3, %2 : tensor<1024xi32, #blocked> loc(#loc5)
    %5 = tt.splat %arg3 : i32 -> tensor<1024xi32, #blocked> loc(#loc6)
    %6 = arith.cmpi slt, %4, %5 : tensor<1024xi32, #blocked> loc(#loc6)
    %7 = tt.splat %arg0 : !tt.ptr<f32> -> tensor<1024x!tt.ptr<f32>, #blocked> loc(#loc7)
    %8 = tt.addptr %7, %4 : tensor<1024x!tt.ptr<f32>, #blocked>, tensor<1024xi32, #blocked> loc(#loc7)
    %9 = tt.load %8, %6 : tensor<1024x!tt.ptr<f32>, #blocked> loc(#loc8)
    %10 = tt.splat %arg1 : !tt.ptr<f32> -> tensor<1024x!tt.ptr<f32>, #blocked> loc(#loc9)
    %11 = tt.addptr %10, %4 : tensor<1024x!tt.ptr<f32>, #blocked>, tensor<1024xi32, #blocked> loc(#loc9)
    %12 = tt.load %11, %6 : tensor<1024x!tt.ptr<f32>, #blocked> loc(#loc10)
    %13 = arith.addf %9, %12 : tensor<1024xf32, #blocked> loc(#loc11)
    %14 = tt.splat %arg2 : !tt.ptr<f32> -> tensor<1024x!tt.ptr<f32>, #blocked> loc(#loc12)
    %15 = tt.addptr %14, %4 : tensor<1024x!tt.ptr<f32>, #blocked>, tensor<1024xi32, #blocked> loc(#loc12)
    tt.store %15, %13, %6 : tensor<1024x!tt.ptr<f32>, #blocked> loc(#loc13)
    tt.return loc(#loc14)
  } loc(#loc)
} loc(#loc)
#loc1 = loc(unknown)
#loc2 = loc("/mnt/home/douliyang/triton-workspace/triton-tutorial/tutorial/Triton-101/Debug/vector_add.py":39:24)
#loc3 = loc("/mnt/home/douliyang/triton-workspace/triton-tutorial/tutorial/Triton-101/Debug/vector_add.py":52:24)
#loc4 = loc("/mnt/home/douliyang/triton-workspace/triton-tutorial/tutorial/Triton-101/Debug/vector_add.py":53:41)
#loc5 = loc("/mnt/home/douliyang/triton-workspace/triton-tutorial/tutorial/Triton-101/Debug/vector_add.py":53:28)
#loc6 = loc("/mnt/home/douliyang/triton-workspace/triton-tutorial/tutorial/Triton-101/Debug/vector_add.py":55:21)
#loc7 = loc("/mnt/home/douliyang/triton-workspace/triton-tutorial/tutorial/Triton-101/Debug/vector_add.py":58:24)
#loc8 = loc("/mnt/home/douliyang/triton-workspace/triton-tutorial/tutorial/Triton-101/Debug/vector_add.py":58:16)
#loc9 = loc("/mnt/home/douliyang/triton-workspace/triton-tutorial/tutorial/Triton-101/Debug/vector_add.py":59:24)
#loc10 = loc("/mnt/home/douliyang/triton-workspace/triton-tutorial/tutorial/Triton-101/Debug/vector_add.py":59:16)
#loc11 = loc("/mnt/home/douliyang/triton-workspace/triton-tutorial/tutorial/Triton-101/Debug/vector_add.py":60:17)
#loc12 = loc("/mnt/home/douliyang/triton-workspace/triton-tutorial/tutorial/Triton-101/Debug/vector_add.py":62:26)
#loc13 = loc("/mnt/home/douliyang/triton-workspace/triton-tutorial/tutorial/Triton-101/Debug/vector_add.py":62:35)
#loc14 = loc("/mnt/home/douliyang/triton-workspace/triton-tutorial/tutorial/Triton-101/Debug/vector_add.py":62:4)


// -----// IR Dump Before TritonGPUPipeline (tritongpu-pipeline) ('builtin.module' operation) //----- //
#blocked = #ttg.blocked<{sizePerThread = [4], threadsPerWarp = [32], warpsPerCTA = [4], order = [0]}>
#loc = loc("/mnt/home/douliyang/triton-workspace/triton-tutorial/tutorial/Triton-101/Debug/vector_add.py":30:0)
module attributes {"ttg.num-ctas" = 1 : i32, "ttg.num-warps" = 4 : i32, ttg.target = "cuda:86", "ttg.threads-per-warp" = 32 : i32} {
  tt.func public @add_kernel(%arg0: !tt.ptr<f32> {tt.divisibility = 16 : i32} loc("/mnt/home/douliyang/triton-workspace/triton-tutorial/tutorial/Triton-101/Debug/vector_add.py":30:0), %arg1: !tt.ptr<f32> {tt.divisibility = 16 : i32} loc("/mnt/home/douliyang/triton-workspace/triton-tutorial/tutorial/Triton-101/Debug/vector_add.py":30:0), %arg2: !tt.ptr<f32> {tt.divisibility = 16 : i32} loc("/mnt/home/douliyang/triton-workspace/triton-tutorial/tutorial/Triton-101/Debug/vector_add.py":30:0), %arg3: i32 {tt.divisibility = 16 : i32} loc("/mnt/home/douliyang/triton-workspace/triton-tutorial/tutorial/Triton-101/Debug/vector_add.py":30:0)) attributes {noinline = false} {
    %c1024_i32 = arith.constant 1024 : i32 loc(#loc1)
    %0 = tt.get_program_id x : i32 loc(#loc2)
    %1 = arith.muli %0, %c1024_i32 : i32 loc(#loc3)
    %2 = tt.make_range {end = 1024 : i32, start = 0 : i32} : tensor<1024xi32, #blocked> loc(#loc4)
    %3 = tt.splat %1 : i32 -> tensor<1024xi32, #blocked> loc(#loc5)
    %4 = arith.addi %3, %2 : tensor<1024xi32, #blocked> loc(#loc5)
    %5 = tt.splat %arg3 : i32 -> tensor<1024xi32, #blocked> loc(#loc6)
    %6 = arith.cmpi slt, %4, %5 : tensor<1024xi32, #blocked> loc(#loc6)
    %7 = tt.splat %arg0 : !tt.ptr<f32> -> tensor<1024x!tt.ptr<f32>, #blocked> loc(#loc7)
    %8 = tt.addptr %7, %4 : tensor<1024x!tt.ptr<f32>, #blocked>, tensor<1024xi32, #blocked> loc(#loc7)
    %9 = tt.load %8, %6 : tensor<1024x!tt.ptr<f32>, #blocked> loc(#loc8)
    %10 = tt.splat %arg1 : !tt.ptr<f32> -> tensor<1024x!tt.ptr<f32>, #blocked> loc(#loc9)
    %11 = tt.addptr %10, %4 : tensor<1024x!tt.ptr<f32>, #blocked>, tensor<1024xi32, #blocked> loc(#loc9)
    %12 = tt.load %11, %6 : tensor<1024x!tt.ptr<f32>, #blocked> loc(#loc10)
    %13 = arith.addf %9, %12 : tensor<1024xf32, #blocked> loc(#loc11)
    %14 = tt.splat %arg2 : !tt.ptr<f32> -> tensor<1024x!tt.ptr<f32>, #blocked> loc(#loc12)
    %15 = tt.addptr %14, %4 : tensor<1024x!tt.ptr<f32>, #blocked>, tensor<1024xi32, #blocked> loc(#loc12)
    tt.store %15, %13, %6 : tensor<1024x!tt.ptr<f32>, #blocked> loc(#loc13)
    tt.return loc(#loc14)
  } loc(#loc)
} loc(#loc)
#loc1 = loc(unknown)
#loc2 = loc("/mnt/home/douliyang/triton-workspace/triton-tutorial/tutorial/Triton-101/Debug/vector_add.py":39:24)
#loc3 = loc("/mnt/home/douliyang/triton-workspace/triton-tutorial/tutorial/Triton-101/Debug/vector_add.py":52:24)
#loc4 = loc("/mnt/home/douliyang/triton-workspace/triton-tutorial/tutorial/Triton-101/Debug/vector_add.py":53:41)
#loc5 = loc("/mnt/home/douliyang/triton-workspace/triton-tutorial/tutorial/Triton-101/Debug/vector_add.py":53:28)
#loc6 = loc("/mnt/home/douliyang/triton-workspace/triton-tutorial/tutorial/Triton-101/Debug/vector_add.py":55:21)
#loc7 = loc("/mnt/home/douliyang/triton-workspace/triton-tutorial/tutorial/Triton-101/Debug/vector_add.py":58:24)
#loc8 = loc("/mnt/home/douliyang/triton-workspace/triton-tutorial/tutorial/Triton-101/Debug/vector_add.py":58:16)
#loc9 = loc("/mnt/home/douliyang/triton-workspace/triton-tutorial/tutorial/Triton-101/Debug/vector_add.py":59:24)
#loc10 = loc("/mnt/home/douliyang/triton-workspace/triton-tutorial/tutorial/Triton-101/Debug/vector_add.py":59:16)
#loc11 = loc("/mnt/home/douliyang/triton-workspace/triton-tutorial/tutorial/Triton-101/Debug/vector_add.py":60:17)
#loc12 = loc("/mnt/home/douliyang/triton-workspace/triton-tutorial/tutorial/Triton-101/Debug/vector_add.py":62:26)
#loc13 = loc("/mnt/home/douliyang/triton-workspace/triton-tutorial/tutorial/Triton-101/Debug/vector_add.py":62:35)
#loc14 = loc("/mnt/home/douliyang/triton-workspace/triton-tutorial/tutorial/Triton-101/Debug/vector_add.py":62:4)


// -----// SoftwarePipeliner internal IR Dump After: LowerLoops
module attributes {"ttg.num-ctas" = 1 : i32, "ttg.num-warps" = 4 : i32, ttg.target = "cuda:86", "ttg.threads-per-warp" = 32 : i32} {
  tt.func public @add_kernel(%arg0: !tt.ptr<f32> {tt.divisibility = 16 : i32}, %arg1: !tt.ptr<f32> {tt.divisibility = 16 : i32}, %arg2: !tt.ptr<f32> {tt.divisibility = 16 : i32}, %arg3: i32 {tt.divisibility = 16 : i32}) attributes {noinline = false} {
    %c1024_i32 = arith.constant 1024 : i32
    %0 = tt.get_program_id x : i32
    %1 = arith.muli %0, %c1024_i32 : i32
    %2 = tt.make_range {end = 1024 : i32, start = 0 : i32} : tensor<1024xi32, #ttg.blocked<{sizePerThread = [4], threadsPerWarp = [32], warpsPerCTA = [4], order = [0]}>>
    %3 = tt.splat %1 : i32 -> tensor<1024xi32, #ttg.blocked<{sizePerThread = [4], threadsPerWarp = [32], warpsPerCTA = [4], order = [0]}>>
    %4 = arith.addi %3, %2 : tensor<1024xi32, #ttg.blocked<{sizePerThread = [4], threadsPerWarp = [32], warpsPerCTA = [4], order = [0]}>>
    %5 = tt.splat %arg3 : i32 -> tensor<1024xi32, #ttg.blocked<{sizePerThread = [4], threadsPerWarp = [32], warpsPerCTA = [4], order = [0]}>>
    %6 = arith.cmpi slt, %4, %5 : tensor<1024xi32, #ttg.blocked<{sizePerThread = [4], threadsPerWarp = [32], warpsPerCTA = [4], order = [0]}>>
    %7 = tt.splat %arg0 : !tt.ptr<f32> -> tensor<1024x!tt.ptr<f32>, #ttg.blocked<{sizePerThread = [4], threadsPerWarp = [32], warpsPerCTA = [4], order = [0]}>>
    %8 = tt.addptr %7, %4 : tensor<1024x!tt.ptr<f32>, #ttg.blocked<{sizePerThread = [4], threadsPerWarp = [32], warpsPerCTA = [4], order = [0]}>>, tensor<1024xi32, #ttg.blocked<{sizePerThread = [4], threadsPerWarp = [32], warpsPerCTA = [4], order = [0]}>>
    %9 = tt.load %8, %6 : tensor<1024x!tt.ptr<f32>, #ttg.blocked<{sizePerThread = [4], threadsPerWarp = [32], warpsPerCTA = [4], order = [0]}>>
    %10 = tt.splat %arg1 : !tt.ptr<f32> -> tensor<1024x!tt.ptr<f32>, #ttg.blocked<{sizePerThread = [4], threadsPerWarp = [32], warpsPerCTA = [4], order = [0]}>>
    %11 = tt.addptr %10, %4 : tensor<1024x!tt.ptr<f32>, #ttg.blocked<{sizePerThread = [4], threadsPerWarp = [32], warpsPerCTA = [4], order = [0]}>>, tensor<1024xi32, #ttg.blocked<{sizePerThread = [4], threadsPerWarp = [32], warpsPerCTA = [4], order = [0]}>>
    %12 = tt.load %11, %6 : tensor<1024x!tt.ptr<f32>, #ttg.blocked<{sizePerThread = [4], threadsPerWarp = [32], warpsPerCTA = [4], order = [0]}>>
    %13 = arith.addf %9, %12 : tensor<1024xf32, #ttg.blocked<{sizePerThread = [4], threadsPerWarp = [32], warpsPerCTA = [4], order = [0]}>>
    %14 = tt.splat %arg2 : !tt.ptr<f32> -> tensor<1024x!tt.ptr<f32>, #ttg.blocked<{sizePerThread = [4], threadsPerWarp = [32], warpsPerCTA = [4], order = [0]}>>
    %15 = tt.addptr %14, %4 : tensor<1024x!tt.ptr<f32>, #ttg.blocked<{sizePerThread = [4], threadsPerWarp = [32], warpsPerCTA = [4], order = [0]}>>, tensor<1024xi32, #ttg.blocked<{sizePerThread = [4], threadsPerWarp = [32], warpsPerCTA = [4], order = [0]}>>
    tt.store %15, %13, %6 : tensor<1024x!tt.ptr<f32>, #ttg.blocked<{sizePerThread = [4], threadsPerWarp = [32], warpsPerCTA = [4], order = [0]}>>
    tt.return
  }
}


// -----// SoftwarePipeliner internal IR Dump After: ExpandLoops
module attributes {"ttg.num-ctas" = 1 : i32, "ttg.num-warps" = 4 : i32, ttg.target = "cuda:86", "ttg.threads-per-warp" = 32 : i32} {
  tt.func public @add_kernel(%arg0: !tt.ptr<f32> {tt.divisibility = 16 : i32}, %arg1: !tt.ptr<f32> {tt.divisibility = 16 : i32}, %arg2: !tt.ptr<f32> {tt.divisibility = 16 : i32}, %arg3: i32 {tt.divisibility = 16 : i32}) attributes {noinline = false} {
    %c1024_i32 = arith.constant 1024 : i32
    %0 = tt.get_program_id x : i32
    %1 = arith.muli %0, %c1024_i32 : i32
    %2 = tt.make_range {end = 1024 : i32, start = 0 : i32} : tensor<1024xi32, #ttg.blocked<{sizePerThread = [4], threadsPerWarp = [32], warpsPerCTA = [4], order = [0]}>>
    %3 = tt.splat %1 : i32 -> tensor<1024xi32, #ttg.blocked<{sizePerThread = [4], threadsPerWarp = [32], warpsPerCTA = [4], order = [0]}>>
    %4 = arith.addi %3, %2 : tensor<1024xi32, #ttg.blocked<{sizePerThread = [4], threadsPerWarp = [32], warpsPerCTA = [4], order = [0]}>>
    %5 = tt.splat %arg3 : i32 -> tensor<1024xi32, #ttg.blocked<{sizePerThread = [4], threadsPerWarp = [32], warpsPerCTA = [4], order = [0]}>>
    %6 = arith.cmpi slt, %4, %5 : tensor<1024xi32, #ttg.blocked<{sizePerThread = [4], threadsPerWarp = [32], warpsPerCTA = [4], order = [0]}>>
    %7 = tt.splat %arg0 : !tt.ptr<f32> -> tensor<1024x!tt.ptr<f32>, #ttg.blocked<{sizePerThread = [4], threadsPerWarp = [32], warpsPerCTA = [4], order = [0]}>>
    %8 = tt.addptr %7, %4 : tensor<1024x!tt.ptr<f32>, #ttg.blocked<{sizePerThread = [4], threadsPerWarp = [32], warpsPerCTA = [4], order = [0]}>>, tensor<1024xi32, #ttg.blocked<{sizePerThread = [4], threadsPerWarp = [32], warpsPerCTA = [4], order = [0]}>>
    %9 = tt.load %8, %6 : tensor<1024x!tt.ptr<f32>, #ttg.blocked<{sizePerThread = [4], threadsPerWarp = [32], warpsPerCTA = [4], order = [0]}>>
    %10 = tt.splat %arg1 : !tt.ptr<f32> -> tensor<1024x!tt.ptr<f32>, #ttg.blocked<{sizePerThread = [4], threadsPerWarp = [32], warpsPerCTA = [4], order = [0]}>>
    %11 = tt.addptr %10, %4 : tensor<1024x!tt.ptr<f32>, #ttg.blocked<{sizePerThread = [4], threadsPerWarp = [32], warpsPerCTA = [4], order = [0]}>>, tensor<1024xi32, #ttg.blocked<{sizePerThread = [4], threadsPerWarp = [32], warpsPerCTA = [4], order = [0]}>>
    %12 = tt.load %11, %6 : tensor<1024x!tt.ptr<f32>, #ttg.blocked<{sizePerThread = [4], threadsPerWarp = [32], warpsPerCTA = [4], order = [0]}>>
    %13 = arith.addf %9, %12 : tensor<1024xf32, #ttg.blocked<{sizePerThread = [4], threadsPerWarp = [32], warpsPerCTA = [4], order = [0]}>>
    %14 = tt.splat %arg2 : !tt.ptr<f32> -> tensor<1024x!tt.ptr<f32>, #ttg.blocked<{sizePerThread = [4], threadsPerWarp = [32], warpsPerCTA = [4], order = [0]}>>
    %15 = tt.addptr %14, %4 : tensor<1024x!tt.ptr<f32>, #ttg.blocked<{sizePerThread = [4], threadsPerWarp = [32], warpsPerCTA = [4], order = [0]}>>, tensor<1024xi32, #ttg.blocked<{sizePerThread = [4], threadsPerWarp = [32], warpsPerCTA = [4], order = [0]}>>
    tt.store %15, %13, %6 : tensor<1024x!tt.ptr<f32>, #ttg.blocked<{sizePerThread = [4], threadsPerWarp = [32], warpsPerCTA = [4], order = [0]}>>
    tt.return
  }
}


// -----// IR Dump Before Canonicalizer (canonicalize) ('builtin.module' operation) //----- //
#blocked = #ttg.blocked<{sizePerThread = [4], threadsPerWarp = [32], warpsPerCTA = [4], order = [0]}>
#loc = loc("/mnt/home/douliyang/triton-workspace/triton-tutorial/tutorial/Triton-101/Debug/vector_add.py":30:0)
module attributes {"ttg.num-ctas" = 1 : i32, "ttg.num-warps" = 4 : i32, ttg.target = "cuda:86", "ttg.threads-per-warp" = 32 : i32} {
  tt.func public @add_kernel(%arg0: !tt.ptr<f32> {tt.divisibility = 16 : i32} loc("/mnt/home/douliyang/triton-workspace/triton-tutorial/tutorial/Triton-101/Debug/vector_add.py":30:0), %arg1: !tt.ptr<f32> {tt.divisibility = 16 : i32} loc("/mnt/home/douliyang/triton-workspace/triton-tutorial/tutorial/Triton-101/Debug/vector_add.py":30:0), %arg2: !tt.ptr<f32> {tt.divisibility = 16 : i32} loc("/mnt/home/douliyang/triton-workspace/triton-tutorial/tutorial/Triton-101/Debug/vector_add.py":30:0), %arg3: i32 {tt.divisibility = 16 : i32} loc("/mnt/home/douliyang/triton-workspace/triton-tutorial/tutorial/Triton-101/Debug/vector_add.py":30:0)) attributes {noinline = false} {
    %c1024_i32 = arith.constant 1024 : i32 loc(#loc1)
    %0 = tt.get_program_id x : i32 loc(#loc2)
    %1 = arith.muli %0, %c1024_i32 : i32 loc(#loc3)
    %2 = tt.make_range {end = 1024 : i32, start = 0 : i32} : tensor<1024xi32, #blocked> loc(#loc4)
    %3 = tt.splat %1 : i32 -> tensor<1024xi32, #blocked> loc(#loc5)
    %4 = arith.addi %3, %2 : tensor<1024xi32, #blocked> loc(#loc5)
    %5 = tt.splat %arg3 : i32 -> tensor<1024xi32, #blocked> loc(#loc6)
    %6 = arith.cmpi slt, %4, %5 : tensor<1024xi32, #blocked> loc(#loc6)
    %7 = tt.splat %arg0 : !tt.ptr<f32> -> tensor<1024x!tt.ptr<f32>, #blocked> loc(#loc7)
    %8 = tt.addptr %7, %4 : tensor<1024x!tt.ptr<f32>, #blocked>, tensor<1024xi32, #blocked> loc(#loc7)
    %9 = tt.load %8, %6 : tensor<1024x!tt.ptr<f32>, #blocked> loc(#loc8)
    %10 = tt.splat %arg1 : !tt.ptr<f32> -> tensor<1024x!tt.ptr<f32>, #blocked> loc(#loc9)
    %11 = tt.addptr %10, %4 : tensor<1024x!tt.ptr<f32>, #blocked>, tensor<1024xi32, #blocked> loc(#loc9)
    %12 = tt.load %11, %6 : tensor<1024x!tt.ptr<f32>, #blocked> loc(#loc10)
    %13 = arith.addf %9, %12 : tensor<1024xf32, #blocked> loc(#loc11)
    %14 = tt.splat %arg2 : !tt.ptr<f32> -> tensor<1024x!tt.ptr<f32>, #blocked> loc(#loc12)
    %15 = tt.addptr %14, %4 : tensor<1024x!tt.ptr<f32>, #blocked>, tensor<1024xi32, #blocked> loc(#loc12)
    tt.store %15, %13, %6 : tensor<1024x!tt.ptr<f32>, #blocked> loc(#loc13)
    tt.return loc(#loc14)
  } loc(#loc)
} loc(#loc)
#loc1 = loc(unknown)
#loc2 = loc("/mnt/home/douliyang/triton-workspace/triton-tutorial/tutorial/Triton-101/Debug/vector_add.py":39:24)
#loc3 = loc("/mnt/home/douliyang/triton-workspace/triton-tutorial/tutorial/Triton-101/Debug/vector_add.py":52:24)
#loc4 = loc("/mnt/home/douliyang/triton-workspace/triton-tutorial/tutorial/Triton-101/Debug/vector_add.py":53:41)
#loc5 = loc("/mnt/home/douliyang/triton-workspace/triton-tutorial/tutorial/Triton-101/Debug/vector_add.py":53:28)
#loc6 = loc("/mnt/home/douliyang/triton-workspace/triton-tutorial/tutorial/Triton-101/Debug/vector_add.py":55:21)
#loc7 = loc("/mnt/home/douliyang/triton-workspace/triton-tutorial/tutorial/Triton-101/Debug/vector_add.py":58:24)
#loc8 = loc("/mnt/home/douliyang/triton-workspace/triton-tutorial/tutorial/Triton-101/Debug/vector_add.py":58:16)
#loc9 = loc("/mnt/home/douliyang/triton-workspace/triton-tutorial/tutorial/Triton-101/Debug/vector_add.py":59:24)
#loc10 = loc("/mnt/home/douliyang/triton-workspace/triton-tutorial/tutorial/Triton-101/Debug/vector_add.py":59:16)
#loc11 = loc("/mnt/home/douliyang/triton-workspace/triton-tutorial/tutorial/Triton-101/Debug/vector_add.py":60:17)
#loc12 = loc("/mnt/home/douliyang/triton-workspace/triton-tutorial/tutorial/Triton-101/Debug/vector_add.py":62:26)
#loc13 = loc("/mnt/home/douliyang/triton-workspace/triton-tutorial/tutorial/Triton-101/Debug/vector_add.py":62:35)
#loc14 = loc("/mnt/home/douliyang/triton-workspace/triton-tutorial/tutorial/Triton-101/Debug/vector_add.py":62:4)


// -----// IR Dump Before TritonLoopAwareCSE (triton-loop-aware-cse) ('builtin.module' operation) //----- //
#blocked = #ttg.blocked<{sizePerThread = [4], threadsPerWarp = [32], warpsPerCTA = [4], order = [0]}>
#loc = loc("/mnt/home/douliyang/triton-workspace/triton-tutorial/tutorial/Triton-101/Debug/vector_add.py":30:0)
module attributes {"ttg.num-ctas" = 1 : i32, "ttg.num-warps" = 4 : i32, ttg.target = "cuda:86", "ttg.threads-per-warp" = 32 : i32} {
  tt.func public @add_kernel(%arg0: !tt.ptr<f32> {tt.divisibility = 16 : i32} loc("/mnt/home/douliyang/triton-workspace/triton-tutorial/tutorial/Triton-101/Debug/vector_add.py":30:0), %arg1: !tt.ptr<f32> {tt.divisibility = 16 : i32} loc("/mnt/home/douliyang/triton-workspace/triton-tutorial/tutorial/Triton-101/Debug/vector_add.py":30:0), %arg2: !tt.ptr<f32> {tt.divisibility = 16 : i32} loc("/mnt/home/douliyang/triton-workspace/triton-tutorial/tutorial/Triton-101/Debug/vector_add.py":30:0), %arg3: i32 {tt.divisibility = 16 : i32} loc("/mnt/home/douliyang/triton-workspace/triton-tutorial/tutorial/Triton-101/Debug/vector_add.py":30:0)) attributes {noinline = false} {
    %c1024_i32 = arith.constant 1024 : i32 loc(#loc1)
    %0 = tt.get_program_id x : i32 loc(#loc2)
    %1 = arith.muli %0, %c1024_i32 : i32 loc(#loc3)
    %2 = tt.make_range {end = 1024 : i32, start = 0 : i32} : tensor<1024xi32, #blocked> loc(#loc4)
    %3 = tt.splat %1 : i32 -> tensor<1024xi32, #blocked> loc(#loc5)
    %4 = arith.addi %3, %2 : tensor<1024xi32, #blocked> loc(#loc5)
    %5 = tt.splat %arg3 : i32 -> tensor<1024xi32, #blocked> loc(#loc6)
    %6 = arith.cmpi slt, %4, %5 : tensor<1024xi32, #blocked> loc(#loc6)
    %7 = tt.splat %arg0 : !tt.ptr<f32> -> tensor<1024x!tt.ptr<f32>, #blocked> loc(#loc7)
    %8 = tt.addptr %7, %4 : tensor<1024x!tt.ptr<f32>, #blocked>, tensor<1024xi32, #blocked> loc(#loc7)
    %9 = tt.load %8, %6 : tensor<1024x!tt.ptr<f32>, #blocked> loc(#loc8)
    %10 = tt.splat %arg1 : !tt.ptr<f32> -> tensor<1024x!tt.ptr<f32>, #blocked> loc(#loc9)
    %11 = tt.addptr %10, %4 : tensor<1024x!tt.ptr<f32>, #blocked>, tensor<1024xi32, #blocked> loc(#loc9)
    %12 = tt.load %11, %6 : tensor<1024x!tt.ptr<f32>, #blocked> loc(#loc10)
    %13 = arith.addf %9, %12 : tensor<1024xf32, #blocked> loc(#loc11)
    %14 = tt.splat %arg2 : !tt.ptr<f32> -> tensor<1024x!tt.ptr<f32>, #blocked> loc(#loc12)
    %15 = tt.addptr %14, %4 : tensor<1024x!tt.ptr<f32>, #blocked>, tensor<1024xi32, #blocked> loc(#loc12)
    tt.store %15, %13, %6 : tensor<1024x!tt.ptr<f32>, #blocked> loc(#loc13)
    tt.return loc(#loc14)
  } loc(#loc)
} loc(#loc)
#loc1 = loc(unknown)
#loc2 = loc("/mnt/home/douliyang/triton-workspace/triton-tutorial/tutorial/Triton-101/Debug/vector_add.py":39:24)
#loc3 = loc("/mnt/home/douliyang/triton-workspace/triton-tutorial/tutorial/Triton-101/Debug/vector_add.py":52:24)
#loc4 = loc("/mnt/home/douliyang/triton-workspace/triton-tutorial/tutorial/Triton-101/Debug/vector_add.py":53:41)
#loc5 = loc("/mnt/home/douliyang/triton-workspace/triton-tutorial/tutorial/Triton-101/Debug/vector_add.py":53:28)
#loc6 = loc("/mnt/home/douliyang/triton-workspace/triton-tutorial/tutorial/Triton-101/Debug/vector_add.py":55:21)
#loc7 = loc("/mnt/home/douliyang/triton-workspace/triton-tutorial/tutorial/Triton-101/Debug/vector_add.py":58:24)
#loc8 = loc("/mnt/home/douliyang/triton-workspace/triton-tutorial/tutorial/Triton-101/Debug/vector_add.py":58:16)
#loc9 = loc("/mnt/home/douliyang/triton-workspace/triton-tutorial/tutorial/Triton-101/Debug/vector_add.py":59:24)
#loc10 = loc("/mnt/home/douliyang/triton-workspace/triton-tutorial/tutorial/Triton-101/Debug/vector_add.py":59:16)
#loc11 = loc("/mnt/home/douliyang/triton-workspace/triton-tutorial/tutorial/Triton-101/Debug/vector_add.py":60:17)
#loc12 = loc("/mnt/home/douliyang/triton-workspace/triton-tutorial/tutorial/Triton-101/Debug/vector_add.py":62:26)
#loc13 = loc("/mnt/home/douliyang/triton-workspace/triton-tutorial/tutorial/Triton-101/Debug/vector_add.py":62:35)
#loc14 = loc("/mnt/home/douliyang/triton-workspace/triton-tutorial/tutorial/Triton-101/Debug/vector_add.py":62:4)


// -----// IR Dump Before TritonGPUPrefetch (tritongpu-prefetch) ('builtin.module' operation) //----- //
#blocked = #ttg.blocked<{sizePerThread = [4], threadsPerWarp = [32], warpsPerCTA = [4], order = [0]}>
#loc = loc("/mnt/home/douliyang/triton-workspace/triton-tutorial/tutorial/Triton-101/Debug/vector_add.py":30:0)
module attributes {"ttg.num-ctas" = 1 : i32, "ttg.num-warps" = 4 : i32, ttg.target = "cuda:86", "ttg.threads-per-warp" = 32 : i32} {
  tt.func public @add_kernel(%arg0: !tt.ptr<f32> {tt.divisibility = 16 : i32} loc("/mnt/home/douliyang/triton-workspace/triton-tutorial/tutorial/Triton-101/Debug/vector_add.py":30:0), %arg1: !tt.ptr<f32> {tt.divisibility = 16 : i32} loc("/mnt/home/douliyang/triton-workspace/triton-tutorial/tutorial/Triton-101/Debug/vector_add.py":30:0), %arg2: !tt.ptr<f32> {tt.divisibility = 16 : i32} loc("/mnt/home/douliyang/triton-workspace/triton-tutorial/tutorial/Triton-101/Debug/vector_add.py":30:0), %arg3: i32 {tt.divisibility = 16 : i32} loc("/mnt/home/douliyang/triton-workspace/triton-tutorial/tutorial/Triton-101/Debug/vector_add.py":30:0)) attributes {noinline = false} {
    %c1024_i32 = arith.constant 1024 : i32 loc(#loc1)
    %0 = tt.get_program_id x : i32 loc(#loc2)
    %1 = arith.muli %0, %c1024_i32 : i32 loc(#loc3)
    %2 = tt.make_range {end = 1024 : i32, start = 0 : i32} : tensor<1024xi32, #blocked> loc(#loc4)
    %3 = tt.splat %1 : i32 -> tensor<1024xi32, #blocked> loc(#loc5)
    %4 = arith.addi %3, %2 : tensor<1024xi32, #blocked> loc(#loc5)
    %5 = tt.splat %arg3 : i32 -> tensor<1024xi32, #blocked> loc(#loc6)
    %6 = arith.cmpi slt, %4, %5 : tensor<1024xi32, #blocked> loc(#loc6)
    %7 = tt.splat %arg0 : !tt.ptr<f32> -> tensor<1024x!tt.ptr<f32>, #blocked> loc(#loc7)
    %8 = tt.addptr %7, %4 : tensor<1024x!tt.ptr<f32>, #blocked>, tensor<1024xi32, #blocked> loc(#loc7)
    %9 = tt.load %8, %6 : tensor<1024x!tt.ptr<f32>, #blocked> loc(#loc8)
    %10 = tt.splat %arg1 : !tt.ptr<f32> -> tensor<1024x!tt.ptr<f32>, #blocked> loc(#loc9)
    %11 = tt.addptr %10, %4 : tensor<1024x!tt.ptr<f32>, #blocked>, tensor<1024xi32, #blocked> loc(#loc9)
    %12 = tt.load %11, %6 : tensor<1024x!tt.ptr<f32>, #blocked> loc(#loc10)
    %13 = arith.addf %9, %12 : tensor<1024xf32, #blocked> loc(#loc11)
    %14 = tt.splat %arg2 : !tt.ptr<f32> -> tensor<1024x!tt.ptr<f32>, #blocked> loc(#loc12)
    %15 = tt.addptr %14, %4 : tensor<1024x!tt.ptr<f32>, #blocked>, tensor<1024xi32, #blocked> loc(#loc12)
    tt.store %15, %13, %6 : tensor<1024x!tt.ptr<f32>, #blocked> loc(#loc13)
    tt.return loc(#loc14)
  } loc(#loc)
} loc(#loc)
#loc1 = loc(unknown)
#loc2 = loc("/mnt/home/douliyang/triton-workspace/triton-tutorial/tutorial/Triton-101/Debug/vector_add.py":39:24)
#loc3 = loc("/mnt/home/douliyang/triton-workspace/triton-tutorial/tutorial/Triton-101/Debug/vector_add.py":52:24)
#loc4 = loc("/mnt/home/douliyang/triton-workspace/triton-tutorial/tutorial/Triton-101/Debug/vector_add.py":53:41)
#loc5 = loc("/mnt/home/douliyang/triton-workspace/triton-tutorial/tutorial/Triton-101/Debug/vector_add.py":53:28)
#loc6 = loc("/mnt/home/douliyang/triton-workspace/triton-tutorial/tutorial/Triton-101/Debug/vector_add.py":55:21)
#loc7 = loc("/mnt/home/douliyang/triton-workspace/triton-tutorial/tutorial/Triton-101/Debug/vector_add.py":58:24)
#loc8 = loc("/mnt/home/douliyang/triton-workspace/triton-tutorial/tutorial/Triton-101/Debug/vector_add.py":58:16)
#loc9 = loc("/mnt/home/douliyang/triton-workspace/triton-tutorial/tutorial/Triton-101/Debug/vector_add.py":59:24)
#loc10 = loc("/mnt/home/douliyang/triton-workspace/triton-tutorial/tutorial/Triton-101/Debug/vector_add.py":59:16)
#loc11 = loc("/mnt/home/douliyang/triton-workspace/triton-tutorial/tutorial/Triton-101/Debug/vector_add.py":60:17)
#loc12 = loc("/mnt/home/douliyang/triton-workspace/triton-tutorial/tutorial/Triton-101/Debug/vector_add.py":62:26)
#loc13 = loc("/mnt/home/douliyang/triton-workspace/triton-tutorial/tutorial/Triton-101/Debug/vector_add.py":62:35)
#loc14 = loc("/mnt/home/douliyang/triton-workspace/triton-tutorial/tutorial/Triton-101/Debug/vector_add.py":62:4)


// -----// IR Dump Before TritonGPUOptimizeDotOperands (tritongpu-optimize-dot-operands) ('builtin.module' operation) //----- //
#blocked = #ttg.blocked<{sizePerThread = [4], threadsPerWarp = [32], warpsPerCTA = [4], order = [0]}>
#loc = loc("/mnt/home/douliyang/triton-workspace/triton-tutorial/tutorial/Triton-101/Debug/vector_add.py":30:0)
module attributes {"ttg.num-ctas" = 1 : i32, "ttg.num-warps" = 4 : i32, ttg.target = "cuda:86", "ttg.threads-per-warp" = 32 : i32} {
  tt.func public @add_kernel(%arg0: !tt.ptr<f32> {tt.divisibility = 16 : i32} loc("/mnt/home/douliyang/triton-workspace/triton-tutorial/tutorial/Triton-101/Debug/vector_add.py":30:0), %arg1: !tt.ptr<f32> {tt.divisibility = 16 : i32} loc("/mnt/home/douliyang/triton-workspace/triton-tutorial/tutorial/Triton-101/Debug/vector_add.py":30:0), %arg2: !tt.ptr<f32> {tt.divisibility = 16 : i32} loc("/mnt/home/douliyang/triton-workspace/triton-tutorial/tutorial/Triton-101/Debug/vector_add.py":30:0), %arg3: i32 {tt.divisibility = 16 : i32} loc("/mnt/home/douliyang/triton-workspace/triton-tutorial/tutorial/Triton-101/Debug/vector_add.py":30:0)) attributes {noinline = false} {
    %c1024_i32 = arith.constant 1024 : i32 loc(#loc1)
    %0 = tt.get_program_id x : i32 loc(#loc2)
    %1 = arith.muli %0, %c1024_i32 : i32 loc(#loc3)
    %2 = tt.make_range {end = 1024 : i32, start = 0 : i32} : tensor<1024xi32, #blocked> loc(#loc4)
    %3 = tt.splat %1 : i32 -> tensor<1024xi32, #blocked> loc(#loc5)
    %4 = arith.addi %3, %2 : tensor<1024xi32, #blocked> loc(#loc5)
    %5 = tt.splat %arg3 : i32 -> tensor<1024xi32, #blocked> loc(#loc6)
    %6 = arith.cmpi slt, %4, %5 : tensor<1024xi32, #blocked> loc(#loc6)
    %7 = tt.splat %arg0 : !tt.ptr<f32> -> tensor<1024x!tt.ptr<f32>, #blocked> loc(#loc7)
    %8 = tt.addptr %7, %4 : tensor<1024x!tt.ptr<f32>, #blocked>, tensor<1024xi32, #blocked> loc(#loc7)
    %9 = tt.load %8, %6 : tensor<1024x!tt.ptr<f32>, #blocked> loc(#loc8)
…
#loc8 = loc("/mnt/home/douliyang/triton-workspace/triton-tutorial/tutorial/Triton-101/Debug/vector_add.py":58:16)
#loc9 = loc("/mnt/home/douliyang/triton-workspace/triton-tutorial/tutorial/Triton-101/Debug/vector_add.py":59:24)
#loc10 = loc("/mnt/home/douliyang/triton-workspace/triton-tutorial/tutorial/Triton-101/Debug/vector_add.py":59:16)
#loc11 = loc("/mnt/home/douliyang/triton-workspace/triton-tutorial/tutorial/Triton-101/Debug/vector_add.py":60:17)
#loc12 = loc("/mnt/home/douliyang/triton-workspace/triton-tutorial/tutorial/Triton-101/Debug/vector_add.py":62:26)
#loc13 = loc("/mnt/home/douliyang/triton-workspace/triton-tutorial/tutorial/Triton-101/Debug/vector_add.py":62:35)
#loc14 = loc("/mnt/home/douliyang/triton-workspace/triton-tutorial/tutorial/Triton-101/Debug/vector_add.py":62:4)


// -----// IR Dump Before Canonicalizer (canonicalize) ('builtin.module' operation) //----- //
#loc = loc("/mnt/home/douliyang/triton-workspace/triton-tutorial/tutorial/Triton-101/Debug/vector_add.py":30:0)
module attributes {ttg.global_scratch_memory_alignment = 1 : i32, ttg.global_scratch_memory_size = 0 : i32, "ttg.num-ctas" = 1 : i32, "ttg.num-warps" = 4 : i32, ttg.shared = 0 : i32, ttg.target = "cuda:86", ttg.tensor_memory_size = 0 : i32, "ttg.threads-per-warp" = 32 : i32, "ttg.total-num-warps" = 4 : i32} {
  llvm.mlir.global external @global_smem() {addr_space = 3 : i32, alignment = 16 : i64} : !llvm.array<0 x i8> loc(#loc)
  llvm.func @add_kernel(%arg0: !llvm.ptr<1> {tt.divisibility = 16 : i32} loc("/mnt/home/douliyang/triton-workspace/triton-tutorial/tutorial/Triton-101/Debug/vector_add.py":30:0), %arg1: !llvm.ptr<1> {tt.divisibility = 16 : i32} loc("/mnt/home/douliyang/triton-workspace/triton-tutorial/tutorial/Triton-101/Debug/vector_add.py":30:0), %arg2: !llvm.ptr<1> {tt.divisibility = 16 : i32} loc("/mnt/home/douliyang/triton-workspace/triton-tutorial/tutorial/Triton-101/Debug/vector_add.py":30:0), %arg3: i32 {tt.divisibility = 16 : i32} loc("/mnt/home/douliyang/triton-workspace/triton-tutorial/tutorial/Triton-101/Debug/vector_add.py":30:0), %arg4: !llvm.ptr<1> loc("/mnt/home/douliyang/triton-workspace/triton-tutorial/tutorial/Triton-101/Debug/vector_add.py":30:0)) attributes {noinline = false, nvvm.kernel = 1 : ui1, nvvm.reqntid = array<i32: 128>, ttg.global_scratch_memory_alignment = 1 : i32, ttg.global_scratch_memory_size = 0 : i32} {
    %0 = llvm.mlir.undef : vector<1xf32> loc(#loc1)
    %1 = llvm.mlir.constant(512 : i32) : i32 loc(#loc1)
    %2 = llvm.mlir.constant(2 : i32) : i32 loc(#loc1)
    %3 = llvm.mlir.constant(5 : i32) : i32 loc(#loc1)
    %4 = llvm.mlir.constant(0 : i32) : i32 loc(#loc1)
    %5 = llvm.mlir.constant(32 : i32) : i32 loc(#loc1)
    %6 = llvm.mlir.constant(127 : i32) : i32 loc(#loc1)
    %7 = llvm.mlir.constant(0 : index) : i32 loc(#loc1)
    %8 = llvm.mlir.constant(1024 : i32) : i32 loc(#loc1)
    %9 = llvm.call_intrinsic "llvm.nvvm.read.ptx.sreg.ctaid.x"() : () -> i32 loc(#loc2)
    %10 = llvm.mul %9, %8 : i32 loc(#loc3)
    %11 = nvvm.read.ptx.sreg.tid.x : i32 loc(#loc4)
    %12 = llvm.and %11, %6 : i32 loc(#loc4)
    %13 = llvm.urem %12, %5 : i32 loc(#loc4)
    %14 = llvm.udiv %12, %5 : i32 loc(#loc4)
    %15 = llvm.shl %13, %4 : i32 loc(#loc4)
    %16 = llvm.or %4, %15 : i32 loc(#loc4)
    %17 = llvm.shl %14, %3 : i32 loc(#loc4)
    %18 = llvm.or %16, %17 : i32 loc(#loc4)
    %19 = llvm.or %18, %4 : i32 loc(#loc4)
    %20 = llvm.and %19, %6 : i32 loc(#loc4)
    %21 = llvm.shl %20, %2 : i32 loc(#loc4)
    %22 = llvm.xor %4, %21 : i32 loc(#loc4)
    %23 = llvm.xor %4, %22 : i32 loc(#loc4)
    %24 = llvm.xor %23, %4 : i32 loc(#loc4)
    %25 = llvm.xor %23, %1 : i32 loc(#loc4)
    %26 = llvm.add %24, %7 : i32 loc(#loc4)
    %27 = llvm.add %25, %7 : i32 loc(#loc4)
    %28 = llvm.add %10, %26 : i32 loc(#loc5)
    %29 = llvm.add %10, %27 : i32 loc(#loc5)
    %30 = llvm.icmp "slt" %28, %arg3 : i32 loc(#loc6)
    %31 = llvm.icmp "slt" %29, %arg3 : i32 loc(#loc6)
    %32 = llvm.getelementptr %arg0[%28] : (!llvm.ptr<1>, i32) -> !llvm.ptr<1>, f32 loc(#loc7)
    %33 = llvm.getelementptr %arg0[%29] : (!llvm.ptr<1>, i32) -> !llvm.ptr<1>, f32 loc(#loc7)
    %34 = llvm.inline_asm has_side_effects asm_dialect = att operand_attrs = [] "mov.u32 $0, 0x0;\0A\09mov.u32 $1, 0x0;\0A\09mov.u32 $2, 0x0;\0A\09mov.u32 $3, 0x0;\0A\09@$5 ld.global.v4.b32 { $0, $1, $2, $3 }, [ $4 + 0 ];", "=r,=r,=r,=r,l,b" %32, %30 : (!llvm.ptr<1>, i1) -> !llvm.struct<(i32, i32, i32, i32)> loc(#loc8)
    %35 = llvm.extractvalue %34[0] : !llvm.struct<(i32, i32, i32, i32)>  loc(#loc8)
    %36 = llvm.bitcast %35 : i32 to vector<1xf32> loc(#loc8)
    %37 = llvm.extractvalue %34[1] : !llvm.struct<(i32, i32, i32, i32)>  loc(#loc8)
    %38 = llvm.bitcast %37 : i32 to vector<1xf32> loc(#loc8)
    %39 = llvm.extractvalue %34[2] : !llvm.struct<(i32, i32, i32, i32)>  loc(#loc8)
    %40 = llvm.bitcast %39 : i32 to vector<1xf32> loc(#loc8)
    %41 = llvm.extractvalue %34[3] : !llvm.struct<(i32, i32, i32, i32)>  loc(#loc8)
    %42 = llvm.bitcast %41 : i32 to vector<1xf32> loc(#loc8)
    %43 = llvm.extractelement %36[%7 : i32] : vector<1xf32> loc(#loc8)
    %44 = llvm.extractelement %38[%7 : i32] : vector<1xf32> loc(#loc8)
    %45 = llvm.extractelement %40[%7 : i32] : vector<1xf32> loc(#loc8)
    %46 = llvm.extractelement %42[%7 : i32] : vector<1xf32> loc(#loc8)
    %47 = llvm.inline_asm has_side_effects asm_dialect = att operand_attrs = [] "mov.u32 $0, 0x0;\0A\09mov.u32 $1, 0x0;\0A\09mov.u32 $2, 0x0;\0A\09mov.u32 $3, 0x0;\0A\09@$5 ld.global.v4.b32 { $0, $1, $2, $3 }, [ $4 + 0 ];", "=r,=r,=r,=r,l,b" %33, %31 : (!llvm.ptr<1>, i1) -> !llvm.struct<(i32, i32, i32, i32)> loc(#loc8)
    %48 = llvm.extractvalue %47[0] : !llvm.struct<(i32, i32, i32, i32)>  loc(#loc8)
    %49 = llvm.bitcast %48 : i32 to vector<1xf32> loc(#loc8)
    %50 = llvm.extractvalue %47[1] : !llvm.struct<(i32, i32, i32, i32)>  loc(#loc8)
    %51 = llvm.bitcast %50 : i32 to vector<1xf32> loc(#loc8)
    %52 = llvm.extractvalue %47[2] : !llvm.struct<(i32, i32, i32, i32)>  loc(#loc8)
    %53 = llvm.bitcast %52 : i32 to vector<1xf32> loc(#loc8)
    %54 = llvm.extractvalue %47[3] : !llvm.struct<(i32, i32, i32, i32)>  loc(#loc8)
    %55 = llvm.bitcast %54 : i32 to vector<1xf32> loc(#loc8)
    %56 = llvm.extractelement %49[%7 : i32] : vector<1xf32> loc(#loc8)
    %57 = llvm.extractelement %51[%7 : i32] : vector<1xf32> loc(#loc8)
    %58 = llvm.extractelement %53[%7 : i32] : vector<1xf32> loc(#loc8)
    %59 = llvm.extractelement %55[%7 : i32] : vector<1xf32> loc(#loc8)
    %60 = llvm.getelementptr %arg1[%28] : (!llvm.ptr<1>, i32) -> !llvm.ptr<1>, f32 loc(#loc9)
    %61 = llvm.getelementptr %arg1[%29] : (!llvm.ptr<1>, i32) -> !llvm.ptr<1>, f32 loc(#loc9)
    %62 = llvm.inline_asm has_side_effects asm_dialect = att operand_attrs = [] "mov.u32 $0, 0x0;\0A\09mov.u32 $1, 0x0;\0A\09mov.u32 $2, 0x0;\0A\09mov.u32 $3, 0x0;\0A\09@$5 ld.global.v4.b32 { $0, $1, $2, $3 }, [ $4 + 0 ];", "=r,=r,=r,=r,l,b" %60, %30 : (!llvm.ptr<1>, i1) -> !llvm.struct<(i32, i32, i32, i32)> loc(#loc10)
    %63 = llvm.extractvalue %62[0] : !llvm.struct<(i32, i32, i32, i32)>  loc(#loc10)
    %64 = llvm.bitcast %63 : i32 to vector<1xf32> loc(#loc10)
    %65 = llvm.extractvalue %62[1] : !llvm.struct<(i32, i32, i32, i32)>  loc(#loc10)
    %66 = llvm.bitcast %65 : i32 to vector<1xf32> loc(#loc10)
    %67 = llvm.extractvalue %62[2] : !llvm.struct<(i32, i32, i32, i32)>  loc(#loc10)
    %68 = llvm.bitcast %67 : i32 to vector<1xf32> loc(#loc10)
    %69 = llvm.extractvalue %62[3] : !llvm.struct<(i32, i32, i32, i32)>  loc(#loc10)
    %70 = llvm.bitcast %69 : i32 to vector<1xf32> loc(#loc10)
    %71 = llvm.extractelement %64[%7 : i32] : vector<1xf32> loc(#loc10)
    %72 = llvm.extractelement %66[%7 : i32] : vector<1xf32> loc(#loc10)
    %73 = llvm.extractelement %68[%7 : i32] : vector<1xf32> loc(#loc10)
    %74 = llvm.extractelement %70[%7 : i32] : vector<1xf32> loc(#loc10)
    %75 = llvm.inline_asm has_side_effects asm_dialect = att operand_attrs = [] "mov.u32 $0, 0x0;\0A\09mov.u32 $1, 0x0;\0A\09mov.u32 $2, 0x0;\0A\09mov.u32 $3, 0x0;\0A\09@$5 ld.global.v4.b32 { $0, $1, $2, $3 }, [ $4 + 0 ];", "=r,=r,=r,=r,l,b" %61, %31 : (!llvm.ptr<1>, i1) -> !llvm.struct<(i32, i32, i32, i32)> loc(#loc10)
    %76 = llvm.extractvalue %75[0] : !llvm.struct<(i32, i32, i32, i32)>  loc(#loc10)
    %77 = llvm.bitcast %76 : i32 to vector<1xf32> loc(#loc10)
    %78 = llvm.extractvalue %75[1] : !llvm.struct<(i32, i32, i32, i32)>  loc(#loc10)
    %79 = llvm.bitcast %78 : i32 to vector<1xf32> loc(#loc10)
    %80 = llvm.extractvalue %75[2] : !llvm.struct<(i32, i32, i32, i32)>  loc(#loc10)
    %81 = llvm.bitcast %80 : i32 to vector<1xf32> loc(#loc10)
    %82 = llvm.extractvalue %75[3] : !llvm.struct<(i32, i32, i32, i32)>  loc(#loc10)
    %83 = llvm.bitcast %82 : i32 to vector<1xf32> loc(#loc10)
    %84 = llvm.extractelement %77[%7 : i32] : vector<1xf32> loc(#loc10)
    %85 = llvm.extractelement %79[%7 : i32] : vector<1xf32> loc(#loc10)
    %86 = llvm.extractelement %81[%7 : i32] : vector<1xf32> loc(#loc10)
    %87 = llvm.extractelement %83[%7 : i32] : vector<1xf32> loc(#loc10)
    %88 = llvm.fadd %43, %71 : f32 loc(#loc11)
    %89 = llvm.fadd %44, %72 : f32 loc(#loc11)
    %90 = llvm.fadd %45, %73 : f32 loc(#loc11)
    %91 = llvm.fadd %46, %74 : f32 loc(#loc11)
    %92 = llvm.fadd %56, %84 : f32 loc(#loc11)
    %93 = llvm.fadd %57, %85 : f32 loc(#loc11)
    %94 = llvm.fadd %58, %86 : f32 loc(#loc11)
    %95 = llvm.fadd %59, %87 : f32 loc(#loc11)
    %96 = llvm.getelementptr %arg2[%28] : (!llvm.ptr<1>, i32) -> !llvm.ptr<1>, f32 loc(#loc12)
    %97 = llvm.getelementptr %arg2[%29] : (!llvm.ptr<1>, i32) -> !llvm.ptr<1>, f32 loc(#loc12)
    %98 = llvm.insertelement %88, %0[%4 : i32] : vector<1xf32> loc(#loc13)
    %99 = llvm.bitcast %98 : vector<1xf32> to i32 loc(#loc13)
    %100 = llvm.insertelement %89, %0[%4 : i32] : vector<1xf32> loc(#loc13)
    %101 = llvm.bitcast %100 : vector<1xf32> to i32 loc(#loc13)
    %102 = llvm.insertelement %90, %0[%4 : i32] : vector<1xf32> loc(#loc13)
    %103 = llvm.bitcast %102 : vector<1xf32> to i32 loc(#loc13)
    %104 = llvm.insertelement %91, %0[%4 : i32] : vector<1xf32> loc(#loc13)
    %105 = llvm.bitcast %104 : vector<1xf32> to i32 loc(#loc13)
    %106 = llvm.inline_asm has_side_effects asm_dialect = att operand_attrs = [] "@$5 st.global.v4.b32 [ $4 + 0 ], { $0, $1, $2, $3 };", "r,r,r,r,l,b" %99, %101, %103, %105, %96, %30 : (i32, i32, i32, i32, !llvm.ptr<1>, i1) -> !llvm.void loc(#loc13)
    %107 = llvm.insertelement %92, %0[%4 : i32] : vector<1xf32> loc(#loc13)
    %108 = llvm.bitcast %107 : vector<1xf32> to i32 loc(#loc13)
    %109 = llvm.insertelement %93, %0[%4 : i32] : vector<1xf32> loc(#loc13)
    %110 = llvm.bitcast %109 : vector<1xf32> to i32 loc(#loc13)
    %111 = llvm.insertelement %94, %0[%4 : i32] : vector<1xf32> loc(#loc13)
    %112 = llvm.bitcast %111 : vector<1xf32> to i32 loc(#loc13)
    %113 = llvm.insertelement %95, %0[%4 : i32] : vector<1xf32> loc(#loc13)
    %114 = llvm.bitcast %113 : vector<1xf32> to i32 loc(#loc13)
    %115 = llvm.inline_asm has_side_effects asm_dialect = att operand_attrs = [] "@$5 st.global.v4.b32 [ $4 + 0 ], { $0, $1, $2, $3 };", "r,r,r,r,l,b" %108, %110, %112, %114, %97, %31 : (i32, i32, i32, i32, !llvm.ptr<1>, i1) -> !llvm.void loc(#loc13)
    llvm.return loc(#loc14)
  } loc(#loc)
} loc(#loc)
#loc1 = loc(unknown)
#loc2 = loc("/mnt/home/douliyang/triton-workspace/triton-tutorial/tutorial/Triton-101/Debug/vector_add.py":39:24)
#loc3 = loc("/mnt/home/douliyang/triton-workspace/triton-tutorial/tutorial/Triton-101/Debug/vector_add.py":52:24)
#loc4 = loc("/mnt/home/douliyang/triton-workspace/triton-tutorial/tutorial/Triton-101/Debug/vector_add.py":53:41)
#loc5 = loc("/mnt/home/douliyang/triton-workspace/triton-tutorial/tutorial/Triton-101/Debug/vector_add.py":53:28)
#loc6 = loc("/mnt/home/douliyang/triton-workspace/triton-tutorial/tutorial/Triton-101/Debug/vector_add.py":55:21)
#loc7 = loc("/mnt/home/douliyang/triton-workspace/triton-tutorial/tutorial/Triton-101/Debug/vector_add.py":58:24)
#loc8 = loc("/mnt/home/douliyang/triton-workspace/triton-tutorial/tutorial/Triton-101/Debug/vector_add.py":58:16)
#loc9 = loc("/mnt/home/douliyang/triton-workspace/triton-tutorial/tutorial/Triton-101/Debug/vector_add.py":59:24)
#loc10 = loc("/mnt/home/douliyang/triton-workspace/triton-tutorial/tutorial/Triton-101/Debug/vector_add.py":59:16)
#loc11 = loc("/mnt/home/douliyang/triton-workspace/triton-tutorial/tutorial/Triton-101/Debug/vector_add.py":60:17)
#loc12 = loc("/mnt/home/douliyang/triton-workspace/triton-tutorial/tutorial/Triton-101/Debug/vector_add.py":62:26)
#loc13 = loc("/mnt/home/douliyang/triton-workspace/triton-tutorial/tutorial/Triton-101/Debug/vector_add.py":62:35)
#loc14 = loc("/mnt/home/douliyang/triton-workspace/triton-tutorial/tutorial/Triton-101/Debug/vector_add.py":62:4)


// -----// IR Dump Before CSE (cse) ('builtin.module' operation) //----- //
#loc = loc("/mnt/home/douliyang/triton-workspace/triton-tutorial/tutorial/Triton-101/Debug/vector_add.py":30:0)
module attributes {ttg.global_scratch_memory_alignment = 1 : i32, ttg.global_scratch_memory_size = 0 : i32, "ttg.num-ctas" = 1 : i32, "ttg.num-warps" = 4 : i32, ttg.shared = 0 : i32, ttg.target = "cuda:86", ttg.tensor_memory_size = 0 : i32, "ttg.threads-per-warp" = 32 : i32, "ttg.total-num-warps" = 4 : i32} {
  llvm.mlir.global external @global_smem() {addr_space = 3 : i32, alignment = 16 : i64} : !llvm.array<0 x i8> loc(#loc)
  llvm.func @add_kernel(%arg0: !llvm.ptr<1> {tt.divisibility = 16 : i32} loc("/mnt/home/douliyang/triton-workspace/triton-tutorial/tutorial/Triton-101/Debug/vector_add.py":30:0), %arg1: !llvm.ptr<1> {tt.divisibility = 16 : i32} loc("/mnt/home/douliyang/triton-workspace/triton-tutorial/tutorial/Triton-101/Debug/vector_add.py":30:0), %arg2: !llvm.ptr<1> {tt.divisibility = 16 : i32} loc("/mnt/home/douliyang/triton-workspace/triton-tutorial/tutorial/Triton-101/Debug/vector_add.py":30:0), %arg3: i32 {tt.divisibility = 16 : i32} loc("/mnt/home/douliyang/triton-workspace/triton-tutorial/tutorial/Triton-101/Debug/vector_add.py":30:0), %arg4: !llvm.ptr<1> loc("/mnt/home/douliyang/triton-workspace/triton-tutorial/tutorial/Triton-101/Debug/vector_add.py":30:0)) attributes {noinline = false, nvvm.kernel = 1 : ui1, nvvm.reqntid = array<i32: 128>, ttg.global_scratch_memory_alignment = 1 : i32, ttg.global_scratch_memory_size = 0 : i32} {
    %0 = llvm.mlir.undef : vector<1xf32> loc(#loc1)
    %1 = llvm.mlir.constant(512 : i32) : i32 loc(#loc1)
    %2 = llvm.mlir.constant(2 : i32) : i32 loc(#loc1)
    %3 = llvm.mlir.constant(5 : i32) : i32 loc(#loc1)
    %4 = llvm.mlir.constant(0 : i32) : i32 loc(#loc1)
    %5 = llvm.mlir.constant(32 : i32) : i32 loc(#loc1)
    %6 = llvm.mlir.constant(127 : i32) : i32 loc(#loc1)
    %7 = llvm.mlir.constant(0 : index) : i32 loc(#loc1)
    %8 = llvm.mlir.constant(1024 : i32) : i32 loc(#loc1)
    %9 = llvm.call_intrinsic "llvm.nvvm.read.ptx.sreg.ctaid.x"() : () -> i32 loc(#loc2)
    %10 = llvm.mul %9, %8 : i32 loc(#loc3)
    %11 = nvvm.read.ptx.sreg.tid.x : i32 loc(#loc4)
    %12 = llvm.and %11, %6 : i32 loc(#loc4)
    %13 = llvm.urem %12, %5 : i32 loc(#loc4)
    %14 = llvm.udiv %12, %5 : i32 loc(#loc4)
    %15 = llvm.shl %13, %4 : i32 loc(#loc4)
    %16 = llvm.or %4, %15 : i32 loc(#loc4)
    %17 = llvm.shl %14, %3 : i32 loc(#loc4)
    %18 = llvm.or %16, %17 : i32 loc(#loc4)
    %19 = llvm.or %18, %4 : i32 loc(#loc4)
    %20 = llvm.and %19, %6 : i32 loc(#loc4)
    %21 = llvm.shl %20, %2 : i32 loc(#loc4)
    %22 = llvm.xor %4, %21 : i32 loc(#loc4)
    %23 = llvm.xor %4, %22 : i32 loc(#loc4)
    %24 = llvm.xor %23, %4 : i32 loc(#loc4)
    %25 = llvm.xor %23, %1 : i32 loc(#loc4)
    %26 = llvm.add %24, %7 : i32 loc(#loc4)
    %27 = llvm.add %25, %7 : i32 loc(#loc4)
    %28 = llvm.add %10, %26 : i32 loc(#loc5)
    %29 = llvm.add %10, %27 : i32 loc(#loc5)
    %30 = llvm.icmp "slt" %28, %arg3 : i32 loc(#loc6)
    %31 = llvm.icmp "slt" %29, %arg3 : i32 loc(#loc6)
    %32 = llvm.getelementptr %arg0[%28] : (!llvm.ptr<1>, i32) -> !llvm.ptr<1>, f32 loc(#loc7)
    %33 = llvm.getelementptr %arg0[%29] : (!llvm.ptr<1>, i32) -> !llvm.ptr<1>, f32 loc(#loc7)
    %34 = llvm.inline_asm has_side_effects asm_dialect = att operand_attrs = [] "mov.u32 $0, 0x0;\0A\09mov.u32 $1, 0x0;\0A\09mov.u32 $2, 0x0;\0A\09mov.u32 $3, 0x0;\0A\09@$5 ld.global.v4.b32 { $0, $1, $2, $3 }, [ $4 + 0 ];", "=r,=r,=r,=r,l,b" %32, %30 : (!llvm.ptr<1>, i1) -> !llvm.struct<(i32, i32, i32, i32)> loc(#loc8)
    %35 = llvm.extractvalue %34[0] : !llvm.struct<(i32, i32, i32, i32)>  loc(#loc8)
    %36 = llvm.bitcast %35 : i32 to vector<1xf32> loc(#loc8)
    %37 = llvm.extractvalue %34[1] : !llvm.struct<(i32, i32, i32, i32)>  loc(#loc8)
    %38 = llvm.bitcast %37 : i32 to vector<1xf32> loc(#loc8)
    %39 = llvm.extractvalue %34[2] : !llvm.struct<(i32, i32, i32, i32)>  loc(#loc8)
    %40 = llvm.bitcast %39 : i32 to vector<1xf32> loc(#loc8)
    %41 = llvm.extractvalue %34[3] : !llvm.struct<(i32, i32, i32, i32)>  loc(#loc8)
    %42 = llvm.bitcast %41 : i32 to vector<1xf32> loc(#loc8)
    %43 = llvm.extractelement %36[%7 : i32] : vector<1xf32> loc(#loc8)
    %44 = llvm.extractelement %38[%7 : i32] : vector<1xf32> loc(#loc8)
    %45 = llvm.extractelement %40[%7 : i32] : vector<1xf32> loc(#loc8)
    %46 = llvm.extractelement %42[%7 : i32] : vector<1xf32> loc(#loc8)
    %47 = llvm.inline_asm has_side_effects asm_dialect = att operand_attrs = [] "mov.u32 $0, 0x0;\0A\09mov.u32 $1, 0x0;\0A\09mov.u32 $2, 0x0;\0A\09mov.u32 $3, 0x0;\0A\09@$5 ld.global.v4.b32 { $0, $1, $2, $3 }, [ $4 + 0 ];", "=r,=r,=r,=r,l,b" %33, %31 : (!llvm.ptr<1>, i1) -> !llvm.struct<(i32, i32, i32, i32)> loc(#loc8)
    %48 = llvm.extractvalue %47[0] : !llvm.struct<(i32, i32, i32, i32)>  loc(#loc8)
    %49 = llvm.bitcast %48 : i32 to vector<1xf32> loc(#loc8)
    %50 = llvm.extractvalue %47[1] : !llvm.struct<(i32, i32, i32, i32)>  loc(#loc8)
    %51 = llvm.bitcast %50 : i32 to vector<1xf32> loc(#loc8)
    %52 = llvm.extractvalue %47[2] : !llvm.struct<(i32, i32, i32, i32)>  loc(#loc8)
    %53 = llvm.bitcast %52 : i32 to vector<1xf32> loc(#loc8)
    %54 = llvm.extractvalue %47[3] : !llvm.struct<(i32, i32, i32, i32)>  loc(#loc8)
    %55 = llvm.bitcast %54 : i32 to vector<1xf32> loc(#loc8)
    %56 = llvm.extractelement %49[%7 : i32] : vector<1xf32> loc(#loc8)
    %57 = llvm.extractelement %51[%7 : i32] : vector<1xf32> loc(#loc8)
    %58 = llvm.extractelement %53[%7 : i32] : vector<1xf32> loc(#loc8)
    %59 = llvm.extractelement %55[%7 : i32] : vector<1xf32> loc(#loc8)
    %60 = llvm.getelementptr %arg1[%28] : (!llvm.ptr<1>, i32) -> !llvm.ptr<1>, f32 loc(#loc9)
    %61 = llvm.getelementptr %arg1[%29] : (!llvm.ptr<1>, i32) -> !llvm.ptr<1>, f32 loc(#loc9)
    %62 = llvm.inline_asm has_side_effects asm_dialect = att operand_attrs = [] "mov.u32 $0, 0x0;\0A\09mov.u32 $1, 0x0;\0A\09mov.u32 $2, 0x0;\0A\09mov.u32 $3, 0x0;\0A\09@$5 ld.global.v4.b32 { $0, $1, $2, $3 }, [ $4 + 0 ];", "=r,=r,=r,=r,l,b" %60, %30 : (!llvm.ptr<1>, i1) -> !llvm.struct<(i32, i32, i32, i32)> loc(#loc10)
    %63 = llvm.extractvalue %62[0] : !llvm.struct<(i32, i32, i32, i32)>  loc(#loc10)
    %64 = llvm.bitcast %63 : i32 to vector<1xf32> loc(#loc10)
    %65 = llvm.extractvalue %62[1] : !llvm.struct<(i32, i32, i32, i32)>  loc(#loc10)
    %66 = llvm.bitcast %65 : i32 to vector<1xf32> loc(#loc10)
    %67 = llvm.extractvalue %62[2] : !llvm.struct<(i32, i32, i32, i32)>  loc(#loc10)
    %68 = llvm.bitcast %67 : i32 to vector<1xf32> loc(#loc10)
    %69 = llvm.extractvalue %62[3] : !llvm.struct<(i32, i32, i32, i32)>  loc(#loc10)
    %70 = llvm.bitcast %69 : i32 to vector<1xf32> loc(#loc10)
    %71 = llvm.extractelement %64[%7 : i32] : vector<1xf32> loc(#loc10)
    %72 = llvm.extractelement %66[%7 : i32] : vector<1xf32> loc(#loc10)
    %73 = llvm.extractelement %68[%7 : i32] : vector<1xf32> loc(#loc10)
    %74 = llvm.extractelement %70[%7 : i32] : vector<1xf32> loc(#loc10)
    %75 = llvm.inline_asm has_side_effects asm_dialect = att operand_attrs = [] "mov.u32 $0, 0x0;\0A\09mov.u32 $1, 0x0;\0A\09mov.u32 $2, 0x0;\0A\09mov.u32 $3, 0x0;\0A\09@$5 ld.global.v4.b32 { $0, $1, $2, $3 }, [ $4 + 0 ];", "=r,=r,=r,=r,l,b" %61, %31 : (!llvm.ptr<1>, i1) -> !llvm.struct<(i32, i32, i32, i32)> loc(#loc10)
    %76 = llvm.extractvalue %75[0] : !llvm.struct<(i32, i32, i32, i32)>  loc(#loc10)
    %77 = llvm.bitcast %76 : i32 to vector<1xf32> loc(#loc10)
    %78 = llvm.extractvalue %75[1] : !llvm.struct<(i32, i32, i32, i32)>  loc(#loc10)
    %79 = llvm.bitcast %78 : i32 to vector<1xf32> loc(#loc10)
    %80 = llvm.extractvalue %75[2] : !llvm.struct<(i32, i32, i32, i32)>  loc(#loc10)
    %81 = llvm.bitcast %80 : i32 to vector<1xf32> loc(#loc10)
    %82 = llvm.extractvalue %75[3] : !llvm.struct<(i32, i32, i32, i32)>  loc(#loc10)
    %83 = llvm.bitcast %82 : i32 to vector<1xf32> loc(#loc10)
    %84 = llvm.extractelement %77[%7 : i32] : vector<1xf32> loc(#loc10)
    %85 = llvm.extractelement %79[%7 : i32] : vector<1xf32> loc(#loc10)
    %86 = llvm.extractelement %81[%7 : i32] : vector<1xf32> loc(#loc10)
    %87 = llvm.extractelement %83[%7 : i32] : vector<1xf32> loc(#loc10)
    %88 = llvm.fadd %43, %71 : f32 loc(#loc11)
    %89 = llvm.fadd %44, %72 : f32 loc(#loc11)
    %90 = llvm.fadd %45, %73 : f32 loc(#loc11)
    %91 = llvm.fadd %46, %74 : f32 loc(#loc11)
    %92 = llvm.fadd %56, %84 : f32 loc(#loc11)
    %93 = llvm.fadd %57, %85 : f32 loc(#loc11)
    %94 = llvm.fadd %58, %86 : f32 loc(#loc11)
    %95 = llvm.fadd %59, %87 : f32 loc(#loc11)
    %96 = llvm.getelementptr %arg2[%28] : (!llvm.ptr<1>, i32) -> !llvm.ptr<1>, f32 loc(#loc12)
    %97 = llvm.getelementptr %arg2[%29] : (!llvm.ptr<1>, i32) -> !llvm.ptr<1>, f32 loc(#loc12)
    %98 = llvm.insertelement %88, %0[%4 : i32] : vector<1xf32> loc(#loc13)
    %99 = llvm.bitcast %98 : vector<1xf32> to i32 loc(#loc13)
    %100 = llvm.insertelement %89, %0[%4 : i32] : vector<1xf32> loc(#loc13)
    %101 = llvm.bitcast %100 : vector<1xf32> to i32 loc(#loc13)
    %102 = llvm.insertelement %90, %0[%4 : i32] : vector<1xf32> loc(#loc13)
    %103 = llvm.bitcast %102 : vector<1xf32> to i32 loc(#loc13)
    %104 = llvm.insertelement %91, %0[%4 : i32] : vector<1xf32> loc(#loc13)
    %105 = llvm.bitcast %104 : vector<1xf32> to i32 loc(#loc13)
    %106 = llvm.inline_asm has_side_effects asm_dialect = att operand_attrs = [] "@$5 st.global.v4.b32 [ $4 + 0 ], { $0, $1, $2, $3 };", "r,r,r,r,l,b" %99, %101, %103, %105, %96, %30 : (i32, i32, i32, i32, !llvm.ptr<1>, i1) -> !llvm.void loc(#loc13)
    %107 = llvm.insertelement %92, %0[%4 : i32] : vector<1xf32> loc(#loc13)
    %108 = llvm.bitcast %107 : vector<1xf32> to i32 loc(#loc13)
    %109 = llvm.insertelement %93, %0[%4 : i32] : vector<1xf32> loc(#loc13)
    %110 = llvm.bitcast %109 : vector<1xf32> to i32 loc(#loc13)
    %111 = llvm.insertelement %94, %0[%4 : i32] : vector<1xf32> loc(#loc13)
    %112 = llvm.bitcast %111 : vector<1xf32> to i32 loc(#loc13)
    %113 = llvm.insertelement %95, %0[%4 : i32] : vector<1xf32> loc(#loc13)
    %114 = llvm.bitcast %113 : vector<1xf32> to i32 loc(#loc13)
    %115 = llvm.inline_asm has_side_effects asm_dialect = att operand_attrs = [] "@$5 st.global.v4.b32 [ $4 + 0 ], { $0, $1, $2, $3 };", "r,r,r,r,l,b" %108, %110, %112, %114, %97, %31 : (i32, i32, i32, i32, !llvm.ptr<1>, i1) -> !llvm.void loc(#loc13)
    llvm.return loc(#loc14)
  } loc(#loc)
} loc(#loc)
#loc1 = loc(unknown)
#loc2 = loc("/mnt/home/douliyang/triton-workspace/triton-tutorial/tutorial/Triton-101/Debug/vector_add.py":39:24)
#loc3 = loc("/mnt/home/douliyang/triton-workspace/triton-tutorial/tutorial/Triton-101/Debug/vector_add.py":52:24)
#loc4 = loc("/mnt/home/douliyang/triton-workspace/triton-tutorial/tutorial/Triton-101/Debug/vector_add.py":53:41)
#loc5 = loc("/mnt/home/douliyang/triton-workspace/triton-tutorial/tutorial/Triton-101/Debug/vector_add.py":53:28)
#loc6 = loc("/mnt/home/douliyang/triton-workspace/triton-tutorial/tutorial/Triton-101/Debug/vector_add.py":55:21)
#loc7 = loc("/mnt/home/douliyang/triton-workspace/triton-tutorial/tutorial/Triton-101/Debug/vector_add.py":58:24)
#loc8 = loc("/mnt/home/douliyang/triton-workspace/triton-tutorial/tutorial/Triton-101/Debug/vector_add.py":58:16)
#loc9 = loc("/mnt/home/douliyang/triton-workspace/triton-tutorial/tutorial/Triton-101/Debug/vector_add.py":59:24)
#loc10 = loc("/mnt/home/douliyang/triton-workspace/triton-tutorial/tutorial/Triton-101/Debug/vector_add.py":59:16)
#loc11 = loc("/mnt/home/douliyang/triton-workspace/triton-tutorial/tutorial/Triton-101/Debug/vector_add.py":60:17)
#loc12 = loc("/mnt/home/douliyang/triton-workspace/triton-tutorial/tutorial/Triton-101/Debug/vector_add.py":62:26)
#loc13 = loc("/mnt/home/douliyang/triton-workspace/triton-tutorial/tutorial/Triton-101/Debug/vector_add.py":62:35)
#loc14 = loc("/mnt/home/douliyang/triton-workspace/triton-tutorial/tutorial/Triton-101/Debug/vector_add.py":62:4)


// -----// IR Dump Before SymbolDCE (symbol-dce) ('builtin.module' operation) //----- //
#loc = loc("/mnt/home/douliyang/triton-workspace/triton-tutorial/tutorial/Triton-101/Debug/vector_add.py":30:0)
module attributes {ttg.global_scratch_memory_alignment = 1 : i32, ttg.global_scratch_memory_size = 0 : i32, "ttg.num-ctas" = 1 : i32, "ttg.num-warps" = 4 : i32, ttg.shared = 0 : i32, ttg.target = "cuda:86", ttg.tensor_memory_size = 0 : i32, "ttg.threads-per-warp" = 32 : i32, "ttg.total-num-warps" = 4 : i32} {
  llvm.mlir.global external @global_smem() {addr_space = 3 : i32, alignment = 16 : i64} : !llvm.array<0 x i8> loc(#loc)
  llvm.func @add_kernel(%arg0: !llvm.ptr<1> {tt.divisibility = 16 : i32} loc("/mnt/home/douliyang/triton-workspace/triton-tutorial/tutorial/Triton-101/Debug/vector_add.py":30:0), %arg1: !llvm.ptr<1> {tt.divisibility = 16 : i32} loc("/mnt/home/douliyang/triton-workspace/triton-tutorial/tutorial/Triton-101/Debug/vector_add.py":30:0), %arg2: !llvm.ptr<1> {tt.divisibility = 16 : i32} loc("/mnt/home/douliyang/triton-workspace/triton-tutorial/tutorial/Triton-101/Debug/vector_add.py":30:0), %arg3: i32 {tt.divisibility = 16 : i32} loc("/mnt/home/douliyang/triton-workspace/triton-tutorial/tutorial/Triton-101/Debug/vector_add.py":30:0), %arg4: !llvm.ptr<1> loc("/mnt/home/douliyang/triton-workspace/triton-tutorial/tutorial/Triton-101/Debug/vector_add.py":30:0)) attributes {noinline = false, nvvm.kernel = 1 : ui1, nvvm.reqntid = array<i32: 128>, ttg.global_scratch_memory_alignment = 1 : i32, ttg.global_scratch_memory_size = 0 : i32} {
    %0 = llvm.mlir.undef : vector<1xf32> loc(#loc1)
    %1 = llvm.mlir.constant(512 : i32) : i32 loc(#loc1)
    %2 = llvm.mlir.constant(2 : i32) : i32 loc(#loc1)
    %3 = llvm.mlir.constant(5 : i32) : i32 loc(#loc1)
    %4 = llvm.mlir.constant(0 : i32) : i32 loc(#loc1)
    %5 = llvm.mlir.constant(32 : i32) : i32 loc(#loc1)
    %6 = llvm.mlir.constant(127 : i32) : i32 loc(#loc1)
    %7 = llvm.mlir.constant(0 : index) : i32 loc(#loc1)
    %8 = llvm.mlir.constant(1024 : i32) : i32 loc(#loc1)
    %9 = llvm.call_intrinsic "llvm.nvvm.read.ptx.sreg.ctaid.x"() : () -> i32 loc(#loc2)
    %10 = llvm.mul %9, %8 : i32 loc(#loc3)
    %11 = nvvm.read.ptx.sreg.tid.x : i32 loc(#loc4)
    %12 = llvm.and %11, %6 : i32 loc(#loc4)
    %13 = llvm.urem %12, %5 : i32 loc(#loc4)
    %14 = llvm.udiv %12, %5 : i32 loc(#loc4)
    %15 = llvm.shl %13, %4 : i32 loc(#loc4)
    %16 = llvm.or %4, %15 : i32 loc(#loc4)
    %17 = llvm.shl %14, %3 : i32 loc(#loc4)
    %18 = llvm.or %16, %17 : i32 loc(#loc4)
    %19 = llvm.or %18, %4 : i32 loc(#loc4)
    %20 = llvm.and %19, %6 : i32 loc(#loc4)
    %21 = llvm.shl %20, %2 : i32 loc(#loc4)
    %22 = llvm.xor %4, %21 : i32 loc(#loc4)
    %23 = llvm.xor %4, %22 : i32 loc(#loc4)
    %24 = llvm.xor %23, %4 : i32 loc(#loc4)
    %25 = llvm.xor %23, %1 : i32 loc(#loc4)
    %26 = llvm.add %24, %7 : i32 loc(#loc4)
    %27 = llvm.add %25, %7 : i32 loc(#loc4)
    %28 = llvm.add %10, %26 : i32 loc(#loc5)
    %29 = llvm.add %10, %27 : i32 loc(#loc5)
    %30 = llvm.icmp "slt" %28, %arg3 : i32 loc(#loc6)
    %31 = llvm.icmp "slt" %29, %arg3 : i32 loc(#loc6)
    %32 = llvm.getelementptr %arg0[%28] : (!llvm.ptr<1>, i32) -> !llvm.ptr<1>, f32 loc(#loc7)
    %33 = llvm.getelementptr %arg0[%29] : (!llvm.ptr<1>, i32) -> !llvm.ptr<1>, f32 loc(#loc7)
    %34 = llvm.inline_asm has_side_effects asm_dialect = att operand_attrs = [] "mov.u32 $0, 0x0;\0A\09mov.u32 $1, 0x0;\0A\09mov.u32 $2, 0x0;\0A\09mov.u32 $3, 0x0;\0A\09@$5 ld.global.v4.b32 { $0, $1, $2, $3 }, [ $4 + 0 ];", "=r,=r,=r,=r,l,b" %32, %30 : (!llvm.ptr<1>, i1) -> !llvm.struct<(i32, i32, i32, i32)> loc(#loc8)
    %35 = llvm.extractvalue %34[0] : !llvm.struct<(i32, i32, i32, i32)>  loc(#loc8)
    %36 = llvm.bitcast %35 : i32 to vector<1xf32> loc(#loc8)
    %37 = llvm.extractvalue %34[1] : !llvm.struct<(i32, i32, i32, i32)>  loc(#loc8)
    %38 = llvm.bitcast %37 : i32 to vector<1xf32> loc(#loc8)
    %39 = llvm.extractvalue %34[2] : !llvm.struct<(i32, i32, i32, i32)>  loc(#loc8)
    %40 = llvm.bitcast %39 : i32 to vector<1xf32> loc(#loc8)
    %41 = llvm.extractvalue %34[3] : !llvm.struct<(i32, i32, i32, i32)>  loc(#loc8)
    %42 = llvm.bitcast %41 : i32 to vector<1xf32> loc(#loc8)
    %43 = llvm.extractelement %36[%7 : i32] : vector<1xf32> loc(#loc8)
    %44 = llvm.extractelement %38[%7 : i32] : vector<1xf32> loc(#loc8)
    %45 = llvm.extractelement %40[%7 : i32] : vector<1xf32> loc(#loc8)
    %46 = llvm.extractelement %42[%7 : i32] : vector<1xf32> loc(#loc8)
    %47 = llvm.inline_asm has_side_effects asm_dialect = att operand_attrs = [] "mov.u32 $0, 0x0;\0A\09mov.u32 $1, 0x0;\0A\09mov.u32 $2, 0x0;\0A\09mov.u32 $3, 0x0;\0A\09@$5 ld.global.v4.b32 { $0, $1, $2, $3 }, [ $4 + 0 ];", "=r,=r,=r,=r,l,b" %33, %31 : (!llvm.ptr<1>, i1) -> !llvm.struct<(i32, i32, i32, i32)> loc(#loc8)
    %48 = llvm.extractvalue %47[0] : !llvm.struct<(i32, i32, i32, i32)>  loc(#loc8)
    %49 = llvm.bitcast %48 : i32 to vector<1xf32> loc(#loc8)
    %50 = llvm.extractvalue %47[1] : !llvm.struct<(i32, i32, i32, i32)>  loc(#loc8)
    %51 = llvm.bitcast %50 : i32 to vector<1xf32> loc(#loc8)
    %52 = llvm.extractvalue %47[2] : !llvm.struct<(i32, i32, i32, i32)>  loc(#loc8)
    %53 = llvm.bitcast %52 : i32 to vector<1xf32> loc(#loc8)
    %54 = llvm.extractvalue %47[3] : !llvm.struct<(i32, i32, i32, i32)>  loc(#loc8)
    %55 = llvm.bitcast %54 : i32 to vector<1xf32> loc(#loc8)
    %56 = llvm.extractelement %49[%7 : i32] : vector<1xf32> loc(#loc8)
    %57 = llvm.extractelement %51[%7 : i32] : vector<1xf32> loc(#loc8)
    %58 = llvm.extractelement %53[%7 : i32] : vector<1xf32> loc(#loc8)
    %59 = llvm.extractelement %55[%7 : i32] : vector<1xf32> loc(#loc8)
    %60 = llvm.getelementptr %arg1[%28] : (!llvm.ptr<1>, i32) -> !llvm.ptr<1>, f32 loc(#loc9)
    %61 = llvm.getelementptr %arg1[%29] : (!llvm.ptr<1>, i32) -> !llvm.ptr<1>, f32 loc(#loc9)
    %62 = llvm.inline_asm has_side_effects asm_dialect = att operand_attrs = [] "mov.u32 $0, 0x0;\0A\09mov.u32 $1, 0x0;\0A\09mov.u32 $2, 0x0;\0A\09mov.u32 $3, 0x0;\0A\09@$5 ld.global.v4.b32 { $0, $1, $2, $3 }, [ $4 + 0 ];", "=r,=r,=r,=r,l,b" %60, %30 : (!llvm.ptr<1>, i1) -> !llvm.struct<(i32, i32, i32, i32)> loc(#loc10)
    %63 = llvm.extractvalue %62[0] : !llvm.struct<(i32, i32, i32, i32)>  loc(#loc10)
    %64 = llvm.bitcast %63 : i32 to vector<1xf32> loc(#loc10)
    %65 = llvm.extractvalue %62[1] : !llvm.struct<(i32, i32, i32, i32)>  loc(#loc10)
    %66 = llvm.bitcast %65 : i32 to vector<1xf32> loc(#loc10)
    %67 = llvm.extractvalue %62[2] : !llvm.struct<(i32, i32, i32, i32)>  loc(#loc10)
    %68 = llvm.bitcast %67 : i32 to vector<1xf32> loc(#loc10)
    %69 = llvm.extractvalue %62[3] : !llvm.struct<(i32, i32, i32, i32)>  loc(#loc10)
    %70 = llvm.bitcast %69 : i32 to vector<1xf32> loc(#loc10)
    %71 = llvm.extractelement %64[%7 : i32] : vector<1xf32> loc(#loc10)
    %72 = llvm.extractelement %66[%7 : i32] : vector<1xf32> loc(#loc10)
    %73 = llvm.extractelement %68[%7 : i32] : vector<1xf32> loc(#loc10)
    %74 = llvm.extractelement %70[%7 : i32] : vector<1xf32> loc(#loc10)
    %75 = llvm.inline_asm has_side_effects asm_dialect = att operand_attrs = [] "mov.u32 $0, 0x0;\0A\09mov.u32 $1, 0x0;\0A\09mov.u32 $2, 0x0;\0A\09mov.u32 $3, 0x0;\0A\09@$5 ld.global.v4.b32 { $0, $1, $2, $3 }, [ $4 + 0 ];", "=r,=r,=r,=r,l,b" %61, %31 : (!llvm.ptr<1>, i1) -> !llvm.struct<(i32, i32, i32, i32)> loc(#loc10)
    %76 = llvm.extractvalue %75[0] : !llvm.struct<(i32, i32, i32, i32)>  loc(#loc10)
    %77 = llvm.bitcast %76 : i32 to vector<1xf32> loc(#loc10)
    %78 = llvm.extractvalue %75[1] : !llvm.struct<(i32, i32, i32, i32)>  loc(#loc10)
    %79 = llvm.bitcast %78 : i32 to vector<1xf32> loc(#loc10)
    %80 = llvm.extractvalue %75[2] : !llvm.struct<(i32, i32, i32, i32)>  loc(#loc10)
    %81 = llvm.bitcast %80 : i32 to vector<1xf32> loc(#loc10)
    %82 = llvm.extractvalue %75[3] : !llvm.struct<(i32, i32, i32, i32)>  loc(#loc10)
    %83 = llvm.bitcast %82 : i32 to vector<1xf32> loc(#loc10)
    %84 = llvm.extractelement %77[%7 : i32] : vector<1xf32> loc(#loc10)
    %85 = llvm.extractelement %79[%7 : i32] : vector<1xf32> loc(#loc10)
    %86 = llvm.extractelement %81[%7 : i32] : vector<1xf32> loc(#loc10)
    %87 = llvm.extractelement %83[%7 : i32] : vector<1xf32> loc(#loc10)
    %88 = llvm.fadd %43, %71 : f32 loc(#loc11)
    %89 = llvm.fadd %44, %72 : f32 loc(#loc11)
    %90 = llvm.fadd %45, %73 : f32 loc(#loc11)
    %91 = llvm.fadd %46, %74 : f32 loc(#loc11)
    %92 = llvm.fadd %56, %84 : f32 loc(#loc11)
    %93 = llvm.fadd %57, %85 : f32 loc(#loc11)
    %94 = llvm.fadd %58, %86 : f32 loc(#loc11)
    %95 = llvm.fadd %59, %87 : f32 loc(#loc11)
    %96 = llvm.getelementptr %arg2[%28] : (!llvm.ptr<1>, i32) -> !llvm.ptr<1>, f32 loc(#loc12)
    %97 = llvm.getelementptr %arg2[%29] : (!llvm.ptr<1>, i32) -> !llvm.ptr<1>, f32 loc(#loc12)
    %98 = llvm.insertelement %88, %0[%4 : i32] : vector<1xf32> loc(#loc13)
    %99 = llvm.bitcast %98 : vector<1xf32> to i32 loc(#loc13)
    %100 = llvm.insertelement %89, %0[%4 : i32] : vector<1xf32> loc(#loc13)
    %101 = llvm.bitcast %100 : vector<1xf32> to i32 loc(#loc13)
    %102 = llvm.insertelement %90, %0[%4 : i32] : vector<1xf32> loc(#loc13)
    %103 = llvm.bitcast %102 : vector<1xf32> to i32 loc(#loc13)
    %104 = llvm.insertelement %91, %0[%4 : i32] : vector<1xf32> loc(#loc13)
    %105 = llvm.bitcast %104 : vector<1xf32> to i32 loc(#loc13)
    %106 = llvm.inline_asm has_side_effects asm_dialect = att operand_attrs = [] "@$5 st.global.v4.b32 [ $4 + 0 ], { $0, $1, $2, $3 };", "r,r,r,r,l,b" %99, %101, %103, %105, %96, %30 : (i32, i32, i32, i32, !llvm.ptr<1>, i1) -> !llvm.void loc(#loc13)
    %107 = llvm.insertelement %92, %0[%4 : i32] : vector<1xf32> loc(#loc13)
    %108 = llvm.bitcast %107 : vector<1xf32> to i32 loc(#loc13)
    %109 = llvm.insertelement %93, %0[%4 : i32] : vector<1xf32> loc(#loc13)
    %110 = llvm.bitcast %109 : vector<1xf32> to i32 loc(#loc13)
    %111 = llvm.insertelement %94, %0[%4 : i32] : vector<1xf32> loc(#loc13)
    %112 = llvm.bitcast %111 : vector<1xf32> to i32 loc(#loc13)
    %113 = llvm.insertelement %95, %0[%4 : i32] : vector<1xf32> loc(#loc13)
    %114 = llvm.bitcast %113 : vector<1xf32> to i32 loc(#loc13)
    %115 = llvm.inline_asm has_side_effects asm_dialect = att operand_attrs = [] "@$5 st.global.v4.b32 [ $4 + 0 ], { $0, $1, $2, $3 };", "r,r,r,r,l,b" %108, %110, %112, %114, %97, %31 : (i32, i32, i32, i32, !llvm.ptr<1>, i1) -> !llvm.void loc(#loc13)
    llvm.return loc(#loc14)
  } loc(#loc)
} loc(#loc)
#loc1 = loc(unknown)
#loc2 = loc("/mnt/home/douliyang/triton-workspace/triton-tutorial/tutorial/Triton-101/Debug/vector_add.py":39:24)
#loc3 = loc("/mnt/home/douliyang/triton-workspace/triton-tutorial/tutorial/Triton-101/Debug/vector_add.py":52:24)
#loc4 = loc("/mnt/home/douliyang/triton-workspace/triton-tutorial/tutorial/Triton-101/Debug/vector_add.py":53:41)
#loc5 = loc("/mnt/home/douliyang/triton-workspace/triton-tutorial/tutorial/Triton-101/Debug/vector_add.py":53:28)
#loc6 = loc("/mnt/home/douliyang/triton-workspace/triton-tutorial/tutorial/Triton-101/Debug/vector_add.py":55:21)
#loc7 = loc("/mnt/home/douliyang/triton-workspace/triton-tutorial/tutorial/Triton-101/Debug/vector_add.py":58:24)
#loc8 = loc("/mnt/home/douliyang/triton-workspace/triton-tutorial/tutorial/Triton-101/Debug/vector_add.py":58:16)
#loc9 = loc("/mnt/home/douliyang/triton-workspace/triton-tutorial/tutorial/Triton-101/Debug/vector_add.py":59:24)
#loc10 = loc("/mnt/home/douliyang/triton-workspace/triton-tutorial/tutorial/Triton-101/Debug/vector_add.py":59:16)
#loc11 = loc("/mnt/home/douliyang/triton-workspace/triton-tutorial/tutorial/Triton-101/Debug/vector_add.py":60:17)
#loc12 = loc("/mnt/home/douliyang/triton-workspace/triton-tutorial/tutorial/Triton-101/Debug/vector_add.py":62:26)
#loc13 = loc("/mnt/home/douliyang/triton-workspace/triton-tutorial/tutorial/Triton-101/Debug/vector_add.py":62:35)
#loc14 = loc("/mnt/home/douliyang/triton-workspace/triton-tutorial/tutorial/Triton-101/Debug/vector_add.py":62:4)


// -----// IR Dump Before LLVMDIScope (enable-line-info) ('builtin.module' operation) //----- //
#loc = loc("/mnt/home/douliyang/triton-workspace/triton-tutorial/tutorial/Triton-101/Debug/vector_add.py":30:0)
module attributes {ttg.global_scratch_memory_alignment = 1 : i32, ttg.global_scratch_memory_size = 0 : i32, "ttg.num-ctas" = 1 : i32, "ttg.num-warps" = 4 : i32, ttg.shared = 0 : i32, ttg.target = "cuda:86", ttg.tensor_memory_size = 0 : i32, "ttg.threads-per-warp" = 32 : i32, "ttg.total-num-warps" = 4 : i32} {
  llvm.mlir.global external @global_smem() {addr_space = 3 : i32, alignment = 16 : i64} : !llvm.array<0 x i8> loc(#loc)
  llvm.func @add_kernel(%arg0: !llvm.ptr<1> {tt.divisibility = 16 : i32} loc("/mnt/home/douliyang/triton-workspace/triton-tutorial/tutorial/Triton-101/Debug/vector_add.py":30:0), %arg1: !llvm.ptr<1> {tt.divisibility = 16 : i32} loc("/mnt/home/douliyang/triton-workspace/triton-tutorial/tutorial/Triton-101/Debug/vector_add.py":30:0), %arg2: !llvm.ptr<1> {tt.divisibility = 16 : i32} loc("/mnt/home/douliyang/triton-workspace/triton-tutorial/tutorial/Triton-101/Debug/vector_add.py":30:0), %arg3: i32 {tt.divisibility = 16 : i32} loc("/mnt/home/douliyang/triton-workspace/triton-tutorial/tutorial/Triton-101/Debug/vector_add.py":30:0), %arg4: !llvm.ptr<1> loc("/mnt/home/douliyang/triton-workspace/triton-tutorial/tutorial/Triton-101/Debug/vector_add.py":30:0)) attributes {noinline = false, nvvm.kernel = 1 : ui1, nvvm.reqntid = array<i32: 128>, ttg.global_scratch_memory_alignment = 1 : i32, ttg.global_scratch_memory_size = 0 : i32} {
    %0 = llvm.mlir.undef : vector<1xf32> loc(#loc1)
    %1 = llvm.mlir.constant(512 : i32) : i32 loc(#loc1)
    %2 = llvm.mlir.constant(2 : i32) : i32 loc(#loc1)
    %3 = llvm.mlir.constant(5 : i32) : i32 loc(#loc1)
    %4 = llvm.mlir.constant(0 : i32) : i32 loc(#loc1)
    %5 = llvm.mlir.constant(32 : i32) : i32 loc(#loc1)
    %6 = llvm.mlir.constant(127 : i32) : i32 loc(#loc1)
    %7 = llvm.mlir.constant(0 : index) : i32 loc(#loc1)
    %8 = llvm.mlir.constant(1024 : i32) : i32 loc(#loc1)
    %9 = llvm.call_intrinsic "llvm.nvvm.read.ptx.sreg.ctaid.x"() : () -> i32 loc(#loc2)
    %10 = llvm.mul %9, %8 : i32 loc(#loc3)
    %11 = nvvm.read.ptx.sreg.tid.x : i32 loc(#loc4)
    %12 = llvm.and %11, %6 : i32 loc(#loc4)
    %13 = llvm.urem %12, %5 : i32 loc(#loc4)
    %14 = llvm.udiv %12, %5 : i32 loc(#loc4)
    %15 = llvm.shl %13, %4 : i32 loc(#loc4)
    %16 = llvm.or %4, %15 : i32 loc(#loc4)
    %17 = llvm.shl %14, %3 : i32 loc(#loc4)
    %18 = llvm.or %16, %17 : i32 loc(#loc4)
    %19 = llvm.or %18, %4 : i32 loc(#loc4)
    %20 = llvm.and %19, %6 : i32 loc(#loc4)
    %21 = llvm.shl %20, %2 : i32 loc(#loc4)
    %22 = llvm.xor %4, %21 : i32 loc(#loc4)
    %23 = llvm.xor %4, %22 : i32 loc(#loc4)
    %24 = llvm.xor %23, %4 : i32 loc(#loc4)
    %25 = llvm.xor %23, %1 : i32 loc(#loc4)
    %26 = llvm.add %24, %7 : i32 loc(#loc4)
    %27 = llvm.add %25, %7 : i32 loc(#loc4)
    %28 = llvm.add %10, %26 : i32 loc(#loc5)
    %29 = llvm.add %10, %27 : i32 loc(#loc5)
    %30 = llvm.icmp "slt" %28, %arg3 : i32 loc(#loc6)
    %31 = llvm.icmp "slt" %29, %arg3 : i32 loc(#loc6)
    %32 = llvm.getelementptr %arg0[%28] : (!llvm.ptr<1>, i32) -> !llvm.ptr<1>, f32 loc(#loc7)
    %33 = llvm.getelementptr %arg0[%29] : (!llvm.ptr<1>, i32) -> !llvm.ptr<1>, f32 loc(#loc7)
    %34 = llvm.inline_asm has_side_effects asm_dialect = att operand_attrs = [] "mov.u32 $0, 0x0;\0A\09mov.u32 $1, 0x0;\0A\09mov.u32 $2, 0x0;\0A\09mov.u32 $3, 0x0;\0A\09@$5 ld.global.v4.b32 { $0, $1, $2, $3 }, [ $4 + 0 ];", "=r,=r,=r,=r,l,b" %32, %30 : (!llvm.ptr<1>, i1) -> !llvm.struct<(i32, i32, i32, i32)> loc(#loc8)
    %35 = llvm.extractvalue %34[0] : !llvm.struct<(i32, i32, i32, i32)>  loc(#loc8)
    %36 = llvm.bitcast %35 : i32 to vector<1xf32> loc(#loc8)
    %37 = llvm.extractvalue %34[1] : !llvm.struct<(i32, i32, i32, i32)>  loc(#loc8)
    %38 = llvm.bitcast %37 : i32 to vector<1xf32> loc(#loc8)
    %39 = llvm.extractvalue %34[2] : !llvm.struct<(i32, i32, i32, i32)>  loc(#loc8)
    %40 = llvm.bitcast %39 : i32 to vector<1xf32> loc(#loc8)
    %41 = llvm.extractvalue %34[3] : !llvm.struct<(i32, i32, i32, i32)>  loc(#loc8)
    %42 = llvm.bitcast %41 : i32 to vector<1xf32> loc(#loc8)
    %43 = llvm.extractelement %36[%7 : i32] : vector<1xf32> loc(#loc8)
    %44 = llvm.extractelement %38[%7 : i32] : vector<1xf32> loc(#loc8)
    %45 = llvm.extractelement %40[%7 : i32] : vector<1xf32> loc(#loc8)
    %46 = llvm.extractelement %42[%7 : i32] : vector<1xf32> loc(#loc8)
    %47 = llvm.inline_asm has_side_effects asm_dialect = att operand_attrs = [] "mov.u32 $0, 0x0;\0A\09mov.u32 $1, 0x0;\0A\09mov.u32 $2, 0x0;\0A\09mov.u32 $3, 0x0;\0A\09@$5 ld.global.v4.b32 { $0, $1, $2, $3 }, [ $4 + 0 ];", "=r,=r,=r,=r,l,b" %33, %31 : (!llvm.ptr<1>, i1) -> !llvm.struct<(i32, i32, i32, i32)> loc(#loc8)
    %48 = llvm.extractvalue %47[0] : !llvm.struct<(i32, i32, i32, i32)>  loc(#loc8)
    %49 = llvm.bitcast %48 : i32 to vector<1xf32> loc(#loc8)
    %50 = llvm.extractvalue %47[1] : !llvm.struct<(i32, i32, i32, i32)>  loc(#loc8)
    %51 = llvm.bitcast %50 : i32 to vector<1xf32> loc(#loc8)
    %52 = llvm.extractvalue %47[2] : !llvm.struct<(i32, i32, i32, i32)>  loc(#loc8)
    %53 = llvm.bitcast %52 : i32 to vector<1xf32> loc(#loc8)
    %54 = llvm.extractvalue %47[3] : !llvm.struct<(i32, i32, i32, i32)>  loc(#loc8)
    %55 = llvm.bitcast %54 : i32 to vector<1xf32> loc(#loc8)
    %56 = llvm.extractelement %49[%7 : i32] : vector<1xf32> loc(#loc8)
    %57 = llvm.extractelement %51[%7 : i32] : vector<1xf32> loc(#loc8)
    %58 = llvm.extractelement %53[%7 : i32] : vector<1xf32> loc(#loc8)
    %59 = llvm.extractelement %55[%7 : i32] : vector<1xf32> loc(#loc8)
    %60 = llvm.getelementptr %arg1[%28] : (!llvm.ptr<1>, i32) -> !llvm.ptr<1>, f32 loc(#loc9)
    %61 = llvm.getelementptr %arg1[%29] : (!llvm.ptr<1>, i32) -> !llvm.ptr<1>, f32 loc(#loc9)
    %62 = llvm.inline_asm has_side_effects asm_dialect = att operand_attrs = [] "mov.u32 $0, 0x0;\0A\09mov.u32 $1, 0x0;\0A\09mov.u32 $2, 0x0;\0A\09mov.u32 $3, 0x0;\0A\09@$5 ld.global.v4.b32 { $0, $1, $2, $3 }, [ $4 + 0 ];", "=r,=r,=r,=r,l,b" %60, %30 : (!llvm.ptr<1>, i1) -> !llvm.struct<(i32, i32, i32, i32)> loc(#loc10)
    %63 = llvm.extractvalue %62[0] : !llvm.struct<(i32, i32, i32, i32)>  loc(#loc10)
    %64 = llvm.bitcast %63 : i32 to vector<1xf32> loc(#loc10)
    %65 = llvm.extractvalue %62[1] : !llvm.struct<(i32, i32, i32, i32)>  loc(#loc10)
    %66 = llvm.bitcast %65 : i32 to vector<1xf32> loc(#loc10)
    %67 = llvm.extractvalue %62[2] : !llvm.struct<(i32, i32, i32, i32)>  loc(#loc10)
    %68 = llvm.bitcast %67 : i32 to vector<1xf32> loc(#loc10)
    %69 = llvm.extractvalue %62[3] : !llvm.struct<(i32, i32, i32, i32)>  loc(#loc10)
    %70 = llvm.bitcast %69 : i32 to vector<1xf32> loc(#loc10)
    %71 = llvm.extractelement %64[%7 : i32] : vector<1xf32> loc(#loc10)
    %72 = llvm.extractelement %66[%7 : i32] : vector<1xf32> loc(#loc10)
    %73 = llvm.extractelement %68[%7 : i32] : vector<1xf32> loc(#loc10)
    %74 = llvm.extractelement %70[%7 : i32] : vector<1xf32> loc(#loc10)
    %75 = llvm.inline_asm has_side_effects asm_dialect = att operand_attrs = [] "mov.u32 $0, 0x0;\0A\09mov.u32 $1, 0x0;\0A\09mov.u32 $2, 0x0;\0A\09mov.u32 $3, 0x0;\0A\09@$5 ld.global.v4.b32 { $0, $1, $2, $3 }, [ $4 + 0 ];", "=r,=r,=r,=r,l,b" %61, %31 : (!llvm.ptr<1>, i1) -> !llvm.struct<(i32, i32, i32, i32)> loc(#loc10)
    %76 = llvm.extractvalue %75[0] : !llvm.struct<(i32, i32, i32, i32)>  loc(#loc10)
    %77 = llvm.bitcast %76 : i32 to vector<1xf32> loc(#loc10)
    %78 = llvm.extractvalue %75[1] : !llvm.struct<(i32, i32, i32, i32)>  loc(#loc10)
    %79 = llvm.bitcast %78 : i32 to vector<1xf32> loc(#loc10)
    %80 = llvm.extractvalue %75[2] : !llvm.struct<(i32, i32, i32, i32)>  loc(#loc10)
    %81 = llvm.bitcast %80 : i32 to vector<1xf32> loc(#loc10)
    %82 = llvm.extractvalue %75[3] : !llvm.struct<(i32, i32, i32, i32)>  loc(#loc10)
    %83 = llvm.bitcast %82 : i32 to vector<1xf32> loc(#loc10)
    %84 = llvm.extractelement %77[%7 : i32] : vector<1xf32> loc(#loc10)
    %85 = llvm.extractelement %79[%7 : i32] : vector<1xf32> loc(#loc10)
    %86 = llvm.extractelement %81[%7 : i32] : vector<1xf32> loc(#loc10)
    %87 = llvm.extractelement %83[%7 : i32] : vector<1xf32> loc(#loc10)
    %88 = llvm.fadd %43, %71 : f32 loc(#loc11)
    %89 = llvm.fadd %44, %72 : f32 loc(#loc11)
    %90 = llvm.fadd %45, %73 : f32 loc(#loc11)
    %91 = llvm.fadd %46, %74 : f32 loc(#loc11)
    %92 = llvm.fadd %56, %84 : f32 loc(#loc11)
    %93 = llvm.fadd %57, %85 : f32 loc(#loc11)
    %94 = llvm.fadd %58, %86 : f32 loc(#loc11)
    %95 = llvm.fadd %59, %87 : f32 loc(#loc11)
    %96 = llvm.getelementptr %arg2[%28] : (!llvm.ptr<1>, i32) -> !llvm.ptr<1>, f32 loc(#loc12)
    %97 = llvm.getelementptr %arg2[%29] : (!llvm.ptr<1>, i32) -> !llvm.ptr<1>, f32 loc(#loc12)
    %98 = llvm.insertelement %88, %0[%4 : i32] : vector<1xf32> loc(#loc13)
    %99 = llvm.bitcast %98 : vector<1xf32> to i32 loc(#loc13)
    %100 = llvm.insertelement %89, %0[%4 : i32] : vector<1xf32> loc(#loc13)
    %101 = llvm.bitcast %100 : vector<1xf32> to i32 loc(#loc13)
    %102 = llvm.insertelement %90, %0[%4 : i32] : vector<1xf32> loc(#loc13)
    %103 = llvm.bitcast %102 : vector<1xf32> to i32 loc(#loc13)
    %104 = llvm.insertelement %91, %0[%4 : i32] : vector<1xf32> loc(#loc13)
    %105 = llvm.bitcast %104 : vector<1xf32> to i32 loc(#loc13)
    %106 = llvm.inline_asm has_side_effects asm_dialect = att operand_attrs = [] "@$5 st.global.v4.b32 [ $4 + 0 ], { $0, $1, $2, $3 };", "r,r,r,r,l,b" %99, %101, %103, %105, %96, %30 : (i32, i32, i32, i32, !llvm.ptr<1>, i1) -> !llvm.void loc(#loc13)
    %107 = llvm.insertelement %92, %0[%4 : i32] : vector<1xf32> loc(#loc13)
    %108 = llvm.bitcast %107 : vector<1xf32> to i32 loc(#loc13)
    %109 = llvm.insertelement %93, %0[%4 : i32] : vector<1xf32> loc(#loc13)
    %110 = llvm.bitcast %109 : vector<1xf32> to i32 loc(#loc13)
    %111 = llvm.insertelement %94, %0[%4 : i32] : vector<1xf32> loc(#loc13)
    %112 = llvm.bitcast %111 : vector<1xf32> to i32 loc(#loc13)
    %113 = llvm.insertelement %95, %0[%4 : i32] : vector<1xf32> loc(#loc13)
    %114 = llvm.bitcast %113 : vector<1xf32> to i32 loc(#loc13)
    %115 = llvm.inline_asm has_side_effects asm_dialect = att operand_attrs = [] "@$5 st.global.v4.b32 [ $4 + 0 ], { $0, $1, $2, $3 };", "r,r,r,r,l,b" %108, %110, %112, %114, %97, %31 : (i32, i32, i32, i32, !llvm.ptr<1>, i1) -> !llvm.void loc(#loc13)
    llvm.return loc(#loc14)
  } loc(#loc)
} loc(#loc)
#loc1 = loc(unknown)
#loc2 = loc("/mnt/home/douliyang/triton-workspace/triton-tutorial/tutorial/Triton-101/Debug/vector_add.py":39:24)
#loc3 = loc("/mnt/home/douliyang/triton-workspace/triton-tutorial/tutorial/Triton-101/Debug/vector_add.py":52:24)
#loc4 = loc("/mnt/home/douliyang/triton-workspace/triton-tutorial/tutorial/Triton-101/Debug/vector_add.py":53:41)
#loc5 = loc("/mnt/home/douliyang/triton-workspace/triton-tutorial/tutorial/Triton-101/Debug/vector_add.py":53:28)
#loc6 = loc("/mnt/home/douliyang/triton-workspace/triton-tutorial/tutorial/Triton-101/Debug/vector_add.py":55:21)
#loc7 = loc("/mnt/home/douliyang/triton-workspace/triton-tutorial/tutorial/Triton-101/Debug/vector_add.py":58:24)
#loc8 = loc("/mnt/home/douliyang/triton-workspace/triton-tutorial/tutorial/Triton-101/Debug/vector_add.py":58:16)
#loc9 = loc("/mnt/home/douliyang/triton-workspace/triton-tutorial/tutorial/Triton-101/Debug/vector_add.py":59:24)
#loc10 = loc("/mnt/home/douliyang/triton-workspace/triton-tutorial/tutorial/Triton-101/Debug/vector_add.py":59:16)
#loc11 = loc("/mnt/home/douliyang/triton-workspace/triton-tutorial/tutorial/Triton-101/Debug/vector_add.py":60:17)
#loc12 = loc("/mnt/home/douliyang/triton-workspace/triton-tutorial/tutorial/Triton-101/Debug/vector_add.py":62:26)
#loc13 = loc("/mnt/home/douliyang/triton-workspace/triton-tutorial/tutorial/Triton-101/Debug/vector_add.py":62:35)
#loc14 = loc("/mnt/home/douliyang/triton-workspace/triton-tutorial/tutorial/Triton-101/Debug/vector_add.py":62:4)


tensor([1.3713, 1.3076, 0.4940,  ..., 0.6724, 1.2141, 0.9733], device='cuda:0')
tensor([1.3713, 1.3076, 0.4940,  ..., 0.6724, 1.2141, 0.9733], device='cuda:0')
The maximum difference between torch and triton is 0.0
vector-add-performance:
           size      Triton       Torch
0        4096.0   12.000000   12.000000
1        8192.0   24.000000   24.000000
2       16384.0   48.000000   48.000000
3       32768.0   96.000000   76.800002
4       65536.0  153.600004  153.600004
5      131072.0  255.999991  255.999991
6      262144.0  384.000001  384.000001
7      524288.0  558.545450  558.545450
8     1048576.0  682.666643  682.666643
9     2097152.0  768.000002  768.000002
10    4194304.0  792.774204  780.190482
11    8388608.0  805.770507  840.205105
12   16777216.0  854.817372  854.817372
13   33554432.0  866.114550  866.114550
14   67108864.0  868.026517  867.069479
15  134217728.0  378.461892  872.843515
Matched AddIOp: %4 = arith.addi %3, %2 : tensor<1024xi32, #ttg.blocked<{sizePerThread = [1], threadsPerWarp = [32], warpsPerCTA = [4], order = [0]}>>
